name: "coco_refinedet_seresnext50_320x320_deploy"
input: "data"
input_shape {
  dim: 1
  dim: 3
  dim: 320
  dim: 320
}
layer {
  name: "conv1/7x7_s2"
  type: "Convolution"
  bottom: "data"
  top: "conv1/7x7_s2"
  param {
    lr_mult: 1.0
    decay_mult: 1.0
  }
  convolution_param {
    num_output: 64
    bias_term: false
    pad: 3
    kernel_size: 7
    stride: 2
    weight_filler {
      type: "gaussian"
      std: 0.00999999977648
    }
  }
}
layer {
  name: "conv1/7x7_s2/bn"
  type: "BatchNorm"
  bottom: "conv1/7x7_s2"
  top: "conv1/7x7_s2"
}
layer {
  name: "conv1/7x7_s2/bn/scale"
  type: "Scale"
  bottom: "conv1/7x7_s2"
  top: "conv1/7x7_s2"
  scale_param {
    bias_term: true
  }
}
layer {
  name: "conv1/relu_7x7_s2"
  type: "ReLU"
  bottom: "conv1/7x7_s2"
  top: "conv1/7x7_s2"
}
layer {
  name: "pool1/3x3_s2"
  type: "Pooling"
  bottom: "conv1/7x7_s2"
  top: "pool1/3x3_s2"
  pooling_param {
    pool: MAX
    kernel_size: 3
    stride: 2
  }
}
layer {
  name: "conv2_1_1x1_reduce"
  type: "Convolution"
  bottom: "pool1/3x3_s2"
  top: "conv2_1_1x1_reduce"
  param {
    lr_mult: 1.0
    decay_mult: 1.0
  }
  convolution_param {
    num_output: 128
    bias_term: false
    pad: 0
    kernel_size: 1
    stride: 1
    weight_filler {
      type: "gaussian"
      std: 0.00999999977648
    }
  }
}
layer {
  name: "conv2_1_1x1_reduce/bn"
  type: "BatchNorm"
  bottom: "conv2_1_1x1_reduce"
  top: "conv2_1_1x1_reduce"
}
layer {
  name: "conv2_1_1x1_reduce/bn/scale"
  type: "Scale"
  bottom: "conv2_1_1x1_reduce"
  top: "conv2_1_1x1_reduce"
  scale_param {
    bias_term: true
  }
}
layer {
  name: "conv2_1_1x1_reduce/relu"
  type: "ReLU"
  bottom: "conv2_1_1x1_reduce"
  top: "conv2_1_1x1_reduce"
}
layer {
  name: "conv2_1_3x3"
  type: "Convolution"
  bottom: "conv2_1_1x1_reduce"
  top: "conv2_1_3x3"
  param {
    lr_mult: 1.0
    decay_mult: 1.0
  }
  convolution_param {
    num_output: 128
    bias_term: false
    pad: 1
    kernel_size: 3
    group: 32
    stride: 1
    weight_filler {
      type: "gaussian"
      std: 0.00999999977648
    }
  }
}
layer {
  name: "conv2_1_3x3/bn"
  type: "BatchNorm"
  bottom: "conv2_1_3x3"
  top: "conv2_1_3x3"
}
layer {
  name: "conv2_1_3x3/bn/scale"
  type: "Scale"
  bottom: "conv2_1_3x3"
  top: "conv2_1_3x3"
  scale_param {
    bias_term: true
  }
}
layer {
  name: "conv2_1_3x3/relu"
  type: "ReLU"
  bottom: "conv2_1_3x3"
  top: "conv2_1_3x3"
}
layer {
  name: "conv2_1_1x1_increase"
  type: "Convolution"
  bottom: "conv2_1_3x3"
  top: "conv2_1_1x1_increase"
  param {
    lr_mult: 1.0
    decay_mult: 1.0
  }
  convolution_param {
    num_output: 256
    bias_term: false
    pad: 0
    kernel_size: 1
    stride: 1
    weight_filler {
      type: "gaussian"
      std: 0.00999999977648
    }
  }
}
layer {
  name: "conv2_1_1x1_increase/bn"
  type: "BatchNorm"
  bottom: "conv2_1_1x1_increase"
  top: "conv2_1_1x1_increase"
}
layer {
  name: "conv2_1_1x1_increase/bn/scale"
  type: "Scale"
  bottom: "conv2_1_1x1_increase"
  top: "conv2_1_1x1_increase"
  scale_param {
    bias_term: true
  }
}
layer {
  name: "conv2_1_global_pool"
  type: "Pooling"
  bottom: "conv2_1_1x1_increase"
  top: "conv2_1_global_pool"
  pooling_param {
    pool: AVE
    engine: CAFFE
    global_pooling: true
  }
}
layer {
  name: "conv2_1_1x1_down"
  type: "Convolution"
  bottom: "conv2_1_global_pool"
  top: "conv2_1_1x1_down"
  param {
    lr_mult: 1.0
    decay_mult: 1.0
  }
  convolution_param {
    num_output: 16
    kernel_size: 1
    stride: 1
    weight_filler {
      type: "gaussian"
      std: 0.00999999977648
    }
  }
}
layer {
  name: "conv2_1_1x1_down/relu"
  type: "ReLU"
  bottom: "conv2_1_1x1_down"
  top: "conv2_1_1x1_down"
}
layer {
  name: "conv2_1_1x1_up"
  type: "Convolution"
  bottom: "conv2_1_1x1_down"
  top: "conv2_1_1x1_up"
  param {
    lr_mult: 1.0
    decay_mult: 1.0
  }
  convolution_param {
    num_output: 256
    kernel_size: 1
    stride: 1
    weight_filler {
      type: "gaussian"
      std: 0.00999999977648
    }
  }
}
layer {
  name: "conv2_1_prob"
  type: "Sigmoid"
  bottom: "conv2_1_1x1_up"
  top: "conv2_1_1x1_up"
}
layer {
  name: "conv2_1_1x1_proj"
  type: "Convolution"
  bottom: "pool1/3x3_s2"
  top: "conv2_1_1x1_proj"
  param {
    lr_mult: 1.0
    decay_mult: 1.0
  }
  convolution_param {
    num_output: 256
    bias_term: false
    pad: 0
    kernel_size: 1
    stride: 1
    weight_filler {
      type: "gaussian"
      std: 0.00999999977648
    }
  }
}
layer {
  name: "conv2_1_1x1_proj/bn"
  type: "BatchNorm"
  bottom: "conv2_1_1x1_proj"
  top: "conv2_1_1x1_proj"
}
layer {
  name: "conv2_1_1x1_proj/bn/scale"
  type: "Scale"
  bottom: "conv2_1_1x1_proj"
  top: "conv2_1_1x1_proj"
  scale_param {
    bias_term: true
  }
}
layer {
  name: "conv2_1"
  type: "Axpy"
  bottom: "conv2_1_1x1_up"
  bottom: "conv2_1_1x1_increase"
  bottom: "conv2_1_1x1_proj"
  top: "conv2_1"
}
layer {
  name: "conv2_1/relu"
  type: "ReLU"
  bottom: "conv2_1"
  top: "conv2_1"
}
layer {
  name: "conv2_2_1x1_reduce"
  type: "Convolution"
  bottom: "conv2_1"
  top: "conv2_2_1x1_reduce"
  param {
    lr_mult: 1.0
    decay_mult: 1.0
  }
  convolution_param {
    num_output: 128
    bias_term: false
    pad: 0
    kernel_size: 1
    stride: 1
    weight_filler {
      type: "gaussian"
      std: 0.00999999977648
    }
  }
}
layer {
  name: "conv2_2_1x1_reduce/bn"
  type: "BatchNorm"
  bottom: "conv2_2_1x1_reduce"
  top: "conv2_2_1x1_reduce"
}
layer {
  name: "conv2_2_1x1_reduce/bn/scale"
  type: "Scale"
  bottom: "conv2_2_1x1_reduce"
  top: "conv2_2_1x1_reduce"
  scale_param {
    bias_term: true
  }
}
layer {
  name: "conv2_2_1x1_reduce/relu"
  type: "ReLU"
  bottom: "conv2_2_1x1_reduce"
  top: "conv2_2_1x1_reduce"
}
layer {
  name: "conv2_2_3x3"
  type: "Convolution"
  bottom: "conv2_2_1x1_reduce"
  top: "conv2_2_3x3"
  param {
    lr_mult: 1.0
    decay_mult: 1.0
  }
  convolution_param {
    num_output: 128
    bias_term: false
    pad: 1
    kernel_size: 3
    group: 32
    stride: 1
    weight_filler {
      type: "gaussian"
      std: 0.00999999977648
    }
  }
}
layer {
  name: "conv2_2_3x3/bn"
  type: "BatchNorm"
  bottom: "conv2_2_3x3"
  top: "conv2_2_3x3"
}
layer {
  name: "conv2_2_3x3/bn/scale"
  type: "Scale"
  bottom: "conv2_2_3x3"
  top: "conv2_2_3x3"
  scale_param {
    bias_term: true
  }
}
layer {
  name: "conv2_2_3x3/relu"
  type: "ReLU"
  bottom: "conv2_2_3x3"
  top: "conv2_2_3x3"
}
layer {
  name: "conv2_2_1x1_increase"
  type: "Convolution"
  bottom: "conv2_2_3x3"
  top: "conv2_2_1x1_increase"
  param {
    lr_mult: 1.0
    decay_mult: 1.0
  }
  convolution_param {
    num_output: 256
    bias_term: false
    pad: 0
    kernel_size: 1
    stride: 1
    weight_filler {
      type: "gaussian"
      std: 0.00999999977648
    }
  }
}
layer {
  name: "conv2_2_1x1_increase/bn"
  type: "BatchNorm"
  bottom: "conv2_2_1x1_increase"
  top: "conv2_2_1x1_increase"
}
layer {
  name: "conv2_2_1x1_increase/bn/scale"
  type: "Scale"
  bottom: "conv2_2_1x1_increase"
  top: "conv2_2_1x1_increase"
  scale_param {
    bias_term: true
  }
}
layer {
  name: "conv2_2_global_pool"
  type: "Pooling"
  bottom: "conv2_2_1x1_increase"
  top: "conv2_2_global_pool"
  pooling_param {
    pool: AVE
    engine: CAFFE
    global_pooling: true
  }
}
layer {
  name: "conv2_2_1x1_down"
  type: "Convolution"
  bottom: "conv2_2_global_pool"
  top: "conv2_2_1x1_down"
  param {
    lr_mult: 1.0
    decay_mult: 1.0
  }
  convolution_param {
    num_output: 16
    kernel_size: 1
    stride: 1
    weight_filler {
      type: "gaussian"
      std: 0.00999999977648
    }
  }
}
layer {
  name: "conv2_2_1x1_down/relu"
  type: "ReLU"
  bottom: "conv2_2_1x1_down"
  top: "conv2_2_1x1_down"
}
layer {
  name: "conv2_2_1x1_up"
  type: "Convolution"
  bottom: "conv2_2_1x1_down"
  top: "conv2_2_1x1_up"
  param {
    lr_mult: 1.0
    decay_mult: 1.0
  }
  convolution_param {
    num_output: 256
    kernel_size: 1
    stride: 1
    weight_filler {
      type: "gaussian"
      std: 0.00999999977648
    }
  }
}
layer {
  name: "conv2_2_prob"
  type: "Sigmoid"
  bottom: "conv2_2_1x1_up"
  top: "conv2_2_1x1_up"
}
layer {
  name: "conv2_2"
  type: "Axpy"
  bottom: "conv2_2_1x1_up"
  bottom: "conv2_2_1x1_increase"
  bottom: "conv2_1"
  top: "conv2_2"
}
layer {
  name: "conv2_2/relu"
  type: "ReLU"
  bottom: "conv2_2"
  top: "conv2_2"
}
layer {
  name: "conv2_3_1x1_reduce"
  type: "Convolution"
  bottom: "conv2_2"
  top: "conv2_3_1x1_reduce"
  param {
    lr_mult: 1.0
    decay_mult: 1.0
  }
  convolution_param {
    num_output: 128
    bias_term: false
    pad: 0
    kernel_size: 1
    stride: 1
    weight_filler {
      type: "gaussian"
      std: 0.00999999977648
    }
  }
}
layer {
  name: "conv2_3_1x1_reduce/bn"
  type: "BatchNorm"
  bottom: "conv2_3_1x1_reduce"
  top: "conv2_3_1x1_reduce"
}
layer {
  name: "conv2_3_1x1_reduce/bn/scale"
  type: "Scale"
  bottom: "conv2_3_1x1_reduce"
  top: "conv2_3_1x1_reduce"
  scale_param {
    bias_term: true
  }
}
layer {
  name: "conv2_3_1x1_reduce/relu"
  type: "ReLU"
  bottom: "conv2_3_1x1_reduce"
  top: "conv2_3_1x1_reduce"
}
layer {
  name: "conv2_3_3x3"
  type: "Convolution"
  bottom: "conv2_3_1x1_reduce"
  top: "conv2_3_3x3"
  param {
    lr_mult: 1.0
    decay_mult: 1.0
  }
  convolution_param {
    num_output: 128
    bias_term: false
    pad: 1
    kernel_size: 3
    group: 32
    stride: 1
    weight_filler {
      type: "gaussian"
      std: 0.00999999977648
    }
  }
}
layer {
  name: "conv2_3_3x3/bn"
  type: "BatchNorm"
  bottom: "conv2_3_3x3"
  top: "conv2_3_3x3"
}
layer {
  name: "conv2_3_3x3/bn/scale"
  type: "Scale"
  bottom: "conv2_3_3x3"
  top: "conv2_3_3x3"
  scale_param {
    bias_term: true
  }
}
layer {
  name: "conv2_3_3x3/relu"
  type: "ReLU"
  bottom: "conv2_3_3x3"
  top: "conv2_3_3x3"
}
layer {
  name: "conv2_3_1x1_increase"
  type: "Convolution"
  bottom: "conv2_3_3x3"
  top: "conv2_3_1x1_increase"
  param {
    lr_mult: 1.0
    decay_mult: 1.0
  }
  convolution_param {
    num_output: 256
    bias_term: false
    pad: 0
    kernel_size: 1
    stride: 1
    weight_filler {
      type: "gaussian"
      std: 0.00999999977648
    }
  }
}
layer {
  name: "conv2_3_1x1_increase/bn"
  type: "BatchNorm"
  bottom: "conv2_3_1x1_increase"
  top: "conv2_3_1x1_increase"
}
layer {
  name: "conv2_3_1x1_increase/bn/scale"
  type: "Scale"
  bottom: "conv2_3_1x1_increase"
  top: "conv2_3_1x1_increase"
  scale_param {
    bias_term: true
  }
}
layer {
  name: "conv2_3_global_pool"
  type: "Pooling"
  bottom: "conv2_3_1x1_increase"
  top: "conv2_3_global_pool"
  pooling_param {
    pool: AVE
    engine: CAFFE
    global_pooling: true
  }
}
layer {
  name: "conv2_3_1x1_down"
  type: "Convolution"
  bottom: "conv2_3_global_pool"
  top: "conv2_3_1x1_down"
  param {
    lr_mult: 1.0
    decay_mult: 1.0
  }
  convolution_param {
    num_output: 16
    kernel_size: 1
    stride: 1
    weight_filler {
      type: "gaussian"
      std: 0.00999999977648
    }
  }
}
layer {
  name: "conv2_3_1x1_down/relu"
  type: "ReLU"
  bottom: "conv2_3_1x1_down"
  top: "conv2_3_1x1_down"
}
layer {
  name: "conv2_3_1x1_up"
  type: "Convolution"
  bottom: "conv2_3_1x1_down"
  top: "conv2_3_1x1_up"
  param {
    lr_mult: 1.0
    decay_mult: 1.0
  }
  convolution_param {
    num_output: 256
    kernel_size: 1
    stride: 1
    weight_filler {
      type: "gaussian"
      std: 0.00999999977648
    }
  }
}
layer {
  name: "conv2_3_prob"
  type: "Sigmoid"
  bottom: "conv2_3_1x1_up"
  top: "conv2_3_1x1_up"
}
layer {
  name: "conv2_3"
  type: "Axpy"
  bottom: "conv2_3_1x1_up"
  bottom: "conv2_3_1x1_increase"
  bottom: "conv2_2"
  top: "conv2_3"
}
layer {
  name: "conv2_3/relu"
  type: "ReLU"
  bottom: "conv2_3"
  top: "conv2_3"
}
layer {
  name: "conv3_1_1x1_reduce"
  type: "Convolution"
  bottom: "conv2_3"
  top: "conv3_1_1x1_reduce"
  param {
    lr_mult: 1.0
    decay_mult: 1.0
  }
  convolution_param {
    num_output: 256
    bias_term: false
    pad: 0
    kernel_size: 1
    stride: 1
    weight_filler {
      type: "gaussian"
      std: 0.00999999977648
    }
  }
}
layer {
  name: "conv3_1_1x1_reduce/bn"
  type: "BatchNorm"
  bottom: "conv3_1_1x1_reduce"
  top: "conv3_1_1x1_reduce"
}
layer {
  name: "conv3_1_1x1_reduce/bn/scale"
  type: "Scale"
  bottom: "conv3_1_1x1_reduce"
  top: "conv3_1_1x1_reduce"
  scale_param {
    bias_term: true
  }
}
layer {
  name: "conv3_1_1x1_reduce/relu"
  type: "ReLU"
  bottom: "conv3_1_1x1_reduce"
  top: "conv3_1_1x1_reduce"
}
layer {
  name: "conv3_1_3x3"
  type: "Convolution"
  bottom: "conv3_1_1x1_reduce"
  top: "conv3_1_3x3"
  param {
    lr_mult: 1.0
    decay_mult: 1.0
  }
  convolution_param {
    num_output: 256
    bias_term: false
    pad: 1
    kernel_size: 3
    group: 32
    stride: 2
    weight_filler {
      type: "gaussian"
      std: 0.00999999977648
    }
  }
}
layer {
  name: "conv3_1_3x3/bn"
  type: "BatchNorm"
  bottom: "conv3_1_3x3"
  top: "conv3_1_3x3"
}
layer {
  name: "conv3_1_3x3/bn/scale"
  type: "Scale"
  bottom: "conv3_1_3x3"
  top: "conv3_1_3x3"
  scale_param {
    bias_term: true
  }
}
layer {
  name: "conv3_1_3x3/relu"
  type: "ReLU"
  bottom: "conv3_1_3x3"
  top: "conv3_1_3x3"
}
layer {
  name: "conv3_1_1x1_increase"
  type: "Convolution"
  bottom: "conv3_1_3x3"
  top: "conv3_1_1x1_increase"
  param {
    lr_mult: 1.0
    decay_mult: 1.0
  }
  convolution_param {
    num_output: 512
    bias_term: false
    pad: 0
    kernel_size: 1
    stride: 1
    weight_filler {
      type: "gaussian"
      std: 0.00999999977648
    }
  }
}
layer {
  name: "conv3_1_1x1_increase/bn"
  type: "BatchNorm"
  bottom: "conv3_1_1x1_increase"
  top: "conv3_1_1x1_increase"
}
layer {
  name: "conv3_1_1x1_increase/bn/scale"
  type: "Scale"
  bottom: "conv3_1_1x1_increase"
  top: "conv3_1_1x1_increase"
  scale_param {
    bias_term: true
  }
}
layer {
  name: "conv3_1_global_pool"
  type: "Pooling"
  bottom: "conv3_1_1x1_increase"
  top: "conv3_1_global_pool"
  pooling_param {
    pool: AVE
    engine: CAFFE
    global_pooling: true
  }
}
layer {
  name: "conv3_1_1x1_down"
  type: "Convolution"
  bottom: "conv3_1_global_pool"
  top: "conv3_1_1x1_down"
  param {
    lr_mult: 1.0
    decay_mult: 1.0
  }
  convolution_param {
    num_output: 32
    kernel_size: 1
    stride: 1
    weight_filler {
      type: "gaussian"
      std: 0.00999999977648
    }
  }
}
layer {
  name: "conv3_1_1x1_down/relu"
  type: "ReLU"
  bottom: "conv3_1_1x1_down"
  top: "conv3_1_1x1_down"
}
layer {
  name: "conv3_1_1x1_up"
  type: "Convolution"
  bottom: "conv3_1_1x1_down"
  top: "conv3_1_1x1_up"
  param {
    lr_mult: 1.0
    decay_mult: 1.0
  }
  convolution_param {
    num_output: 512
    kernel_size: 1
    stride: 1
    weight_filler {
      type: "gaussian"
      std: 0.00999999977648
    }
  }
}
layer {
  name: "conv3_1_prob"
  type: "Sigmoid"
  bottom: "conv3_1_1x1_up"
  top: "conv3_1_1x1_up"
}
layer {
  name: "conv3_1_1x1_proj"
  type: "Convolution"
  bottom: "conv2_3"
  top: "conv3_1_1x1_proj"
  param {
    lr_mult: 1.0
    decay_mult: 1.0
  }
  convolution_param {
    num_output: 512
    bias_term: false
    pad: 0
    kernel_size: 1
    stride: 2
    weight_filler {
      type: "gaussian"
      std: 0.00999999977648
    }
  }
}
layer {
  name: "conv3_1_1x1_proj/bn"
  type: "BatchNorm"
  bottom: "conv3_1_1x1_proj"
  top: "conv3_1_1x1_proj"
}
layer {
  name: "conv3_1_1x1_proj/bn/scale"
  type: "Scale"
  bottom: "conv3_1_1x1_proj"
  top: "conv3_1_1x1_proj"
  scale_param {
    bias_term: true
  }
}
layer {
  name: "conv3_1"
  type: "Axpy"
  bottom: "conv3_1_1x1_up"
  bottom: "conv3_1_1x1_increase"
  bottom: "conv3_1_1x1_proj"
  top: "conv3_1"
}
layer {
  name: "conv3_1/relu"
  type: "ReLU"
  bottom: "conv3_1"
  top: "conv3_1"
}
layer {
  name: "conv3_2_1x1_reduce"
  type: "Convolution"
  bottom: "conv3_1"
  top: "conv3_2_1x1_reduce"
  param {
    lr_mult: 1.0
    decay_mult: 1.0
  }
  convolution_param {
    num_output: 256
    bias_term: false
    pad: 0
    kernel_size: 1
    stride: 1
    weight_filler {
      type: "gaussian"
      std: 0.00999999977648
    }
  }
}
layer {
  name: "conv3_2_1x1_reduce/bn"
  type: "BatchNorm"
  bottom: "conv3_2_1x1_reduce"
  top: "conv3_2_1x1_reduce"
}
layer {
  name: "conv3_2_1x1_reduce/bn/scale"
  type: "Scale"
  bottom: "conv3_2_1x1_reduce"
  top: "conv3_2_1x1_reduce"
  scale_param {
    bias_term: true
  }
}
layer {
  name: "conv3_2_1x1_reduce/relu"
  type: "ReLU"
  bottom: "conv3_2_1x1_reduce"
  top: "conv3_2_1x1_reduce"
}
layer {
  name: "conv3_2_3x3"
  type: "Convolution"
  bottom: "conv3_2_1x1_reduce"
  top: "conv3_2_3x3"
  param {
    lr_mult: 1.0
    decay_mult: 1.0
  }
  convolution_param {
    num_output: 256
    bias_term: false
    pad: 1
    kernel_size: 3
    group: 32
    stride: 1
    weight_filler {
      type: "gaussian"
      std: 0.00999999977648
    }
  }
}
layer {
  name: "conv3_2_3x3/bn"
  type: "BatchNorm"
  bottom: "conv3_2_3x3"
  top: "conv3_2_3x3"
}
layer {
  name: "conv3_2_3x3/bn/scale"
  type: "Scale"
  bottom: "conv3_2_3x3"
  top: "conv3_2_3x3"
  scale_param {
    bias_term: true
  }
}
layer {
  name: "conv3_2_3x3/relu"
  type: "ReLU"
  bottom: "conv3_2_3x3"
  top: "conv3_2_3x3"
}
layer {
  name: "conv3_2_1x1_increase"
  type: "Convolution"
  bottom: "conv3_2_3x3"
  top: "conv3_2_1x1_increase"
  param {
    lr_mult: 1.0
    decay_mult: 1.0
  }
  convolution_param {
    num_output: 512
    bias_term: false
    pad: 0
    kernel_size: 1
    stride: 1
    weight_filler {
      type: "gaussian"
      std: 0.00999999977648
    }
  }
}
layer {
  name: "conv3_2_1x1_increase/bn"
  type: "BatchNorm"
  bottom: "conv3_2_1x1_increase"
  top: "conv3_2_1x1_increase"
}
layer {
  name: "conv3_2_1x1_increase/bn/scale"
  type: "Scale"
  bottom: "conv3_2_1x1_increase"
  top: "conv3_2_1x1_increase"
  scale_param {
    bias_term: true
  }
}
layer {
  name: "conv3_2_global_pool"
  type: "Pooling"
  bottom: "conv3_2_1x1_increase"
  top: "conv3_2_global_pool"
  pooling_param {
    pool: AVE
    engine: CAFFE
    global_pooling: true
  }
}
layer {
  name: "conv3_2_1x1_down"
  type: "Convolution"
  bottom: "conv3_2_global_pool"
  top: "conv3_2_1x1_down"
  param {
    lr_mult: 1.0
    decay_mult: 1.0
  }
  convolution_param {
    num_output: 32
    kernel_size: 1
    stride: 1
    weight_filler {
      type: "gaussian"
      std: 0.00999999977648
    }
  }
}
layer {
  name: "conv3_2_1x1_down/relu"
  type: "ReLU"
  bottom: "conv3_2_1x1_down"
  top: "conv3_2_1x1_down"
}
layer {
  name: "conv3_2_1x1_up"
  type: "Convolution"
  bottom: "conv3_2_1x1_down"
  top: "conv3_2_1x1_up"
  param {
    lr_mult: 1.0
    decay_mult: 1.0
  }
  convolution_param {
    num_output: 512
    kernel_size: 1
    stride: 1
    weight_filler {
      type: "gaussian"
      std: 0.00999999977648
    }
  }
}
layer {
  name: "conv3_2_prob"
  type: "Sigmoid"
  bottom: "conv3_2_1x1_up"
  top: "conv3_2_1x1_up"
}
layer {
  name: "conv3_2"
  type: "Axpy"
  bottom: "conv3_2_1x1_up"
  bottom: "conv3_2_1x1_increase"
  bottom: "conv3_1"
  top: "conv3_2"
}
layer {
  name: "conv3_2/relu"
  type: "ReLU"
  bottom: "conv3_2"
  top: "conv3_2"
}
layer {
  name: "conv3_3_1x1_reduce"
  type: "Convolution"
  bottom: "conv3_2"
  top: "conv3_3_1x1_reduce"
  param {
    lr_mult: 1.0
    decay_mult: 1.0
  }
  convolution_param {
    num_output: 256
    bias_term: false
    pad: 0
    kernel_size: 1
    stride: 1
    weight_filler {
      type: "gaussian"
      std: 0.00999999977648
    }
  }
}
layer {
  name: "conv3_3_1x1_reduce/bn"
  type: "BatchNorm"
  bottom: "conv3_3_1x1_reduce"
  top: "conv3_3_1x1_reduce"
}
layer {
  name: "conv3_3_1x1_reduce/bn/scale"
  type: "Scale"
  bottom: "conv3_3_1x1_reduce"
  top: "conv3_3_1x1_reduce"
  scale_param {
    bias_term: true
  }
}
layer {
  name: "conv3_3_1x1_reduce/relu"
  type: "ReLU"
  bottom: "conv3_3_1x1_reduce"
  top: "conv3_3_1x1_reduce"
}
layer {
  name: "conv3_3_3x3"
  type: "Convolution"
  bottom: "conv3_3_1x1_reduce"
  top: "conv3_3_3x3"
  param {
    lr_mult: 1.0
    decay_mult: 1.0
  }
  convolution_param {
    num_output: 256
    bias_term: false
    pad: 1
    kernel_size: 3
    group: 32
    stride: 1
    weight_filler {
      type: "gaussian"
      std: 0.00999999977648
    }
  }
}
layer {
  name: "conv3_3_3x3/bn"
  type: "BatchNorm"
  bottom: "conv3_3_3x3"
  top: "conv3_3_3x3"
}
layer {
  name: "conv3_3_3x3/bn/scale"
  type: "Scale"
  bottom: "conv3_3_3x3"
  top: "conv3_3_3x3"
  scale_param {
    bias_term: true
  }
}
layer {
  name: "conv3_3_3x3/relu"
  type: "ReLU"
  bottom: "conv3_3_3x3"
  top: "conv3_3_3x3"
}
layer {
  name: "conv3_3_1x1_increase"
  type: "Convolution"
  bottom: "conv3_3_3x3"
  top: "conv3_3_1x1_increase"
  param {
    lr_mult: 1.0
    decay_mult: 1.0
  }
  convolution_param {
    num_output: 512
    bias_term: false
    pad: 0
    kernel_size: 1
    stride: 1
    weight_filler {
      type: "gaussian"
      std: 0.00999999977648
    }
  }
}
layer {
  name: "conv3_3_1x1_increase/bn"
  type: "BatchNorm"
  bottom: "conv3_3_1x1_increase"
  top: "conv3_3_1x1_increase"
}
layer {
  name: "conv3_3_1x1_increase/bn/scale"
  type: "Scale"
  bottom: "conv3_3_1x1_increase"
  top: "conv3_3_1x1_increase"
  scale_param {
    bias_term: true
  }
}
layer {
  name: "conv3_3_global_pool"
  type: "Pooling"
  bottom: "conv3_3_1x1_increase"
  top: "conv3_3_global_pool"
  pooling_param {
    pool: AVE
    engine: CAFFE
    global_pooling: true
  }
}
layer {
  name: "conv3_3_1x1_down"
  type: "Convolution"
  bottom: "conv3_3_global_pool"
  top: "conv3_3_1x1_down"
  param {
    lr_mult: 1.0
    decay_mult: 1.0
  }
  convolution_param {
    num_output: 32
    kernel_size: 1
    stride: 1
    weight_filler {
      type: "gaussian"
      std: 0.00999999977648
    }
  }
}
layer {
  name: "conv3_3_1x1_down/relu"
  type: "ReLU"
  bottom: "conv3_3_1x1_down"
  top: "conv3_3_1x1_down"
}
layer {
  name: "conv3_3_1x1_up"
  type: "Convolution"
  bottom: "conv3_3_1x1_down"
  top: "conv3_3_1x1_up"
  param {
    lr_mult: 1.0
    decay_mult: 1.0
  }
  convolution_param {
    num_output: 512
    kernel_size: 1
    stride: 1
    weight_filler {
      type: "gaussian"
      std: 0.00999999977648
    }
  }
}
layer {
  name: "conv3_3_prob"
  type: "Sigmoid"
  bottom: "conv3_3_1x1_up"
  top: "conv3_3_1x1_up"
}
layer {
  name: "conv3_3"
  type: "Axpy"
  bottom: "conv3_3_1x1_up"
  bottom: "conv3_3_1x1_increase"
  bottom: "conv3_2"
  top: "conv3_3"
}
layer {
  name: "conv3_3/relu"
  type: "ReLU"
  bottom: "conv3_3"
  top: "conv3_3"
}
layer {
  name: "conv3_4_1x1_reduce"
  type: "Convolution"
  bottom: "conv3_3"
  top: "conv3_4_1x1_reduce"
  param {
    lr_mult: 1.0
    decay_mult: 1.0
  }
  convolution_param {
    num_output: 256
    bias_term: false
    pad: 0
    kernel_size: 1
    stride: 1
    weight_filler {
      type: "gaussian"
      std: 0.00999999977648
    }
  }
}
layer {
  name: "conv3_4_1x1_reduce/bn"
  type: "BatchNorm"
  bottom: "conv3_4_1x1_reduce"
  top: "conv3_4_1x1_reduce"
}
layer {
  name: "conv3_4_1x1_reduce/bn/scale"
  type: "Scale"
  bottom: "conv3_4_1x1_reduce"
  top: "conv3_4_1x1_reduce"
  scale_param {
    bias_term: true
  }
}
layer {
  name: "conv3_4_1x1_reduce/relu"
  type: "ReLU"
  bottom: "conv3_4_1x1_reduce"
  top: "conv3_4_1x1_reduce"
}
layer {
  name: "conv3_4_3x3"
  type: "Convolution"
  bottom: "conv3_4_1x1_reduce"
  top: "conv3_4_3x3"
  param {
    lr_mult: 1.0
    decay_mult: 1.0
  }
  convolution_param {
    num_output: 256
    bias_term: false
    pad: 1
    kernel_size: 3
    group: 32
    stride: 1
    weight_filler {
      type: "gaussian"
      std: 0.00999999977648
    }
  }
}
layer {
  name: "conv3_4_3x3/bn"
  type: "BatchNorm"
  bottom: "conv3_4_3x3"
  top: "conv3_4_3x3"
}
layer {
  name: "conv3_4_3x3/bn/scale"
  type: "Scale"
  bottom: "conv3_4_3x3"
  top: "conv3_4_3x3"
  scale_param {
    bias_term: true
  }
}
layer {
  name: "conv3_4_3x3/relu"
  type: "ReLU"
  bottom: "conv3_4_3x3"
  top: "conv3_4_3x3"
}
layer {
  name: "conv3_4_1x1_increase"
  type: "Convolution"
  bottom: "conv3_4_3x3"
  top: "conv3_4_1x1_increase"
  param {
    lr_mult: 1.0
    decay_mult: 1.0
  }
  convolution_param {
    num_output: 512
    bias_term: false
    pad: 0
    kernel_size: 1
    stride: 1
    weight_filler {
      type: "gaussian"
      std: 0.00999999977648
    }
  }
}
layer {
  name: "conv3_4_1x1_increase/bn"
  type: "BatchNorm"
  bottom: "conv3_4_1x1_increase"
  top: "conv3_4_1x1_increase"
}
layer {
  name: "conv3_4_1x1_increase/bn/scale"
  type: "Scale"
  bottom: "conv3_4_1x1_increase"
  top: "conv3_4_1x1_increase"
  scale_param {
    bias_term: true
  }
}
layer {
  name: "conv3_4_global_pool"
  type: "Pooling"
  bottom: "conv3_4_1x1_increase"
  top: "conv3_4_global_pool"
  pooling_param {
    pool: AVE
    engine: CAFFE
    global_pooling: true
  }
}
layer {
  name: "conv3_4_1x1_down"
  type: "Convolution"
  bottom: "conv3_4_global_pool"
  top: "conv3_4_1x1_down"
  param {
    lr_mult: 1.0
    decay_mult: 1.0
  }
  convolution_param {
    num_output: 32
    kernel_size: 1
    stride: 1
    weight_filler {
      type: "gaussian"
      std: 0.00999999977648
    }
  }
}
layer {
  name: "conv3_4_1x1_down/relu"
  type: "ReLU"
  bottom: "conv3_4_1x1_down"
  top: "conv3_4_1x1_down"
}
layer {
  name: "conv3_4_1x1_up"
  type: "Convolution"
  bottom: "conv3_4_1x1_down"
  top: "conv3_4_1x1_up"
  param {
    lr_mult: 1.0
    decay_mult: 1.0
  }
  convolution_param {
    num_output: 512
    kernel_size: 1
    stride: 1
    weight_filler {
      type: "gaussian"
      std: 0.00999999977648
    }
  }
}
layer {
  name: "conv3_4_prob"
  type: "Sigmoid"
  bottom: "conv3_4_1x1_up"
  top: "conv3_4_1x1_up"
}
layer {
  name: "conv3_4"
  type: "Axpy"
  bottom: "conv3_4_1x1_up"
  bottom: "conv3_4_1x1_increase"
  bottom: "conv3_3"
  top: "conv3_4"
}
layer {
  name: "conv3_4/relu"
  type: "ReLU"
  bottom: "conv3_4"
  top: "conv3_4"
}
layer {
  name: "conv4_1_1x1_reduce"
  type: "Convolution"
  bottom: "conv3_4"
  top: "conv4_1_1x1_reduce"
  param {
    lr_mult: 1.0
    decay_mult: 1.0
  }
  convolution_param {
    num_output: 512
    bias_term: false
    pad: 0
    kernel_size: 1
    stride: 1
    weight_filler {
      type: "gaussian"
      std: 0.00999999977648
    }
  }
}
layer {
  name: "conv4_1_1x1_reduce/bn"
  type: "BatchNorm"
  bottom: "conv4_1_1x1_reduce"
  top: "conv4_1_1x1_reduce"
}
layer {
  name: "conv4_1_1x1_reduce/bn/scale"
  type: "Scale"
  bottom: "conv4_1_1x1_reduce"
  top: "conv4_1_1x1_reduce"
  scale_param {
    bias_term: true
  }
}
layer {
  name: "conv4_1_1x1_reduce/relu"
  type: "ReLU"
  bottom: "conv4_1_1x1_reduce"
  top: "conv4_1_1x1_reduce"
}
layer {
  name: "conv4_1_3x3"
  type: "Convolution"
  bottom: "conv4_1_1x1_reduce"
  top: "conv4_1_3x3"
  param {
    lr_mult: 1.0
    decay_mult: 1.0
  }
  convolution_param {
    num_output: 512
    bias_term: false
    pad: 1
    kernel_size: 3
    group: 32
    stride: 2
    weight_filler {
      type: "gaussian"
      std: 0.00999999977648
    }
  }
}
layer {
  name: "conv4_1_3x3/bn"
  type: "BatchNorm"
  bottom: "conv4_1_3x3"
  top: "conv4_1_3x3"
}
layer {
  name: "conv4_1_3x3/bn/scale"
  type: "Scale"
  bottom: "conv4_1_3x3"
  top: "conv4_1_3x3"
  scale_param {
    bias_term: true
  }
}
layer {
  name: "conv4_1_3x3/relu"
  type: "ReLU"
  bottom: "conv4_1_3x3"
  top: "conv4_1_3x3"
}
layer {
  name: "conv4_1_1x1_increase"
  type: "Convolution"
  bottom: "conv4_1_3x3"
  top: "conv4_1_1x1_increase"
  param {
    lr_mult: 1.0
    decay_mult: 1.0
  }
  convolution_param {
    num_output: 1024
    bias_term: false
    pad: 0
    kernel_size: 1
    stride: 1
    weight_filler {
      type: "gaussian"
      std: 0.00999999977648
    }
  }
}
layer {
  name: "conv4_1_1x1_increase/bn"
  type: "BatchNorm"
  bottom: "conv4_1_1x1_increase"
  top: "conv4_1_1x1_increase"
}
layer {
  name: "conv4_1_1x1_increase/bn/scale"
  type: "Scale"
  bottom: "conv4_1_1x1_increase"
  top: "conv4_1_1x1_increase"
  scale_param {
    bias_term: true
  }
}
layer {
  name: "conv4_1_global_pool"
  type: "Pooling"
  bottom: "conv4_1_1x1_increase"
  top: "conv4_1_global_pool"
  pooling_param {
    pool: AVE
    engine: CAFFE
    global_pooling: true
  }
}
layer {
  name: "conv4_1_1x1_down"
  type: "Convolution"
  bottom: "conv4_1_global_pool"
  top: "conv4_1_1x1_down"
  param {
    lr_mult: 1.0
    decay_mult: 1.0
  }
  convolution_param {
    num_output: 64
    kernel_size: 1
    stride: 1
    weight_filler {
      type: "gaussian"
      std: 0.00999999977648
    }
  }
}
layer {
  name: "conv4_1_1x1_down/relu"
  type: "ReLU"
  bottom: "conv4_1_1x1_down"
  top: "conv4_1_1x1_down"
}
layer {
  name: "conv4_1_1x1_up"
  type: "Convolution"
  bottom: "conv4_1_1x1_down"
  top: "conv4_1_1x1_up"
  param {
    lr_mult: 1.0
    decay_mult: 1.0
  }
  convolution_param {
    num_output: 1024
    kernel_size: 1
    stride: 1
    weight_filler {
      type: "gaussian"
      std: 0.00999999977648
    }
  }
}
layer {
  name: "conv4_1_prob"
  type: "Sigmoid"
  bottom: "conv4_1_1x1_up"
  top: "conv4_1_1x1_up"
}
layer {
  name: "conv4_1_1x1_proj"
  type: "Convolution"
  bottom: "conv3_4"
  top: "conv4_1_1x1_proj"
  param {
    lr_mult: 1.0
    decay_mult: 1.0
  }
  convolution_param {
    num_output: 1024
    bias_term: false
    pad: 0
    kernel_size: 1
    stride: 2
    weight_filler {
      type: "gaussian"
      std: 0.00999999977648
    }
  }
}
layer {
  name: "conv4_1_1x1_proj/bn"
  type: "BatchNorm"
  bottom: "conv4_1_1x1_proj"
  top: "conv4_1_1x1_proj"
}
layer {
  name: "conv4_1_1x1_proj/bn/scale"
  type: "Scale"
  bottom: "conv4_1_1x1_proj"
  top: "conv4_1_1x1_proj"
  scale_param {
    bias_term: true
  }
}
layer {
  name: "conv4_1"
  type: "Axpy"
  bottom: "conv4_1_1x1_up"
  bottom: "conv4_1_1x1_increase"
  bottom: "conv4_1_1x1_proj"
  top: "conv4_1"
}
layer {
  name: "conv4_1/relu"
  type: "ReLU"
  bottom: "conv4_1"
  top: "conv4_1"
}
layer {
  name: "conv4_2_1x1_reduce"
  type: "Convolution"
  bottom: "conv4_1"
  top: "conv4_2_1x1_reduce"
  param {
    lr_mult: 1.0
    decay_mult: 1.0
  }
  convolution_param {
    num_output: 512
    bias_term: false
    pad: 0
    kernel_size: 1
    stride: 1
    weight_filler {
      type: "gaussian"
      std: 0.00999999977648
    }
  }
}
layer {
  name: "conv4_2_1x1_reduce/bn"
  type: "BatchNorm"
  bottom: "conv4_2_1x1_reduce"
  top: "conv4_2_1x1_reduce"
}
layer {
  name: "conv4_2_1x1_reduce/bn/scale"
  type: "Scale"
  bottom: "conv4_2_1x1_reduce"
  top: "conv4_2_1x1_reduce"
  scale_param {
    bias_term: true
  }
}
layer {
  name: "conv4_2_1x1_reduce/relu"
  type: "ReLU"
  bottom: "conv4_2_1x1_reduce"
  top: "conv4_2_1x1_reduce"
}
layer {
  name: "conv4_2_3x3"
  type: "Convolution"
  bottom: "conv4_2_1x1_reduce"
  top: "conv4_2_3x3"
  param {
    lr_mult: 1.0
    decay_mult: 1.0
  }
  convolution_param {
    num_output: 512
    bias_term: false
    pad: 1
    kernel_size: 3
    group: 32
    stride: 1
    weight_filler {
      type: "gaussian"
      std: 0.00999999977648
    }
  }
}
layer {
  name: "conv4_2_3x3/bn"
  type: "BatchNorm"
  bottom: "conv4_2_3x3"
  top: "conv4_2_3x3"
}
layer {
  name: "conv4_2_3x3/bn/scale"
  type: "Scale"
  bottom: "conv4_2_3x3"
  top: "conv4_2_3x3"
  scale_param {
    bias_term: true
  }
}
layer {
  name: "conv4_2_3x3/relu"
  type: "ReLU"
  bottom: "conv4_2_3x3"
  top: "conv4_2_3x3"
}
layer {
  name: "conv4_2_1x1_increase"
  type: "Convolution"
  bottom: "conv4_2_3x3"
  top: "conv4_2_1x1_increase"
  param {
    lr_mult: 1.0
    decay_mult: 1.0
  }
  convolution_param {
    num_output: 1024
    bias_term: false
    pad: 0
    kernel_size: 1
    stride: 1
    weight_filler {
      type: "gaussian"
      std: 0.00999999977648
    }
  }
}
layer {
  name: "conv4_2_1x1_increase/bn"
  type: "BatchNorm"
  bottom: "conv4_2_1x1_increase"
  top: "conv4_2_1x1_increase"
}
layer {
  name: "conv4_2_1x1_increase/bn/scale"
  type: "Scale"
  bottom: "conv4_2_1x1_increase"
  top: "conv4_2_1x1_increase"
  scale_param {
    bias_term: true
  }
}
layer {
  name: "conv4_2_global_pool"
  type: "Pooling"
  bottom: "conv4_2_1x1_increase"
  top: "conv4_2_global_pool"
  pooling_param {
    pool: AVE
    engine: CAFFE
    global_pooling: true
  }
}
layer {
  name: "conv4_2_1x1_down"
  type: "Convolution"
  bottom: "conv4_2_global_pool"
  top: "conv4_2_1x1_down"
  param {
    lr_mult: 1.0
    decay_mult: 1.0
  }
  convolution_param {
    num_output: 64
    kernel_size: 1
    stride: 1
    weight_filler {
      type: "gaussian"
      std: 0.00999999977648
    }
  }
}
layer {
  name: "conv4_2_1x1_down/relu"
  type: "ReLU"
  bottom: "conv4_2_1x1_down"
  top: "conv4_2_1x1_down"
}
layer {
  name: "conv4_2_1x1_up"
  type: "Convolution"
  bottom: "conv4_2_1x1_down"
  top: "conv4_2_1x1_up"
  param {
    lr_mult: 1.0
    decay_mult: 1.0
  }
  convolution_param {
    num_output: 1024
    kernel_size: 1
    stride: 1
    weight_filler {
      type: "gaussian"
      std: 0.00999999977648
    }
  }
}
layer {
  name: "conv4_2_prob"
  type: "Sigmoid"
  bottom: "conv4_2_1x1_up"
  top: "conv4_2_1x1_up"
}
layer {
  name: "conv4_2"
  type: "Axpy"
  bottom: "conv4_2_1x1_up"
  bottom: "conv4_2_1x1_increase"
  bottom: "conv4_1"
  top: "conv4_2"
}
layer {
  name: "conv4_2/relu"
  type: "ReLU"
  bottom: "conv4_2"
  top: "conv4_2"
}
layer {
  name: "conv4_3_1x1_reduce"
  type: "Convolution"
  bottom: "conv4_2"
  top: "conv4_3_1x1_reduce"
  param {
    lr_mult: 1.0
    decay_mult: 1.0
  }
  convolution_param {
    num_output: 512
    bias_term: false
    pad: 0
    kernel_size: 1
    stride: 1
    weight_filler {
      type: "gaussian"
      std: 0.00999999977648
    }
  }
}
layer {
  name: "conv4_3_1x1_reduce/bn"
  type: "BatchNorm"
  bottom: "conv4_3_1x1_reduce"
  top: "conv4_3_1x1_reduce"
}
layer {
  name: "conv4_3_1x1_reduce/bn/scale"
  type: "Scale"
  bottom: "conv4_3_1x1_reduce"
  top: "conv4_3_1x1_reduce"
  scale_param {
    bias_term: true
  }
}
layer {
  name: "conv4_3_1x1_reduce/relu"
  type: "ReLU"
  bottom: "conv4_3_1x1_reduce"
  top: "conv4_3_1x1_reduce"
}
layer {
  name: "conv4_3_3x3"
  type: "Convolution"
  bottom: "conv4_3_1x1_reduce"
  top: "conv4_3_3x3"
  param {
    lr_mult: 1.0
    decay_mult: 1.0
  }
  convolution_param {
    num_output: 512
    bias_term: false
    pad: 1
    kernel_size: 3
    group: 32
    stride: 1
    weight_filler {
      type: "gaussian"
      std: 0.00999999977648
    }
  }
}
layer {
  name: "conv4_3_3x3/bn"
  type: "BatchNorm"
  bottom: "conv4_3_3x3"
  top: "conv4_3_3x3"
}
layer {
  name: "conv4_3_3x3/bn/scale"
  type: "Scale"
  bottom: "conv4_3_3x3"
  top: "conv4_3_3x3"
  scale_param {
    bias_term: true
  }
}
layer {
  name: "conv4_3_3x3/relu"
  type: "ReLU"
  bottom: "conv4_3_3x3"
  top: "conv4_3_3x3"
}
layer {
  name: "conv4_3_1x1_increase"
  type: "Convolution"
  bottom: "conv4_3_3x3"
  top: "conv4_3_1x1_increase"
  param {
    lr_mult: 1.0
    decay_mult: 1.0
  }
  convolution_param {
    num_output: 1024
    bias_term: false
    pad: 0
    kernel_size: 1
    stride: 1
    weight_filler {
      type: "gaussian"
      std: 0.00999999977648
    }
  }
}
layer {
  name: "conv4_3_1x1_increase/bn"
  type: "BatchNorm"
  bottom: "conv4_3_1x1_increase"
  top: "conv4_3_1x1_increase"
}
layer {
  name: "conv4_3_1x1_increase/bn/scale"
  type: "Scale"
  bottom: "conv4_3_1x1_increase"
  top: "conv4_3_1x1_increase"
  scale_param {
    bias_term: true
  }
}
layer {
  name: "conv4_3_global_pool"
  type: "Pooling"
  bottom: "conv4_3_1x1_increase"
  top: "conv4_3_global_pool"
  pooling_param {
    pool: AVE
    engine: CAFFE
    global_pooling: true
  }
}
layer {
  name: "conv4_3_1x1_down"
  type: "Convolution"
  bottom: "conv4_3_global_pool"
  top: "conv4_3_1x1_down"
  param {
    lr_mult: 1.0
    decay_mult: 1.0
  }
  convolution_param {
    num_output: 64
    kernel_size: 1
    stride: 1
    weight_filler {
      type: "gaussian"
      std: 0.00999999977648
    }
  }
}
layer {
  name: "conv4_3_1x1_down/relu"
  type: "ReLU"
  bottom: "conv4_3_1x1_down"
  top: "conv4_3_1x1_down"
}
layer {
  name: "conv4_3_1x1_up"
  type: "Convolution"
  bottom: "conv4_3_1x1_down"
  top: "conv4_3_1x1_up"
  param {
    lr_mult: 1.0
    decay_mult: 1.0
  }
  convolution_param {
    num_output: 1024
    kernel_size: 1
    stride: 1
    weight_filler {
      type: "gaussian"
      std: 0.00999999977648
    }
  }
}
layer {
  name: "conv4_3_prob"
  type: "Sigmoid"
  bottom: "conv4_3_1x1_up"
  top: "conv4_3_1x1_up"
}
layer {
  name: "conv4_3"
  type: "Axpy"
  bottom: "conv4_3_1x1_up"
  bottom: "conv4_3_1x1_increase"
  bottom: "conv4_2"
  top: "conv4_3"
}
layer {
  name: "conv4_3/relu"
  type: "ReLU"
  bottom: "conv4_3"
  top: "conv4_3"
}
layer {
  name: "conv4_4_1x1_reduce"
  type: "Convolution"
  bottom: "conv4_3"
  top: "conv4_4_1x1_reduce"
  param {
    lr_mult: 1.0
    decay_mult: 1.0
  }
  convolution_param {
    num_output: 512
    bias_term: false
    pad: 0
    kernel_size: 1
    stride: 1
    weight_filler {
      type: "gaussian"
      std: 0.00999999977648
    }
  }
}
layer {
  name: "conv4_4_1x1_reduce/bn"
  type: "BatchNorm"
  bottom: "conv4_4_1x1_reduce"
  top: "conv4_4_1x1_reduce"
}
layer {
  name: "conv4_4_1x1_reduce/bn/scale"
  type: "Scale"
  bottom: "conv4_4_1x1_reduce"
  top: "conv4_4_1x1_reduce"
  scale_param {
    bias_term: true
  }
}
layer {
  name: "conv4_4_1x1_reduce/relu"
  type: "ReLU"
  bottom: "conv4_4_1x1_reduce"
  top: "conv4_4_1x1_reduce"
}
layer {
  name: "conv4_4_3x3"
  type: "Convolution"
  bottom: "conv4_4_1x1_reduce"
  top: "conv4_4_3x3"
  param {
    lr_mult: 1.0
    decay_mult: 1.0
  }
  convolution_param {
    num_output: 512
    bias_term: false
    pad: 1
    kernel_size: 3
    group: 32
    stride: 1
    weight_filler {
      type: "gaussian"
      std: 0.00999999977648
    }
  }
}
layer {
  name: "conv4_4_3x3/bn"
  type: "BatchNorm"
  bottom: "conv4_4_3x3"
  top: "conv4_4_3x3"
}
layer {
  name: "conv4_4_3x3/bn/scale"
  type: "Scale"
  bottom: "conv4_4_3x3"
  top: "conv4_4_3x3"
  scale_param {
    bias_term: true
  }
}
layer {
  name: "conv4_4_3x3/relu"
  type: "ReLU"
  bottom: "conv4_4_3x3"
  top: "conv4_4_3x3"
}
layer {
  name: "conv4_4_1x1_increase"
  type: "Convolution"
  bottom: "conv4_4_3x3"
  top: "conv4_4_1x1_increase"
  param {
    lr_mult: 1.0
    decay_mult: 1.0
  }
  convolution_param {
    num_output: 1024
    bias_term: false
    pad: 0
    kernel_size: 1
    stride: 1
    weight_filler {
      type: "gaussian"
      std: 0.00999999977648
    }
  }
}
layer {
  name: "conv4_4_1x1_increase/bn"
  type: "BatchNorm"
  bottom: "conv4_4_1x1_increase"
  top: "conv4_4_1x1_increase"
}
layer {
  name: "conv4_4_1x1_increase/bn/scale"
  type: "Scale"
  bottom: "conv4_4_1x1_increase"
  top: "conv4_4_1x1_increase"
  scale_param {
    bias_term: true
  }
}
layer {
  name: "conv4_4_global_pool"
  type: "Pooling"
  bottom: "conv4_4_1x1_increase"
  top: "conv4_4_global_pool"
  pooling_param {
    pool: AVE
    engine: CAFFE
    global_pooling: true
  }
}
layer {
  name: "conv4_4_1x1_down"
  type: "Convolution"
  bottom: "conv4_4_global_pool"
  top: "conv4_4_1x1_down"
  param {
    lr_mult: 1.0
    decay_mult: 1.0
  }
  convolution_param {
    num_output: 64
    kernel_size: 1
    stride: 1
    weight_filler {
      type: "gaussian"
      std: 0.00999999977648
    }
  }
}
layer {
  name: "conv4_4_1x1_down/relu"
  type: "ReLU"
  bottom: "conv4_4_1x1_down"
  top: "conv4_4_1x1_down"
}
layer {
  name: "conv4_4_1x1_up"
  type: "Convolution"
  bottom: "conv4_4_1x1_down"
  top: "conv4_4_1x1_up"
  param {
    lr_mult: 1.0
    decay_mult: 1.0
  }
  convolution_param {
    num_output: 1024
    kernel_size: 1
    stride: 1
    weight_filler {
      type: "gaussian"
      std: 0.00999999977648
    }
  }
}
layer {
  name: "conv4_4_prob"
  type: "Sigmoid"
  bottom: "conv4_4_1x1_up"
  top: "conv4_4_1x1_up"
}
layer {
  name: "conv4_4"
  type: "Axpy"
  bottom: "conv4_4_1x1_up"
  bottom: "conv4_4_1x1_increase"
  bottom: "conv4_3"
  top: "conv4_4"
}
layer {
  name: "conv4_4/relu"
  type: "ReLU"
  bottom: "conv4_4"
  top: "conv4_4"
}
layer {
  name: "conv4_5_1x1_reduce"
  type: "Convolution"
  bottom: "conv4_4"
  top: "conv4_5_1x1_reduce"
  param {
    lr_mult: 1.0
    decay_mult: 1.0
  }
  convolution_param {
    num_output: 512
    bias_term: false
    pad: 0
    kernel_size: 1
    stride: 1
    weight_filler {
      type: "gaussian"
      std: 0.00999999977648
    }
  }
}
layer {
  name: "conv4_5_1x1_reduce/bn"
  type: "BatchNorm"
  bottom: "conv4_5_1x1_reduce"
  top: "conv4_5_1x1_reduce"
}
layer {
  name: "conv4_5_1x1_reduce/bn/scale"
  type: "Scale"
  bottom: "conv4_5_1x1_reduce"
  top: "conv4_5_1x1_reduce"
  scale_param {
    bias_term: true
  }
}
layer {
  name: "conv4_5_1x1_reduce/relu"
  type: "ReLU"
  bottom: "conv4_5_1x1_reduce"
  top: "conv4_5_1x1_reduce"
}
layer {
  name: "conv4_5_3x3"
  type: "Convolution"
  bottom: "conv4_5_1x1_reduce"
  top: "conv4_5_3x3"
  param {
    lr_mult: 1.0
    decay_mult: 1.0
  }
  convolution_param {
    num_output: 512
    bias_term: false
    pad: 1
    kernel_size: 3
    group: 32
    stride: 1
    weight_filler {
      type: "gaussian"
      std: 0.00999999977648
    }
  }
}
layer {
  name: "conv4_5_3x3/bn"
  type: "BatchNorm"
  bottom: "conv4_5_3x3"
  top: "conv4_5_3x3"
}
layer {
  name: "conv4_5_3x3/bn/scale"
  type: "Scale"
  bottom: "conv4_5_3x3"
  top: "conv4_5_3x3"
  scale_param {
    bias_term: true
  }
}
layer {
  name: "conv4_5_3x3/relu"
  type: "ReLU"
  bottom: "conv4_5_3x3"
  top: "conv4_5_3x3"
}
layer {
  name: "conv4_5_1x1_increase"
  type: "Convolution"
  bottom: "conv4_5_3x3"
  top: "conv4_5_1x1_increase"
  param {
    lr_mult: 1.0
    decay_mult: 1.0
  }
  convolution_param {
    num_output: 1024
    bias_term: false
    pad: 0
    kernel_size: 1
    stride: 1
    weight_filler {
      type: "gaussian"
      std: 0.00999999977648
    }
  }
}
layer {
  name: "conv4_5_1x1_increase/bn"
  type: "BatchNorm"
  bottom: "conv4_5_1x1_increase"
  top: "conv4_5_1x1_increase"
}
layer {
  name: "conv4_5_1x1_increase/bn/scale"
  type: "Scale"
  bottom: "conv4_5_1x1_increase"
  top: "conv4_5_1x1_increase"
  scale_param {
    bias_term: true
  }
}
layer {
  name: "conv4_5_global_pool"
  type: "Pooling"
  bottom: "conv4_5_1x1_increase"
  top: "conv4_5_global_pool"
  pooling_param {
    pool: AVE
    engine: CAFFE
    global_pooling: true
  }
}
layer {
  name: "conv4_5_1x1_down"
  type: "Convolution"
  bottom: "conv4_5_global_pool"
  top: "conv4_5_1x1_down"
  param {
    lr_mult: 1.0
    decay_mult: 1.0
  }
  convolution_param {
    num_output: 64
    kernel_size: 1
    stride: 1
    weight_filler {
      type: "gaussian"
      std: 0.00999999977648
    }
  }
}
layer {
  name: "conv4_5_1x1_down/relu"
  type: "ReLU"
  bottom: "conv4_5_1x1_down"
  top: "conv4_5_1x1_down"
}
layer {
  name: "conv4_5_1x1_up"
  type: "Convolution"
  bottom: "conv4_5_1x1_down"
  top: "conv4_5_1x1_up"
  param {
    lr_mult: 1.0
    decay_mult: 1.0
  }
  convolution_param {
    num_output: 1024
    kernel_size: 1
    stride: 1
    weight_filler {
      type: "gaussian"
      std: 0.00999999977648
    }
  }
}
layer {
  name: "conv4_5_prob"
  type: "Sigmoid"
  bottom: "conv4_5_1x1_up"
  top: "conv4_5_1x1_up"
}
layer {
  name: "conv4_5"
  type: "Axpy"
  bottom: "conv4_5_1x1_up"
  bottom: "conv4_5_1x1_increase"
  bottom: "conv4_4"
  top: "conv4_5"
}
layer {
  name: "conv4_5/relu"
  type: "ReLU"
  bottom: "conv4_5"
  top: "conv4_5"
}
layer {
  name: "conv4_6_1x1_reduce"
  type: "Convolution"
  bottom: "conv4_5"
  top: "conv4_6_1x1_reduce"
  param {
    lr_mult: 1.0
    decay_mult: 1.0
  }
  convolution_param {
    num_output: 512
    bias_term: false
    pad: 0
    kernel_size: 1
    stride: 1
    weight_filler {
      type: "gaussian"
      std: 0.00999999977648
    }
  }
}
layer {
  name: "conv4_6_1x1_reduce/bn"
  type: "BatchNorm"
  bottom: "conv4_6_1x1_reduce"
  top: "conv4_6_1x1_reduce"
}
layer {
  name: "conv4_6_1x1_reduce/bn/scale"
  type: "Scale"
  bottom: "conv4_6_1x1_reduce"
  top: "conv4_6_1x1_reduce"
  scale_param {
    bias_term: true
  }
}
layer {
  name: "conv4_6_1x1_reduce/relu"
  type: "ReLU"
  bottom: "conv4_6_1x1_reduce"
  top: "conv4_6_1x1_reduce"
}
layer {
  name: "conv4_6_3x3"
  type: "Convolution"
  bottom: "conv4_6_1x1_reduce"
  top: "conv4_6_3x3"
  param {
    lr_mult: 1.0
    decay_mult: 1.0
  }
  convolution_param {
    num_output: 512
    bias_term: false
    pad: 1
    kernel_size: 3
    group: 32
    stride: 1
    weight_filler {
      type: "gaussian"
      std: 0.00999999977648
    }
  }
}
layer {
  name: "conv4_6_3x3/bn"
  type: "BatchNorm"
  bottom: "conv4_6_3x3"
  top: "conv4_6_3x3"
}
layer {
  name: "conv4_6_3x3/bn/scale"
  type: "Scale"
  bottom: "conv4_6_3x3"
  top: "conv4_6_3x3"
  scale_param {
    bias_term: true
  }
}
layer {
  name: "conv4_6_3x3/relu"
  type: "ReLU"
  bottom: "conv4_6_3x3"
  top: "conv4_6_3x3"
}
layer {
  name: "conv4_6_1x1_increase"
  type: "Convolution"
  bottom: "conv4_6_3x3"
  top: "conv4_6_1x1_increase"
  param {
    lr_mult: 1.0
    decay_mult: 1.0
  }
  convolution_param {
    num_output: 1024
    bias_term: false
    pad: 0
    kernel_size: 1
    stride: 1
    weight_filler {
      type: "gaussian"
      std: 0.00999999977648
    }
  }
}
layer {
  name: "conv4_6_1x1_increase/bn"
  type: "BatchNorm"
  bottom: "conv4_6_1x1_increase"
  top: "conv4_6_1x1_increase"
}
layer {
  name: "conv4_6_1x1_increase/bn/scale"
  type: "Scale"
  bottom: "conv4_6_1x1_increase"
  top: "conv4_6_1x1_increase"
  scale_param {
    bias_term: true
  }
}
layer {
  name: "conv4_6_global_pool"
  type: "Pooling"
  bottom: "conv4_6_1x1_increase"
  top: "conv4_6_global_pool"
  pooling_param {
    pool: AVE
    engine: CAFFE
    global_pooling: true
  }
}
layer {
  name: "conv4_6_1x1_down"
  type: "Convolution"
  bottom: "conv4_6_global_pool"
  top: "conv4_6_1x1_down"
  param {
    lr_mult: 1.0
    decay_mult: 1.0
  }
  convolution_param {
    num_output: 64
    kernel_size: 1
    stride: 1
    weight_filler {
      type: "gaussian"
      std: 0.00999999977648
    }
  }
}
layer {
  name: "conv4_6_1x1_down/relu"
  type: "ReLU"
  bottom: "conv4_6_1x1_down"
  top: "conv4_6_1x1_down"
}
layer {
  name: "conv4_6_1x1_up"
  type: "Convolution"
  bottom: "conv4_6_1x1_down"
  top: "conv4_6_1x1_up"
  param {
    lr_mult: 1.0
    decay_mult: 1.0
  }
  convolution_param {
    num_output: 1024
    kernel_size: 1
    stride: 1
    weight_filler {
      type: "gaussian"
      std: 0.00999999977648
    }
  }
}
layer {
  name: "conv4_6_prob"
  type: "Sigmoid"
  bottom: "conv4_6_1x1_up"
  top: "conv4_6_1x1_up"
}
layer {
  name: "conv4_6"
  type: "Axpy"
  bottom: "conv4_6_1x1_up"
  bottom: "conv4_6_1x1_increase"
  bottom: "conv4_5"
  top: "conv4_6"
}
layer {
  name: "conv4_6/relu"
  type: "ReLU"
  bottom: "conv4_6"
  top: "conv4_6"
}
layer {
  name: "conv5_1_1x1_reduce"
  type: "Convolution"
  bottom: "conv4_6"
  top: "conv5_1_1x1_reduce"
  param {
    lr_mult: 1.0
    decay_mult: 1.0
  }
  convolution_param {
    num_output: 1024
    bias_term: false
    pad: 0
    kernel_size: 1
    stride: 1
    weight_filler {
      type: "gaussian"
      std: 0.00999999977648
    }
  }
}
layer {
  name: "conv5_1_1x1_reduce/bn"
  type: "BatchNorm"
  bottom: "conv5_1_1x1_reduce"
  top: "conv5_1_1x1_reduce"
}
layer {
  name: "conv5_1_1x1_reduce/bn/scale"
  type: "Scale"
  bottom: "conv5_1_1x1_reduce"
  top: "conv5_1_1x1_reduce"
  scale_param {
    bias_term: true
  }
}
layer {
  name: "conv5_1_1x1_reduce/relu"
  type: "ReLU"
  bottom: "conv5_1_1x1_reduce"
  top: "conv5_1_1x1_reduce"
}
layer {
  name: "conv5_1_3x3"
  type: "Convolution"
  bottom: "conv5_1_1x1_reduce"
  top: "conv5_1_3x3"
  param {
    lr_mult: 1.0
    decay_mult: 1.0
  }
  convolution_param {
    num_output: 1024
    bias_term: false
    pad: 1
    kernel_size: 3
    group: 32
    stride: 2
    weight_filler {
      type: "gaussian"
      std: 0.00999999977648
    }
  }
}
layer {
  name: "conv5_1_3x3/bn"
  type: "BatchNorm"
  bottom: "conv5_1_3x3"
  top: "conv5_1_3x3"
}
layer {
  name: "conv5_1_3x3/bn/scale"
  type: "Scale"
  bottom: "conv5_1_3x3"
  top: "conv5_1_3x3"
  scale_param {
    bias_term: true
  }
}
layer {
  name: "conv5_1_3x3/relu"
  type: "ReLU"
  bottom: "conv5_1_3x3"
  top: "conv5_1_3x3"
}
layer {
  name: "conv5_1_1x1_increase"
  type: "Convolution"
  bottom: "conv5_1_3x3"
  top: "conv5_1_1x1_increase"
  param {
    lr_mult: 1.0
    decay_mult: 1.0
  }
  convolution_param {
    num_output: 2048
    bias_term: false
    pad: 0
    kernel_size: 1
    stride: 1
    weight_filler {
      type: "gaussian"
      std: 0.00999999977648
    }
  }
}
layer {
  name: "conv5_1_1x1_increase/bn"
  type: "BatchNorm"
  bottom: "conv5_1_1x1_increase"
  top: "conv5_1_1x1_increase"
}
layer {
  name: "conv5_1_1x1_increase/bn/scale"
  type: "Scale"
  bottom: "conv5_1_1x1_increase"
  top: "conv5_1_1x1_increase"
  scale_param {
    bias_term: true
  }
}
layer {
  name: "conv5_1_global_pool"
  type: "Pooling"
  bottom: "conv5_1_1x1_increase"
  top: "conv5_1_global_pool"
  pooling_param {
    pool: AVE
    engine: CAFFE
    global_pooling: true
  }
}
layer {
  name: "conv5_1_1x1_down"
  type: "Convolution"
  bottom: "conv5_1_global_pool"
  top: "conv5_1_1x1_down"
  param {
    lr_mult: 1.0
    decay_mult: 1.0
  }
  convolution_param {
    num_output: 128
    kernel_size: 1
    stride: 1
    weight_filler {
      type: "gaussian"
      std: 0.00999999977648
    }
  }
}
layer {
  name: "conv5_1_1x1_down/relu"
  type: "ReLU"
  bottom: "conv5_1_1x1_down"
  top: "conv5_1_1x1_down"
}
layer {
  name: "conv5_1_1x1_up"
  type: "Convolution"
  bottom: "conv5_1_1x1_down"
  top: "conv5_1_1x1_up"
  param {
    lr_mult: 1.0
    decay_mult: 1.0
  }
  convolution_param {
    num_output: 2048
    kernel_size: 1
    stride: 1
    weight_filler {
      type: "gaussian"
      std: 0.00999999977648
    }
  }
}
layer {
  name: "conv5_1_prob"
  type: "Sigmoid"
  bottom: "conv5_1_1x1_up"
  top: "conv5_1_1x1_up"
}
layer {
  name: "conv5_1_1x1_proj"
  type: "Convolution"
  bottom: "conv4_6"
  top: "conv5_1_1x1_proj"
  param {
    lr_mult: 1.0
    decay_mult: 1.0
  }
  convolution_param {
    num_output: 2048
    bias_term: false
    pad: 0
    kernel_size: 1
    stride: 2
    weight_filler {
      type: "gaussian"
      std: 0.00999999977648
    }
  }
}
layer {
  name: "conv5_1_1x1_proj/bn"
  type: "BatchNorm"
  bottom: "conv5_1_1x1_proj"
  top: "conv5_1_1x1_proj"
}
layer {
  name: "conv5_1_1x1_proj/bn/scale"
  type: "Scale"
  bottom: "conv5_1_1x1_proj"
  top: "conv5_1_1x1_proj"
  scale_param {
    bias_term: true
  }
}
layer {
  name: "conv5_1"
  type: "Axpy"
  bottom: "conv5_1_1x1_up"
  bottom: "conv5_1_1x1_increase"
  bottom: "conv5_1_1x1_proj"
  top: "conv5_1"
}
layer {
  name: "conv5_1/relu"
  type: "ReLU"
  bottom: "conv5_1"
  top: "conv5_1"
}
layer {
  name: "conv5_2_1x1_reduce"
  type: "Convolution"
  bottom: "conv5_1"
  top: "conv5_2_1x1_reduce"
  param {
    lr_mult: 1.0
    decay_mult: 1.0
  }
  convolution_param {
    num_output: 1024
    bias_term: false
    pad: 0
    kernel_size: 1
    stride: 1
    weight_filler {
      type: "gaussian"
      std: 0.00999999977648
    }
  }
}
layer {
  name: "conv5_2_1x1_reduce/bn"
  type: "BatchNorm"
  bottom: "conv5_2_1x1_reduce"
  top: "conv5_2_1x1_reduce"
}
layer {
  name: "conv5_2_1x1_reduce/bn/scale"
  type: "Scale"
  bottom: "conv5_2_1x1_reduce"
  top: "conv5_2_1x1_reduce"
  scale_param {
    bias_term: true
  }
}
layer {
  name: "conv5_2_1x1_reduce/relu"
  type: "ReLU"
  bottom: "conv5_2_1x1_reduce"
  top: "conv5_2_1x1_reduce"
}
layer {
  name: "conv5_2_3x3"
  type: "Convolution"
  bottom: "conv5_2_1x1_reduce"
  top: "conv5_2_3x3"
  param {
    lr_mult: 1.0
    decay_mult: 1.0
  }
  convolution_param {
    num_output: 1024
    bias_term: false
    pad: 1
    kernel_size: 3
    group: 32
    stride: 1
    weight_filler {
      type: "gaussian"
      std: 0.00999999977648
    }
  }
}
layer {
  name: "conv5_2_3x3/bn"
  type: "BatchNorm"
  bottom: "conv5_2_3x3"
  top: "conv5_2_3x3"
}
layer {
  name: "conv5_2_3x3/bn/scale"
  type: "Scale"
  bottom: "conv5_2_3x3"
  top: "conv5_2_3x3"
  scale_param {
    bias_term: true
  }
}
layer {
  name: "conv5_2_3x3/relu"
  type: "ReLU"
  bottom: "conv5_2_3x3"
  top: "conv5_2_3x3"
}
layer {
  name: "conv5_2_1x1_increase"
  type: "Convolution"
  bottom: "conv5_2_3x3"
  top: "conv5_2_1x1_increase"
  param {
    lr_mult: 1.0
    decay_mult: 1.0
  }
  convolution_param {
    num_output: 2048
    bias_term: false
    pad: 0
    kernel_size: 1
    stride: 1
    weight_filler {
      type: "gaussian"
      std: 0.00999999977648
    }
  }
}
layer {
  name: "conv5_2_1x1_increase/bn"
  type: "BatchNorm"
  bottom: "conv5_2_1x1_increase"
  top: "conv5_2_1x1_increase"
}
layer {
  name: "conv5_2_1x1_increase/bn/scale"
  type: "Scale"
  bottom: "conv5_2_1x1_increase"
  top: "conv5_2_1x1_increase"
  scale_param {
    bias_term: true
  }
}
layer {
  name: "conv5_2_global_pool"
  type: "Pooling"
  bottom: "conv5_2_1x1_increase"
  top: "conv5_2_global_pool"
  pooling_param {
    pool: AVE
    engine: CAFFE
    global_pooling: true
  }
}
layer {
  name: "conv5_2_1x1_down"
  type: "Convolution"
  bottom: "conv5_2_global_pool"
  top: "conv5_2_1x1_down"
  param {
    lr_mult: 1.0
    decay_mult: 1.0
  }
  convolution_param {
    num_output: 128
    kernel_size: 1
    stride: 1
    weight_filler {
      type: "gaussian"
      std: 0.00999999977648
    }
  }
}
layer {
  name: "conv5_2_1x1_down/relu"
  type: "ReLU"
  bottom: "conv5_2_1x1_down"
  top: "conv5_2_1x1_down"
}
layer {
  name: "conv5_2_1x1_up"
  type: "Convolution"
  bottom: "conv5_2_1x1_down"
  top: "conv5_2_1x1_up"
  param {
    lr_mult: 1.0
    decay_mult: 1.0
  }
  convolution_param {
    num_output: 2048
    kernel_size: 1
    stride: 1
    weight_filler {
      type: "gaussian"
      std: 0.00999999977648
    }
  }
}
layer {
  name: "conv5_2_prob"
  type: "Sigmoid"
  bottom: "conv5_2_1x1_up"
  top: "conv5_2_1x1_up"
}
layer {
  name: "conv5_2"
  type: "Axpy"
  bottom: "conv5_2_1x1_up"
  bottom: "conv5_2_1x1_increase"
  bottom: "conv5_1"
  top: "conv5_2"
}
layer {
  name: "conv5_2/relu"
  type: "ReLU"
  bottom: "conv5_2"
  top: "conv5_2"
}
layer {
  name: "conv5_3_1x1_reduce"
  type: "Convolution"
  bottom: "conv5_2"
  top: "conv5_3_1x1_reduce"
  param {
    lr_mult: 1.0
    decay_mult: 1.0
  }
  convolution_param {
    num_output: 1024
    bias_term: false
    pad: 0
    kernel_size: 1
    stride: 1
    weight_filler {
      type: "gaussian"
      std: 0.00999999977648
    }
  }
}
layer {
  name: "conv5_3_1x1_reduce/bn"
  type: "BatchNorm"
  bottom: "conv5_3_1x1_reduce"
  top: "conv5_3_1x1_reduce"
}
layer {
  name: "conv5_3_1x1_reduce/bn/scale"
  type: "Scale"
  bottom: "conv5_3_1x1_reduce"
  top: "conv5_3_1x1_reduce"
  scale_param {
    bias_term: true
  }
}
layer {
  name: "conv5_3_1x1_reduce/relu"
  type: "ReLU"
  bottom: "conv5_3_1x1_reduce"
  top: "conv5_3_1x1_reduce"
}
layer {
  name: "conv5_3_3x3"
  type: "Convolution"
  bottom: "conv5_3_1x1_reduce"
  top: "conv5_3_3x3"
  param {
    lr_mult: 1.0
    decay_mult: 1.0
  }
  convolution_param {
    num_output: 1024
    bias_term: false
    pad: 1
    kernel_size: 3
    group: 32
    stride: 1
    weight_filler {
      type: "gaussian"
      std: 0.00999999977648
    }
  }
}
layer {
  name: "conv5_3_3x3/bn"
  type: "BatchNorm"
  bottom: "conv5_3_3x3"
  top: "conv5_3_3x3"
}
layer {
  name: "conv5_3_3x3/bn/scale"
  type: "Scale"
  bottom: "conv5_3_3x3"
  top: "conv5_3_3x3"
  scale_param {
    bias_term: true
  }
}
layer {
  name: "conv5_3_3x3/relu"
  type: "ReLU"
  bottom: "conv5_3_3x3"
  top: "conv5_3_3x3"
}
layer {
  name: "conv5_3_1x1_increase"
  type: "Convolution"
  bottom: "conv5_3_3x3"
  top: "conv5_3_1x1_increase"
  param {
    lr_mult: 1.0
    decay_mult: 1.0
  }
  convolution_param {
    num_output: 2048
    bias_term: false
    pad: 0
    kernel_size: 1
    stride: 1
    weight_filler {
      type: "gaussian"
      std: 0.00999999977648
    }
  }
}
layer {
  name: "conv5_3_1x1_increase/bn"
  type: "BatchNorm"
  bottom: "conv5_3_1x1_increase"
  top: "conv5_3_1x1_increase"
}
layer {
  name: "conv5_3_1x1_increase/bn/scale"
  type: "Scale"
  bottom: "conv5_3_1x1_increase"
  top: "conv5_3_1x1_increase"
  scale_param {
    bias_term: true
  }
}
layer {
  name: "conv5_3_global_pool"
  type: "Pooling"
  bottom: "conv5_3_1x1_increase"
  top: "conv5_3_global_pool"
  pooling_param {
    pool: AVE
    engine: CAFFE
    global_pooling: true
  }
}
layer {
  name: "conv5_3_1x1_down"
  type: "Convolution"
  bottom: "conv5_3_global_pool"
  top: "conv5_3_1x1_down"
  param {
    lr_mult: 1.0
    decay_mult: 1.0
  }
  convolution_param {
    num_output: 128
    kernel_size: 1
    stride: 1
    weight_filler {
      type: "gaussian"
      std: 0.00999999977648
    }
  }
}
layer {
  name: "conv5_3_1x1_down/relu"
  type: "ReLU"
  bottom: "conv5_3_1x1_down"
  top: "conv5_3_1x1_down"
}
layer {
  name: "conv5_3_1x1_up"
  type: "Convolution"
  bottom: "conv5_3_1x1_down"
  top: "conv5_3_1x1_up"
  param {
    lr_mult: 1.0
    decay_mult: 1.0
  }
  convolution_param {
    num_output: 2048
    kernel_size: 1
    stride: 1
    weight_filler {
      type: "gaussian"
      std: 0.00999999977648
    }
  }
}
layer {
  name: "conv5_3_prob"
  type: "Sigmoid"
  bottom: "conv5_3_1x1_up"
  top: "conv5_3_1x1_up"
}
layer {
  name: "conv5_3"
  type: "Axpy"
  bottom: "conv5_3_1x1_up"
  bottom: "conv5_3_1x1_increase"
  bottom: "conv5_2"
  top: "conv5_3"
}
layer {
  name: "conv5_3/relu"
  type: "ReLU"
  bottom: "conv5_3"
  top: "conv5_3"
}
layer {
  name: "conv6_1x1_reduce"
  type: "Convolution"
  bottom: "conv5_3"
  top: "conv6_1x1_reduce"
  param {
    lr_mult: 1.0
    decay_mult: 1.0
  }
  convolution_param {
    num_output: 128
    bias_term: false
    pad: 0
    kernel_size: 1
    stride: 1
    weight_filler {
      type: "gaussian"
      std: 0.00999999977648
    }
  }
}
layer {
  name: "conv6_1x1_reduce/bn"
  type: "BatchNorm"
  bottom: "conv6_1x1_reduce"
  top: "conv6_1x1_reduce"
}
layer {
  name: "conv6_1x1_reduce/bn/scale"
  type: "Scale"
  bottom: "conv6_1x1_reduce"
  top: "conv6_1x1_reduce"
  scale_param {
    bias_term: true
  }
}
layer {
  name: "conv6_1x1_reduce/relu"
  type: "ReLU"
  bottom: "conv6_1x1_reduce"
  top: "conv6_1x1_reduce"
}
layer {
  name: "conv6_3x3"
  type: "Convolution"
  bottom: "conv6_1x1_reduce"
  top: "conv6_3x3"
  param {
    lr_mult: 1.0
    decay_mult: 1.0
  }
  convolution_param {
    num_output: 128
    bias_term: false
    pad: 1
    kernel_size: 3
    group: 32
    stride: 2
    weight_filler {
      type: "gaussian"
      std: 0.00999999977648
    }
  }
}
layer {
  name: "conv6_3x3/bn"
  type: "BatchNorm"
  bottom: "conv6_3x3"
  top: "conv6_3x3"
}
layer {
  name: "conv6_3x3/bn/scale"
  type: "Scale"
  bottom: "conv6_3x3"
  top: "conv6_3x3"
  scale_param {
    bias_term: true
  }
}
layer {
  name: "conv6_3x3/relu"
  type: "ReLU"
  bottom: "conv6_3x3"
  top: "conv6_3x3"
}
layer {
  name: "conv6_1x1_increase"
  type: "Convolution"
  bottom: "conv6_3x3"
  top: "conv6_1x1_increase"
  param {
    lr_mult: 1.0
    decay_mult: 1.0
  }
  convolution_param {
    num_output: 128
    bias_term: false
    pad: 0
    kernel_size: 1
    stride: 1
    weight_filler {
      type: "gaussian"
      std: 0.00999999977648
    }
  }
}
layer {
  name: "conv6_1x1_increase/bn"
  type: "BatchNorm"
  bottom: "conv6_1x1_increase"
  top: "conv6_1x1_increase"
}
layer {
  name: "conv6_1x1_increase/bn/scale"
  type: "Scale"
  bottom: "conv6_1x1_increase"
  top: "conv6_1x1_increase"
  scale_param {
    bias_term: true
  }
}
layer {
  name: "conv6_global_pool"
  type: "Pooling"
  bottom: "conv6_1x1_increase"
  top: "conv6_global_pool"
  pooling_param {
    pool: AVE
    engine: CAFFE
    global_pooling: true
  }
}
layer {
  name: "conv6_1x1_down"
  type: "Convolution"
  bottom: "conv6_global_pool"
  top: "conv6_1x1_down"
  param {
    lr_mult: 1.0
    decay_mult: 1.0
  }
  convolution_param {
    num_output: 8
    bias_term: false
    kernel_size: 1
    stride: 1
    weight_filler {
      type: "gaussian"
      std: 0.00999999977648
    }
  }
}
layer {
  name: "conv6_1x1_down/relu"
  type: "ReLU"
  bottom: "conv6_1x1_down"
  top: "conv6_1x1_down"
}
layer {
  name: "conv6_1x1_up"
  type: "Convolution"
  bottom: "conv6_1x1_down"
  top: "conv6_1x1_up"
  param {
    lr_mult: 1.0
    decay_mult: 1.0
  }
  convolution_param {
    num_output: 128
    bias_term: false
    kernel_size: 1
    stride: 1
    weight_filler {
      type: "gaussian"
      std: 0.00999999977648
    }
  }
}
layer {
  name: "conv6_prob"
  type: "Sigmoid"
  bottom: "conv6_1x1_up"
  top: "conv6_1x1_up"
}
layer {
  name: "conv6_1x1_proj"
  type: "Convolution"
  bottom: "conv5_3"
  top: "conv6_1x1_proj"
  param {
    lr_mult: 1.0
    decay_mult: 1.0
  }
  convolution_param {
    num_output: 128
    bias_term: false
    pad: 0
    kernel_size: 1
    stride: 2
    weight_filler {
      type: "gaussian"
      std: 0.00999999977648
    }
  }
}
layer {
  name: "conv6_1x1_proj/bn"
  type: "BatchNorm"
  bottom: "conv6_1x1_proj"
  top: "conv6_1x1_proj"
}
layer {
  name: "conv6_1x1_proj/bn/scale"
  type: "Scale"
  bottom: "conv6_1x1_proj"
  top: "conv6_1x1_proj"
  scale_param {
    bias_term: true
  }
}
layer {
  name: "conv6"
  type: "Axpy"
  bottom: "conv6_1x1_up"
  bottom: "conv6_1x1_increase"
  bottom: "conv6_1x1_proj"
  top: "conv6"
}
layer {
  name: "conv6/relu"
  type: "ReLU"
  bottom: "conv6"
  top: "conv6"
}
layer {
  name: "TL6_1"
  type: "Convolution"
  bottom: "conv6"
  top: "TL6_1"
  param {
    lr_mult: 1.0
    decay_mult: 1.0
  }
  convolution_param {
    num_output: 128
    bias_term: false
    pad: 1
    kernel_size: 3
    stride: 1
    weight_filler {
      type: "gaussian"
      std: 0.00999999977648
    }
  }
}
layer {
  name: "TL6_1_bn"
  type: "BatchNorm"
  bottom: "TL6_1"
  top: "TL6_1"
}
layer {
  name: "TL6_1_scale"
  type: "Scale"
  bottom: "TL6_1"
  top: "TL6_1"
  scale_param {
    bias_term: true
  }
}
layer {
  name: "TL6_1_relu"
  type: "ReLU"
  bottom: "TL6_1"
  top: "TL6_1"
}
layer {
  name: "TL6_2"
  type: "Convolution"
  bottom: "TL6_1"
  top: "TL6_2"
  param {
    lr_mult: 1.0
    decay_mult: 1.0
  }
  convolution_param {
    num_output: 128
    bias_term: false
    pad: 1
    kernel_size: 3
    stride: 1
    weight_filler {
      type: "gaussian"
      std: 0.00999999977648
    }
  }
}
layer {
  name: "TL6_2_bn"
  type: "BatchNorm"
  bottom: "TL6_2"
  top: "TL6_2"
}
layer {
  name: "TL6_2_scale"
  type: "Scale"
  bottom: "TL6_2"
  top: "TL6_2"
  scale_param {
    bias_term: true
  }
}
layer {
  name: "TL6_2_relu"
  type: "ReLU"
  bottom: "TL6_2"
  top: "TL6_2"
}
layer {
  name: "P6"
  type: "Convolution"
  bottom: "TL6_2"
  top: "P6"
  param {
    lr_mult: 1.0
    decay_mult: 1.0
  }
  convolution_param {
    num_output: 128
    bias_term: false
    pad: 1
    kernel_size: 3
    stride: 1
    weight_filler {
      type: "gaussian"
      std: 0.00999999977648
    }
  }
}
layer {
  name: "P6_bn"
  type: "BatchNorm"
  bottom: "P6"
  top: "P6"
}
layer {
  name: "P6_scale"
  type: "Scale"
  bottom: "P6"
  top: "P6"
  scale_param {
    bias_term: true
  }
}
layer {
  name: "P6_relu"
  type: "ReLU"
  bottom: "P6"
  top: "P6"
}
layer {
  name: "TL5_1"
  type: "Convolution"
  bottom: "conv5_3"
  top: "TL5_1"
  param {
    lr_mult: 1.0
    decay_mult: 1.0
  }
  convolution_param {
    num_output: 128
    bias_term: false
    pad: 1
    kernel_size: 3
    stride: 1
    weight_filler {
      type: "gaussian"
      std: 0.00999999977648
    }
  }
}
layer {
  name: "TL5_1_bn"
  type: "BatchNorm"
  bottom: "TL5_1"
  top: "TL5_1"
}
layer {
  name: "TL5_1_scale"
  type: "Scale"
  bottom: "TL5_1"
  top: "TL5_1"
  scale_param {
    bias_term: true
  }
}
layer {
  name: "TL5_1_relu"
  type: "ReLU"
  bottom: "TL5_1"
  top: "TL5_1"
}
layer {
  name: "TL5_2"
  type: "Convolution"
  bottom: "TL5_1"
  top: "TL5_2"
  param {
    lr_mult: 1.0
    decay_mult: 1.0
  }
  convolution_param {
    num_output: 128
    bias_term: false
    pad: 1
    kernel_size: 3
    stride: 1
    weight_filler {
      type: "gaussian"
      std: 0.00999999977648
    }
  }
}
layer {
  name: "TL5_2_bn"
  type: "BatchNorm"
  bottom: "TL5_2"
  top: "TL5_2"
}
layer {
  name: "TL5_2_scale"
  type: "Scale"
  bottom: "TL5_2"
  top: "TL5_2"
  scale_param {
    bias_term: true
  }
}
layer {
  name: "P6-up"
  type: "Deconvolution"
  bottom: "P6"
  top: "P6-up"
  param {
    lr_mult: 1.0
    decay_mult: 1.0
  }
  convolution_param {
    num_output: 128
    bias_term: false
    pad: 0
    kernel_size: 2
    stride: 2
    weight_filler {
      type: "gaussian"
      std: 0.00999999977648
    }
  }
}
layer {
  name: "P6-up_bn"
  type: "BatchNorm"
  bottom: "P6-up"
  top: "P6-up"
}
layer {
  name: "P6-up_scale"
  type: "Scale"
  bottom: "P6-up"
  top: "P6-up"
  scale_param {
    bias_term: true
  }
}
layer {
  name: "Elt5"
  type: "Eltwise"
  bottom: "TL5_2"
  bottom: "P6-up"
  top: "Elt5"
}
layer {
  name: "Elt5_relu"
  type: "ReLU"
  bottom: "Elt5"
  top: "Elt5"
}
layer {
  name: "P5"
  type: "Convolution"
  bottom: "Elt5"
  top: "P5"
  param {
    lr_mult: 1.0
    decay_mult: 1.0
  }
  convolution_param {
    num_output: 128
    bias_term: false
    pad: 1
    kernel_size: 3
    stride: 1
    weight_filler {
      type: "gaussian"
      std: 0.00999999977648
    }
  }
}
layer {
  name: "P5_bn"
  type: "BatchNorm"
  bottom: "P5"
  top: "P5"
}
layer {
  name: "P5_scale"
  type: "Scale"
  bottom: "P5"
  top: "P5"
  scale_param {
    bias_term: true
  }
}
layer {
  name: "P5_relu"
  type: "ReLU"
  bottom: "P5"
  top: "P5"
}
layer {
  name: "TL4_1"
  type: "Convolution"
  bottom: "conv4_6"
  top: "TL4_1"
  param {
    lr_mult: 1.0
    decay_mult: 1.0
  }
  convolution_param {
    num_output: 128
    bias_term: false
    pad: 1
    kernel_size: 3
    stride: 1
    weight_filler {
      type: "gaussian"
      std: 0.00999999977648
    }
  }
}
layer {
  name: "TL4_1_bn"
  type: "BatchNorm"
  bottom: "TL4_1"
  top: "TL4_1"
}
layer {
  name: "TL4_1_scale"
  type: "Scale"
  bottom: "TL4_1"
  top: "TL4_1"
  scale_param {
    bias_term: true
  }
}
layer {
  name: "TL4_1_relu"
  type: "ReLU"
  bottom: "TL4_1"
  top: "TL4_1"
}
layer {
  name: "TL4_2"
  type: "Convolution"
  bottom: "TL4_1"
  top: "TL4_2"
  param {
    lr_mult: 1.0
    decay_mult: 1.0
  }
  convolution_param {
    num_output: 128
    bias_term: false
    pad: 1
    kernel_size: 3
    stride: 1
    weight_filler {
      type: "gaussian"
      std: 0.00999999977648
    }
  }
}
layer {
  name: "TL4_2_bn"
  type: "BatchNorm"
  bottom: "TL4_2"
  top: "TL4_2"
}
layer {
  name: "TL4_2_scale"
  type: "Scale"
  bottom: "TL4_2"
  top: "TL4_2"
  scale_param {
    bias_term: true
  }
}
layer {
  name: "P5-up"
  type: "Deconvolution"
  bottom: "P5"
  top: "P5-up"
  param {
    lr_mult: 1.0
    decay_mult: 1.0
  }
  convolution_param {
    num_output: 128
    bias_term: false
    pad: 0
    kernel_size: 2
    stride: 2
    weight_filler {
      type: "gaussian"
      std: 0.00999999977648
    }
  }
}
layer {
  name: "P5-up_bn"
  type: "BatchNorm"
  bottom: "P5-up"
  top: "P5-up"
}
layer {
  name: "P5-up_scale"
  type: "Scale"
  bottom: "P5-up"
  top: "P5-up"
  scale_param {
    bias_term: true
  }
}
layer {
  name: "Elt4"
  type: "Eltwise"
  bottom: "TL4_2"
  bottom: "P5-up"
  top: "Elt4"
}
layer {
  name: "Elt4_relu"
  type: "ReLU"
  bottom: "Elt4"
  top: "Elt4"
}
layer {
  name: "P4"
  type: "Convolution"
  bottom: "Elt4"
  top: "P4"
  param {
    lr_mult: 1.0
    decay_mult: 1.0
  }
  convolution_param {
    num_output: 128
    bias_term: false
    pad: 1
    kernel_size: 3
    stride: 1
    weight_filler {
      type: "gaussian"
      std: 0.00999999977648
    }
  }
}
layer {
  name: "P4_bn"
  type: "BatchNorm"
  bottom: "P4"
  top: "P4"
}
layer {
  name: "P4_scale"
  type: "Scale"
  bottom: "P4"
  top: "P4"
  scale_param {
    bias_term: true
  }
}
layer {
  name: "P4_relu"
  type: "ReLU"
  bottom: "P4"
  top: "P4"
}
layer {
  name: "TL3_1"
  type: "Convolution"
  bottom: "conv3_4"
  top: "TL3_1"
  param {
    lr_mult: 1.0
    decay_mult: 1.0
  }
  convolution_param {
    num_output: 128
    bias_term: false
    pad: 1
    kernel_size: 3
    stride: 1
    weight_filler {
      type: "gaussian"
      std: 0.00999999977648
    }
  }
}
layer {
  name: "TL3_1_bn"
  type: "BatchNorm"
  bottom: "TL3_1"
  top: "TL3_1"
}
layer {
  name: "TL3_1_scale"
  type: "Scale"
  bottom: "TL3_1"
  top: "TL3_1"
  scale_param {
    bias_term: true
  }
}
layer {
  name: "TL3_1_relu"
  type: "ReLU"
  bottom: "TL3_1"
  top: "TL3_1"
}
layer {
  name: "TL3_2"
  type: "Convolution"
  bottom: "TL3_1"
  top: "TL3_2"
  param {
    lr_mult: 1.0
    decay_mult: 1.0
  }
  convolution_param {
    num_output: 128
    bias_term: false
    pad: 1
    kernel_size: 3
    stride: 1
    weight_filler {
      type: "gaussian"
      std: 0.00999999977648
    }
  }
}
layer {
  name: "TL3_2_bn"
  type: "BatchNorm"
  bottom: "TL3_2"
  top: "TL3_2"
}
layer {
  name: "TL3_2_scale"
  type: "Scale"
  bottom: "TL3_2"
  top: "TL3_2"
  scale_param {
    bias_term: true
  }
}
layer {
  name: "P4-up"
  type: "Deconvolution"
  bottom: "P4"
  top: "P4-up"
  param {
    lr_mult: 1.0
    decay_mult: 1.0
  }
  convolution_param {
    num_output: 128
    bias_term: false
    pad: 0
    kernel_size: 2
    stride: 2
    weight_filler {
      type: "gaussian"
      std: 0.00999999977648
    }
  }
}
layer {
  name: "P4-up_bn"
  type: "BatchNorm"
  bottom: "P4-up"
  top: "P4-up"
}
layer {
  name: "P4-up_scale"
  type: "Scale"
  bottom: "P4-up"
  top: "P4-up"
  scale_param {
    bias_term: true
  }
}
layer {
  name: "Elt3"
  type: "Eltwise"
  bottom: "TL3_2"
  bottom: "P4-up"
  top: "Elt3"
}
layer {
  name: "Elt3_relu"
  type: "ReLU"
  bottom: "Elt3"
  top: "Elt3"
}
layer {
  name: "P3"
  type: "Convolution"
  bottom: "Elt3"
  top: "P3"
  param {
    lr_mult: 1.0
    decay_mult: 1.0
  }
  convolution_param {
    num_output: 128
    bias_term: false
    pad: 1
    kernel_size: 3
    stride: 1
    weight_filler {
      type: "gaussian"
      std: 0.00999999977648
    }
  }
}
layer {
  name: "P3_bn"
  type: "BatchNorm"
  bottom: "P3"
  top: "P3"
}
layer {
  name: "P3_scale"
  type: "Scale"
  bottom: "P3"
  top: "P3"
  scale_param {
    bias_term: true
  }
}
layer {
  name: "P3_relu"
  type: "ReLU"
  bottom: "P3"
  top: "P3"
}
layer {
  name: "conv3_4_inter_branch1"
  type: "Convolution"
  bottom: "conv3_4"
  top: "conv3_4_inter_branch1"
  param {
    lr_mult: 1.0
    decay_mult: 1.0
  }
  convolution_param {
    num_output: 128
    bias_term: false
    pad: 0
    kernel_size: 1
    stride: 1
    weight_filler {
      type: "gaussian"
      std: 0.00999999977648
    }
  }
}
layer {
  name: "bnconv3_4_inter_branch1"
  type: "BatchNorm"
  bottom: "conv3_4_inter_branch1"
  top: "conv3_4_inter_branch1"
}
layer {
  name: "scaleconv3_4_inter_branch1"
  type: "Scale"
  bottom: "conv3_4_inter_branch1"
  top: "conv3_4_inter_branch1"
  scale_param {
    bias_term: true
  }
}
layer {
  name: "conv3_4_inter_branch2a"
  type: "Convolution"
  bottom: "conv3_4"
  top: "conv3_4_inter_branch2a"
  param {
    lr_mult: 1.0
    decay_mult: 1.0
  }
  convolution_param {
    num_output: 128
    bias_term: false
    pad: 1
    kernel_size: 3
    stride: 1
    weight_filler {
      type: "gaussian"
      std: 0.00999999977648
    }
  }
}
layer {
  name: "bnconv3_4_inter_branch2a"
  type: "BatchNorm"
  bottom: "conv3_4_inter_branch2a"
  top: "conv3_4_inter_branch2a"
}
layer {
  name: "scaleconv3_4_inter_branch2a"
  type: "Scale"
  bottom: "conv3_4_inter_branch2a"
  top: "conv3_4_inter_branch2a"
  scale_param {
    bias_term: true
  }
}
layer {
  name: "conv3_4_inter_branch2a_relu"
  type: "ReLU"
  bottom: "conv3_4_inter_branch2a"
  top: "conv3_4_inter_branch2a"
}
layer {
  name: "conv3_4_inter_branch2b"
  type: "Convolution"
  bottom: "conv3_4_inter_branch2a"
  top: "conv3_4_inter_branch2b"
  param {
    lr_mult: 1.0
    decay_mult: 1.0
  }
  convolution_param {
    num_output: 128
    bias_term: false
    pad: 1
    kernel_size: 3
    stride: 1
    weight_filler {
      type: "gaussian"
      std: 0.00999999977648
    }
  }
}
layer {
  name: "bnconv3_4_inter_branch2b"
  type: "BatchNorm"
  bottom: "conv3_4_inter_branch2b"
  top: "conv3_4_inter_branch2b"
}
layer {
  name: "scaleconv3_4_inter_branch2b"
  type: "Scale"
  bottom: "conv3_4_inter_branch2b"
  top: "conv3_4_inter_branch2b"
  scale_param {
    bias_term: true
  }
}
layer {
  name: "conv3_4_inter_eltwise"
  type: "Eltwise"
  bottom: "conv3_4_inter_branch1"
  bottom: "conv3_4_inter_branch2b"
  top: "conv3_4_inter_eltwise"
}
layer {
  name: "conv3_4_inter_eltwise_relu"
  type: "ReLU"
  bottom: "conv3_4_inter_eltwise"
  top: "conv3_4_inter_eltwise"
}
layer {
  name: "conv3_4_inter_eltwise_mbox_loc"
  type: "Convolution"
  bottom: "conv3_4_inter_eltwise"
  top: "conv3_4_inter_eltwise_mbox_loc"
  param {
    lr_mult: 1.0
    decay_mult: 1.0
  }
  param {
    lr_mult: 2.0
    decay_mult: 0.0
  }
  convolution_param {
    num_output: 12
    pad: 1
    kernel_size: 3
    stride: 1
    weight_filler {
      type: "xavier"
    }
    bias_filler {
      type: "constant"
      value: 0.0
    }
  }
}
layer {
  name: "conv3_4_inter_eltwise_mbox_loc_perm"
  type: "Permute"
  bottom: "conv3_4_inter_eltwise_mbox_loc"
  top: "conv3_4_inter_eltwise_mbox_loc_perm"
  permute_param {
    order: 0
    order: 2
    order: 3
    order: 1
  }
}
layer {
  name: "conv3_4_inter_eltwise_mbox_loc_flat"
  type: "Flatten"
  bottom: "conv3_4_inter_eltwise_mbox_loc_perm"
  top: "conv3_4_inter_eltwise_mbox_loc_flat"
  flatten_param {
    axis: 1
  }
}
layer {
  name: "conv3_4_inter_eltwise_mbox_conf"
  type: "Convolution"
  bottom: "conv3_4_inter_eltwise"
  top: "conv3_4_inter_eltwise_mbox_conf"
  param {
    lr_mult: 1.0
    decay_mult: 1.0
  }
  param {
    lr_mult: 2.0
    decay_mult: 0.0
  }
  convolution_param {
    num_output: 6
    pad: 1
    kernel_size: 3
    stride: 1
    weight_filler {
      type: "xavier"
    }
    bias_filler {
      type: "constant"
      value: 0.0
    }
  }
}
layer {
  name: "conv3_4_inter_eltwise_mbox_conf_perm"
  type: "Permute"
  bottom: "conv3_4_inter_eltwise_mbox_conf"
  top: "conv3_4_inter_eltwise_mbox_conf_perm"
  permute_param {
    order: 0
    order: 2
    order: 3
    order: 1
  }
}
layer {
  name: "conv3_4_inter_eltwise_mbox_conf_flat"
  type: "Flatten"
  bottom: "conv3_4_inter_eltwise_mbox_conf_perm"
  top: "conv3_4_inter_eltwise_mbox_conf_flat"
  flatten_param {
    axis: 1
  }
}
layer {
  name: "conv3_4_inter_eltwise_mbox_priorbox"
  type: "PriorBox"
  bottom: "conv3_4_inter_eltwise"
  bottom: "data"
  top: "conv3_4_inter_eltwise_mbox_priorbox"
  prior_box_param {
    min_size: 32.0
    aspect_ratio: 2.0
    flip: true
    clip: false
    variance: 0.10000000149
    variance: 0.10000000149
    variance: 0.20000000298
    variance: 0.20000000298
    step: 8.0
    offset: 0.5
  }
}
layer {
  name: "conv4_6_inter_branch1"
  type: "Convolution"
  bottom: "conv4_6"
  top: "conv4_6_inter_branch1"
  param {
    lr_mult: 1.0
    decay_mult: 1.0
  }
  convolution_param {
    num_output: 128
    bias_term: false
    pad: 0
    kernel_size: 1
    stride: 1
    weight_filler {
      type: "gaussian"
      std: 0.00999999977648
    }
  }
}
layer {
  name: "bnconv4_6_inter_branch1"
  type: "BatchNorm"
  bottom: "conv4_6_inter_branch1"
  top: "conv4_6_inter_branch1"
}
layer {
  name: "scaleconv4_6_inter_branch1"
  type: "Scale"
  bottom: "conv4_6_inter_branch1"
  top: "conv4_6_inter_branch1"
  scale_param {
    bias_term: true
  }
}
layer {
  name: "conv4_6_inter_branch2a"
  type: "Convolution"
  bottom: "conv4_6"
  top: "conv4_6_inter_branch2a"
  param {
    lr_mult: 1.0
    decay_mult: 1.0
  }
  convolution_param {
    num_output: 128
    bias_term: false
    pad: 1
    kernel_size: 3
    stride: 1
    weight_filler {
      type: "gaussian"
      std: 0.00999999977648
    }
  }
}
layer {
  name: "bnconv4_6_inter_branch2a"
  type: "BatchNorm"
  bottom: "conv4_6_inter_branch2a"
  top: "conv4_6_inter_branch2a"
}
layer {
  name: "scaleconv4_6_inter_branch2a"
  type: "Scale"
  bottom: "conv4_6_inter_branch2a"
  top: "conv4_6_inter_branch2a"
  scale_param {
    bias_term: true
  }
}
layer {
  name: "conv4_6_inter_branch2a_relu"
  type: "ReLU"
  bottom: "conv4_6_inter_branch2a"
  top: "conv4_6_inter_branch2a"
}
layer {
  name: "conv4_6_inter_branch2b"
  type: "Convolution"
  bottom: "conv4_6_inter_branch2a"
  top: "conv4_6_inter_branch2b"
  param {
    lr_mult: 1.0
    decay_mult: 1.0
  }
  convolution_param {
    num_output: 128
    bias_term: false
    pad: 1
    kernel_size: 3
    stride: 1
    weight_filler {
      type: "gaussian"
      std: 0.00999999977648
    }
  }
}
layer {
  name: "bnconv4_6_inter_branch2b"
  type: "BatchNorm"
  bottom: "conv4_6_inter_branch2b"
  top: "conv4_6_inter_branch2b"
}
layer {
  name: "scaleconv4_6_inter_branch2b"
  type: "Scale"
  bottom: "conv4_6_inter_branch2b"
  top: "conv4_6_inter_branch2b"
  scale_param {
    bias_term: true
  }
}
layer {
  name: "conv4_6_inter_eltwise"
  type: "Eltwise"
  bottom: "conv4_6_inter_branch1"
  bottom: "conv4_6_inter_branch2b"
  top: "conv4_6_inter_eltwise"
}
layer {
  name: "conv4_6_inter_eltwise_relu"
  type: "ReLU"
  bottom: "conv4_6_inter_eltwise"
  top: "conv4_6_inter_eltwise"
}
layer {
  name: "conv4_6_inter_eltwise_mbox_loc"
  type: "Convolution"
  bottom: "conv4_6_inter_eltwise"
  top: "conv4_6_inter_eltwise_mbox_loc"
  param {
    lr_mult: 1.0
    decay_mult: 1.0
  }
  param {
    lr_mult: 2.0
    decay_mult: 0.0
  }
  convolution_param {
    num_output: 12
    pad: 1
    kernel_size: 3
    stride: 1
    weight_filler {
      type: "xavier"
    }
    bias_filler {
      type: "constant"
      value: 0.0
    }
  }
}
layer {
  name: "conv4_6_inter_eltwise_mbox_loc_perm"
  type: "Permute"
  bottom: "conv4_6_inter_eltwise_mbox_loc"
  top: "conv4_6_inter_eltwise_mbox_loc_perm"
  permute_param {
    order: 0
    order: 2
    order: 3
    order: 1
  }
}
layer {
  name: "conv4_6_inter_eltwise_mbox_loc_flat"
  type: "Flatten"
  bottom: "conv4_6_inter_eltwise_mbox_loc_perm"
  top: "conv4_6_inter_eltwise_mbox_loc_flat"
  flatten_param {
    axis: 1
  }
}
layer {
  name: "conv4_6_inter_eltwise_mbox_conf"
  type: "Convolution"
  bottom: "conv4_6_inter_eltwise"
  top: "conv4_6_inter_eltwise_mbox_conf"
  param {
    lr_mult: 1.0
    decay_mult: 1.0
  }
  param {
    lr_mult: 2.0
    decay_mult: 0.0
  }
  convolution_param {
    num_output: 6
    pad: 1
    kernel_size: 3
    stride: 1
    weight_filler {
      type: "xavier"
    }
    bias_filler {
      type: "constant"
      value: 0.0
    }
  }
}
layer {
  name: "conv4_6_inter_eltwise_mbox_conf_perm"
  type: "Permute"
  bottom: "conv4_6_inter_eltwise_mbox_conf"
  top: "conv4_6_inter_eltwise_mbox_conf_perm"
  permute_param {
    order: 0
    order: 2
    order: 3
    order: 1
  }
}
layer {
  name: "conv4_6_inter_eltwise_mbox_conf_flat"
  type: "Flatten"
  bottom: "conv4_6_inter_eltwise_mbox_conf_perm"
  top: "conv4_6_inter_eltwise_mbox_conf_flat"
  flatten_param {
    axis: 1
  }
}
layer {
  name: "conv4_6_inter_eltwise_mbox_priorbox"
  type: "PriorBox"
  bottom: "conv4_6_inter_eltwise"
  bottom: "data"
  top: "conv4_6_inter_eltwise_mbox_priorbox"
  prior_box_param {
    min_size: 64.0
    aspect_ratio: 2.0
    flip: true
    clip: false
    variance: 0.10000000149
    variance: 0.10000000149
    variance: 0.20000000298
    variance: 0.20000000298
    step: 16.0
    offset: 0.5
  }
}
layer {
  name: "conv5_3_inter_branch1"
  type: "Convolution"
  bottom: "conv5_3"
  top: "conv5_3_inter_branch1"
  param {
    lr_mult: 1.0
    decay_mult: 1.0
  }
  convolution_param {
    num_output: 128
    bias_term: false
    pad: 0
    kernel_size: 1
    stride: 1
    weight_filler {
      type: "gaussian"
      std: 0.00999999977648
    }
  }
}
layer {
  name: "bnconv5_3_inter_branch1"
  type: "BatchNorm"
  bottom: "conv5_3_inter_branch1"
  top: "conv5_3_inter_branch1"
}
layer {
  name: "scaleconv5_3_inter_branch1"
  type: "Scale"
  bottom: "conv5_3_inter_branch1"
  top: "conv5_3_inter_branch1"
  scale_param {
    bias_term: true
  }
}
layer {
  name: "conv5_3_inter_branch2a"
  type: "Convolution"
  bottom: "conv5_3"
  top: "conv5_3_inter_branch2a"
  param {
    lr_mult: 1.0
    decay_mult: 1.0
  }
  convolution_param {
    num_output: 128
    bias_term: false
    pad: 1
    kernel_size: 3
    stride: 1
    weight_filler {
      type: "gaussian"
      std: 0.00999999977648
    }
  }
}
layer {
  name: "bnconv5_3_inter_branch2a"
  type: "BatchNorm"
  bottom: "conv5_3_inter_branch2a"
  top: "conv5_3_inter_branch2a"
}
layer {
  name: "scaleconv5_3_inter_branch2a"
  type: "Scale"
  bottom: "conv5_3_inter_branch2a"
  top: "conv5_3_inter_branch2a"
  scale_param {
    bias_term: true
  }
}
layer {
  name: "conv5_3_inter_branch2a_relu"
  type: "ReLU"
  bottom: "conv5_3_inter_branch2a"
  top: "conv5_3_inter_branch2a"
}
layer {
  name: "conv5_3_inter_branch2b"
  type: "Convolution"
  bottom: "conv5_3_inter_branch2a"
  top: "conv5_3_inter_branch2b"
  param {
    lr_mult: 1.0
    decay_mult: 1.0
  }
  convolution_param {
    num_output: 128
    bias_term: false
    pad: 1
    kernel_size: 3
    stride: 1
    weight_filler {
      type: "gaussian"
      std: 0.00999999977648
    }
  }
}
layer {
  name: "bnconv5_3_inter_branch2b"
  type: "BatchNorm"
  bottom: "conv5_3_inter_branch2b"
  top: "conv5_3_inter_branch2b"
}
layer {
  name: "scaleconv5_3_inter_branch2b"
  type: "Scale"
  bottom: "conv5_3_inter_branch2b"
  top: "conv5_3_inter_branch2b"
  scale_param {
    bias_term: true
  }
}
layer {
  name: "conv5_3_inter_eltwise"
  type: "Eltwise"
  bottom: "conv5_3_inter_branch1"
  bottom: "conv5_3_inter_branch2b"
  top: "conv5_3_inter_eltwise"
}
layer {
  name: "conv5_3_inter_eltwise_relu"
  type: "ReLU"
  bottom: "conv5_3_inter_eltwise"
  top: "conv5_3_inter_eltwise"
}
layer {
  name: "conv5_3_inter_eltwise_mbox_loc"
  type: "Convolution"
  bottom: "conv5_3_inter_eltwise"
  top: "conv5_3_inter_eltwise_mbox_loc"
  param {
    lr_mult: 1.0
    decay_mult: 1.0
  }
  param {
    lr_mult: 2.0
    decay_mult: 0.0
  }
  convolution_param {
    num_output: 12
    pad: 1
    kernel_size: 3
    stride: 1
    weight_filler {
      type: "xavier"
    }
    bias_filler {
      type: "constant"
      value: 0.0
    }
  }
}
layer {
  name: "conv5_3_inter_eltwise_mbox_loc_perm"
  type: "Permute"
  bottom: "conv5_3_inter_eltwise_mbox_loc"
  top: "conv5_3_inter_eltwise_mbox_loc_perm"
  permute_param {
    order: 0
    order: 2
    order: 3
    order: 1
  }
}
layer {
  name: "conv5_3_inter_eltwise_mbox_loc_flat"
  type: "Flatten"
  bottom: "conv5_3_inter_eltwise_mbox_loc_perm"
  top: "conv5_3_inter_eltwise_mbox_loc_flat"
  flatten_param {
    axis: 1
  }
}
layer {
  name: "conv5_3_inter_eltwise_mbox_conf"
  type: "Convolution"
  bottom: "conv5_3_inter_eltwise"
  top: "conv5_3_inter_eltwise_mbox_conf"
  param {
    lr_mult: 1.0
    decay_mult: 1.0
  }
  param {
    lr_mult: 2.0
    decay_mult: 0.0
  }
  convolution_param {
    num_output: 6
    pad: 1
    kernel_size: 3
    stride: 1
    weight_filler {
      type: "xavier"
    }
    bias_filler {
      type: "constant"
      value: 0.0
    }
  }
}
layer {
  name: "conv5_3_inter_eltwise_mbox_conf_perm"
  type: "Permute"
  bottom: "conv5_3_inter_eltwise_mbox_conf"
  top: "conv5_3_inter_eltwise_mbox_conf_perm"
  permute_param {
    order: 0
    order: 2
    order: 3
    order: 1
  }
}
layer {
  name: "conv5_3_inter_eltwise_mbox_conf_flat"
  type: "Flatten"
  bottom: "conv5_3_inter_eltwise_mbox_conf_perm"
  top: "conv5_3_inter_eltwise_mbox_conf_flat"
  flatten_param {
    axis: 1
  }
}
layer {
  name: "conv5_3_inter_eltwise_mbox_priorbox"
  type: "PriorBox"
  bottom: "conv5_3_inter_eltwise"
  bottom: "data"
  top: "conv5_3_inter_eltwise_mbox_priorbox"
  prior_box_param {
    min_size: 128.0
    aspect_ratio: 2.0
    flip: true
    clip: false
    variance: 0.10000000149
    variance: 0.10000000149
    variance: 0.20000000298
    variance: 0.20000000298
    step: 32.0
    offset: 0.5
  }
}
layer {
  name: "conv6_inter_branch1"
  type: "Convolution"
  bottom: "conv6"
  top: "conv6_inter_branch1"
  param {
    lr_mult: 1.0
    decay_mult: 1.0
  }
  convolution_param {
    num_output: 128
    bias_term: false
    pad: 0
    kernel_size: 1
    stride: 1
    weight_filler {
      type: "gaussian"
      std: 0.00999999977648
    }
  }
}
layer {
  name: "bnconv6_inter_branch1"
  type: "BatchNorm"
  bottom: "conv6_inter_branch1"
  top: "conv6_inter_branch1"
}
layer {
  name: "scaleconv6_inter_branch1"
  type: "Scale"
  bottom: "conv6_inter_branch1"
  top: "conv6_inter_branch1"
  scale_param {
    bias_term: true
  }
}
layer {
  name: "conv6_inter_branch2a"
  type: "Convolution"
  bottom: "conv6"
  top: "conv6_inter_branch2a"
  param {
    lr_mult: 1.0
    decay_mult: 1.0
  }
  convolution_param {
    num_output: 128
    bias_term: false
    pad: 1
    kernel_size: 3
    stride: 1
    weight_filler {
      type: "gaussian"
      std: 0.00999999977648
    }
  }
}
layer {
  name: "bnconv6_inter_branch2a"
  type: "BatchNorm"
  bottom: "conv6_inter_branch2a"
  top: "conv6_inter_branch2a"
}
layer {
  name: "scaleconv6_inter_branch2a"
  type: "Scale"
  bottom: "conv6_inter_branch2a"
  top: "conv6_inter_branch2a"
  scale_param {
    bias_term: true
  }
}
layer {
  name: "conv6_inter_branch2a_relu"
  type: "ReLU"
  bottom: "conv6_inter_branch2a"
  top: "conv6_inter_branch2a"
}
layer {
  name: "conv6_inter_branch2b"
  type: "Convolution"
  bottom: "conv6_inter_branch2a"
  top: "conv6_inter_branch2b"
  param {
    lr_mult: 1.0
    decay_mult: 1.0
  }
  convolution_param {
    num_output: 128
    bias_term: false
    pad: 1
    kernel_size: 3
    stride: 1
    weight_filler {
      type: "gaussian"
      std: 0.00999999977648
    }
  }
}
layer {
  name: "bnconv6_inter_branch2b"
  type: "BatchNorm"
  bottom: "conv6_inter_branch2b"
  top: "conv6_inter_branch2b"
}
layer {
  name: "scaleconv6_inter_branch2b"
  type: "Scale"
  bottom: "conv6_inter_branch2b"
  top: "conv6_inter_branch2b"
  scale_param {
    bias_term: true
  }
}
layer {
  name: "conv6_inter_eltwise"
  type: "Eltwise"
  bottom: "conv6_inter_branch1"
  bottom: "conv6_inter_branch2b"
  top: "conv6_inter_eltwise"
}
layer {
  name: "conv6_inter_eltwise_relu"
  type: "ReLU"
  bottom: "conv6_inter_eltwise"
  top: "conv6_inter_eltwise"
}
layer {
  name: "conv6_inter_eltwise_mbox_loc"
  type: "Convolution"
  bottom: "conv6_inter_eltwise"
  top: "conv6_inter_eltwise_mbox_loc"
  param {
    lr_mult: 1.0
    decay_mult: 1.0
  }
  param {
    lr_mult: 2.0
    decay_mult: 0.0
  }
  convolution_param {
    num_output: 12
    pad: 1
    kernel_size: 3
    stride: 1
    weight_filler {
      type: "xavier"
    }
    bias_filler {
      type: "constant"
      value: 0.0
    }
  }
}
layer {
  name: "conv6_inter_eltwise_mbox_loc_perm"
  type: "Permute"
  bottom: "conv6_inter_eltwise_mbox_loc"
  top: "conv6_inter_eltwise_mbox_loc_perm"
  permute_param {
    order: 0
    order: 2
    order: 3
    order: 1
  }
}
layer {
  name: "conv6_inter_eltwise_mbox_loc_flat"
  type: "Flatten"
  bottom: "conv6_inter_eltwise_mbox_loc_perm"
  top: "conv6_inter_eltwise_mbox_loc_flat"
  flatten_param {
    axis: 1
  }
}
layer {
  name: "conv6_inter_eltwise_mbox_conf"
  type: "Convolution"
  bottom: "conv6_inter_eltwise"
  top: "conv6_inter_eltwise_mbox_conf"
  param {
    lr_mult: 1.0
    decay_mult: 1.0
  }
  param {
    lr_mult: 2.0
    decay_mult: 0.0
  }
  convolution_param {
    num_output: 6
    pad: 1
    kernel_size: 3
    stride: 1
    weight_filler {
      type: "xavier"
    }
    bias_filler {
      type: "constant"
      value: 0.0
    }
  }
}
layer {
  name: "conv6_inter_eltwise_mbox_conf_perm"
  type: "Permute"
  bottom: "conv6_inter_eltwise_mbox_conf"
  top: "conv6_inter_eltwise_mbox_conf_perm"
  permute_param {
    order: 0
    order: 2
    order: 3
    order: 1
  }
}
layer {
  name: "conv6_inter_eltwise_mbox_conf_flat"
  type: "Flatten"
  bottom: "conv6_inter_eltwise_mbox_conf_perm"
  top: "conv6_inter_eltwise_mbox_conf_flat"
  flatten_param {
    axis: 1
  }
}
layer {
  name: "conv6_inter_eltwise_mbox_priorbox"
  type: "PriorBox"
  bottom: "conv6_inter_eltwise"
  bottom: "data"
  top: "conv6_inter_eltwise_mbox_priorbox"
  prior_box_param {
    min_size: 256.0
    aspect_ratio: 2.0
    flip: true
    clip: false
    variance: 0.10000000149
    variance: 0.10000000149
    variance: 0.20000000298
    variance: 0.20000000298
    step: 64.0
    offset: 0.5
  }
}
layer {
  name: "arm_loc"
  type: "Concat"
  bottom: "conv3_4_inter_eltwise_mbox_loc_flat"
  bottom: "conv4_6_inter_eltwise_mbox_loc_flat"
  bottom: "conv5_3_inter_eltwise_mbox_loc_flat"
  bottom: "conv6_inter_eltwise_mbox_loc_flat"
  top: "arm_loc"
  concat_param {
    axis: 1
  }
}
layer {
  name: "arm_conf"
  type: "Concat"
  bottom: "conv3_4_inter_eltwise_mbox_conf_flat"
  bottom: "conv4_6_inter_eltwise_mbox_conf_flat"
  bottom: "conv5_3_inter_eltwise_mbox_conf_flat"
  bottom: "conv6_inter_eltwise_mbox_conf_flat"
  top: "arm_conf"
  concat_param {
    axis: 1
  }
}
layer {
  name: "arm_priorbox"
  type: "Concat"
  bottom: "conv3_4_inter_eltwise_mbox_priorbox"
  bottom: "conv4_6_inter_eltwise_mbox_priorbox"
  bottom: "conv5_3_inter_eltwise_mbox_priorbox"
  bottom: "conv6_inter_eltwise_mbox_priorbox"
  top: "arm_priorbox"
  concat_param {
    axis: 2
  }
}
layer {
  name: "P3_inter_branch1"
  type: "Convolution"
  bottom: "P3"
  top: "P3_inter_branch1"
  param {
    lr_mult: 1.0
    decay_mult: 1.0
  }
  convolution_param {
    num_output: 128
    bias_term: false
    pad: 0
    kernel_size: 1
    stride: 1
    weight_filler {
      type: "gaussian"
      std: 0.00999999977648
    }
  }
}
layer {
  name: "bnP3_inter_branch1"
  type: "BatchNorm"
  bottom: "P3_inter_branch1"
  top: "P3_inter_branch1"
}
layer {
  name: "scaleP3_inter_branch1"
  type: "Scale"
  bottom: "P3_inter_branch1"
  top: "P3_inter_branch1"
  scale_param {
    bias_term: true
  }
}
layer {
  name: "P3_inter_branch2a"
  type: "Convolution"
  bottom: "P3"
  top: "P3_inter_branch2a"
  param {
    lr_mult: 1.0
    decay_mult: 1.0
  }
  convolution_param {
    num_output: 128
    bias_term: false
    pad: 1
    kernel_size: 3
    stride: 1
    weight_filler {
      type: "gaussian"
      std: 0.00999999977648
    }
  }
}
layer {
  name: "bnP3_inter_branch2a"
  type: "BatchNorm"
  bottom: "P3_inter_branch2a"
  top: "P3_inter_branch2a"
}
layer {
  name: "scaleP3_inter_branch2a"
  type: "Scale"
  bottom: "P3_inter_branch2a"
  top: "P3_inter_branch2a"
  scale_param {
    bias_term: true
  }
}
layer {
  name: "P3_inter_branch2a_relu"
  type: "ReLU"
  bottom: "P3_inter_branch2a"
  top: "P3_inter_branch2a"
}
layer {
  name: "P3_inter_branch2b"
  type: "Convolution"
  bottom: "P3_inter_branch2a"
  top: "P3_inter_branch2b"
  param {
    lr_mult: 1.0
    decay_mult: 1.0
  }
  convolution_param {
    num_output: 128
    bias_term: false
    pad: 1
    kernel_size: 3
    stride: 1
    weight_filler {
      type: "gaussian"
      std: 0.00999999977648
    }
  }
}
layer {
  name: "bnP3_inter_branch2b"
  type: "BatchNorm"
  bottom: "P3_inter_branch2b"
  top: "P3_inter_branch2b"
}
layer {
  name: "scaleP3_inter_branch2b"
  type: "Scale"
  bottom: "P3_inter_branch2b"
  top: "P3_inter_branch2b"
  scale_param {
    bias_term: true
  }
}
layer {
  name: "P3_inter_eltwise"
  type: "Eltwise"
  bottom: "P3_inter_branch1"
  bottom: "P3_inter_branch2b"
  top: "P3_inter_eltwise"
}
layer {
  name: "P3_inter_eltwise_relu"
  type: "ReLU"
  bottom: "P3_inter_eltwise"
  top: "P3_inter_eltwise"
}
layer {
  name: "P3_inter_eltwise_mbox_loc"
  type: "Convolution"
  bottom: "P3_inter_eltwise"
  top: "P3_inter_eltwise_mbox_loc"
  param {
    lr_mult: 1.0
    decay_mult: 1.0
  }
  param {
    lr_mult: 2.0
    decay_mult: 0.0
  }
  convolution_param {
    num_output: 12
    pad: 1
    kernel_size: 3
    stride: 1
    weight_filler {
      type: "xavier"
    }
    bias_filler {
      type: "constant"
      value: 0.0
    }
  }
}
layer {
  name: "P3_inter_eltwise_mbox_loc_perm"
  type: "Permute"
  bottom: "P3_inter_eltwise_mbox_loc"
  top: "P3_inter_eltwise_mbox_loc_perm"
  permute_param {
    order: 0
    order: 2
    order: 3
    order: 1
  }
}
layer {
  name: "P3_inter_eltwise_mbox_loc_flat"
  type: "Flatten"
  bottom: "P3_inter_eltwise_mbox_loc_perm"
  top: "P3_inter_eltwise_mbox_loc_flat"
  flatten_param {
    axis: 1
  }
}
layer {
  name: "P3_inter_eltwise_mbox_conf"
  type: "Convolution"
  bottom: "P3_inter_eltwise"
  top: "P3_inter_eltwise_mbox_conf"
  param {
    lr_mult: 1.0
    decay_mult: 1.0
  }
  param {
    lr_mult: 2.0
    decay_mult: 0.0
  }
  convolution_param {
    num_output: 243
    pad: 1
    kernel_size: 3
    stride: 1
    weight_filler {
      type: "xavier"
    }
    bias_filler {
      type: "constant"
      value: 0.0
    }
  }
}
layer {
  name: "P3_inter_eltwise_mbox_conf_perm"
  type: "Permute"
  bottom: "P3_inter_eltwise_mbox_conf"
  top: "P3_inter_eltwise_mbox_conf_perm"
  permute_param {
    order: 0
    order: 2
    order: 3
    order: 1
  }
}
layer {
  name: "P3_inter_eltwise_mbox_conf_flat"
  type: "Flatten"
  bottom: "P3_inter_eltwise_mbox_conf_perm"
  top: "P3_inter_eltwise_mbox_conf_flat"
  flatten_param {
    axis: 1
  }
}
layer {
  name: "P4_inter_branch1"
  type: "Convolution"
  bottom: "P4"
  top: "P4_inter_branch1"
  param {
    lr_mult: 1.0
    decay_mult: 1.0
  }
  convolution_param {
    num_output: 128
    bias_term: false
    pad: 0
    kernel_size: 1
    stride: 1
    weight_filler {
      type: "gaussian"
      std: 0.00999999977648
    }
  }
}
layer {
  name: "bnP4_inter_branch1"
  type: "BatchNorm"
  bottom: "P4_inter_branch1"
  top: "P4_inter_branch1"
}
layer {
  name: "scaleP4_inter_branch1"
  type: "Scale"
  bottom: "P4_inter_branch1"
  top: "P4_inter_branch1"
  scale_param {
    bias_term: true
  }
}
layer {
  name: "P4_inter_branch2a"
  type: "Convolution"
  bottom: "P4"
  top: "P4_inter_branch2a"
  param {
    lr_mult: 1.0
    decay_mult: 1.0
  }
  convolution_param {
    num_output: 128
    bias_term: false
    pad: 1
    kernel_size: 3
    stride: 1
    weight_filler {
      type: "gaussian"
      std: 0.00999999977648
    }
  }
}
layer {
  name: "bnP4_inter_branch2a"
  type: "BatchNorm"
  bottom: "P4_inter_branch2a"
  top: "P4_inter_branch2a"
}
layer {
  name: "scaleP4_inter_branch2a"
  type: "Scale"
  bottom: "P4_inter_branch2a"
  top: "P4_inter_branch2a"
  scale_param {
    bias_term: true
  }
}
layer {
  name: "P4_inter_branch2a_relu"
  type: "ReLU"
  bottom: "P4_inter_branch2a"
  top: "P4_inter_branch2a"
}
layer {
  name: "P4_inter_branch2b"
  type: "Convolution"
  bottom: "P4_inter_branch2a"
  top: "P4_inter_branch2b"
  param {
    lr_mult: 1.0
    decay_mult: 1.0
  }
  convolution_param {
    num_output: 128
    bias_term: false
    pad: 1
    kernel_size: 3
    stride: 1
    weight_filler {
      type: "gaussian"
      std: 0.00999999977648
    }
  }
}
layer {
  name: "bnP4_inter_branch2b"
  type: "BatchNorm"
  bottom: "P4_inter_branch2b"
  top: "P4_inter_branch2b"
}
layer {
  name: "scaleP4_inter_branch2b"
  type: "Scale"
  bottom: "P4_inter_branch2b"
  top: "P4_inter_branch2b"
  scale_param {
    bias_term: true
  }
}
layer {
  name: "P4_inter_eltwise"
  type: "Eltwise"
  bottom: "P4_inter_branch1"
  bottom: "P4_inter_branch2b"
  top: "P4_inter_eltwise"
}
layer {
  name: "P4_inter_eltwise_relu"
  type: "ReLU"
  bottom: "P4_inter_eltwise"
  top: "P4_inter_eltwise"
}
layer {
  name: "P4_inter_eltwise_mbox_loc"
  type: "Convolution"
  bottom: "P4_inter_eltwise"
  top: "P4_inter_eltwise_mbox_loc"
  param {
    lr_mult: 1.0
    decay_mult: 1.0
  }
  param {
    lr_mult: 2.0
    decay_mult: 0.0
  }
  convolution_param {
    num_output: 12
    pad: 1
    kernel_size: 3
    stride: 1
    weight_filler {
      type: "xavier"
    }
    bias_filler {
      type: "constant"
      value: 0.0
    }
  }
}
layer {
  name: "P4_inter_eltwise_mbox_loc_perm"
  type: "Permute"
  bottom: "P4_inter_eltwise_mbox_loc"
  top: "P4_inter_eltwise_mbox_loc_perm"
  permute_param {
    order: 0
    order: 2
    order: 3
    order: 1
  }
}
layer {
  name: "P4_inter_eltwise_mbox_loc_flat"
  type: "Flatten"
  bottom: "P4_inter_eltwise_mbox_loc_perm"
  top: "P4_inter_eltwise_mbox_loc_flat"
  flatten_param {
    axis: 1
  }
}
layer {
  name: "P4_inter_eltwise_mbox_conf"
  type: "Convolution"
  bottom: "P4_inter_eltwise"
  top: "P4_inter_eltwise_mbox_conf"
  param {
    lr_mult: 1.0
    decay_mult: 1.0
  }
  param {
    lr_mult: 2.0
    decay_mult: 0.0
  }
  convolution_param {
    num_output: 243
    pad: 1
    kernel_size: 3
    stride: 1
    weight_filler {
      type: "xavier"
    }
    bias_filler {
      type: "constant"
      value: 0.0
    }
  }
}
layer {
  name: "P4_inter_eltwise_mbox_conf_perm"
  type: "Permute"
  bottom: "P4_inter_eltwise_mbox_conf"
  top: "P4_inter_eltwise_mbox_conf_perm"
  permute_param {
    order: 0
    order: 2
    order: 3
    order: 1
  }
}
layer {
  name: "P4_inter_eltwise_mbox_conf_flat"
  type: "Flatten"
  bottom: "P4_inter_eltwise_mbox_conf_perm"
  top: "P4_inter_eltwise_mbox_conf_flat"
  flatten_param {
    axis: 1
  }
}
layer {
  name: "P5_inter_branch1"
  type: "Convolution"
  bottom: "P5"
  top: "P5_inter_branch1"
  param {
    lr_mult: 1.0
    decay_mult: 1.0
  }
  convolution_param {
    num_output: 128
    bias_term: false
    pad: 0
    kernel_size: 1
    stride: 1
    weight_filler {
      type: "gaussian"
      std: 0.00999999977648
    }
  }
}
layer {
  name: "bnP5_inter_branch1"
  type: "BatchNorm"
  bottom: "P5_inter_branch1"
  top: "P5_inter_branch1"
}
layer {
  name: "scaleP5_inter_branch1"
  type: "Scale"
  bottom: "P5_inter_branch1"
  top: "P5_inter_branch1"
  scale_param {
    bias_term: true
  }
}
layer {
  name: "P5_inter_branch2a"
  type: "Convolution"
  bottom: "P5"
  top: "P5_inter_branch2a"
  param {
    lr_mult: 1.0
    decay_mult: 1.0
  }
  convolution_param {
    num_output: 128
    bias_term: false
    pad: 1
    kernel_size: 3
    stride: 1
    weight_filler {
      type: "gaussian"
      std: 0.00999999977648
    }
  }
}
layer {
  name: "bnP5_inter_branch2a"
  type: "BatchNorm"
  bottom: "P5_inter_branch2a"
  top: "P5_inter_branch2a"
}
layer {
  name: "scaleP5_inter_branch2a"
  type: "Scale"
  bottom: "P5_inter_branch2a"
  top: "P5_inter_branch2a"
  scale_param {
    bias_term: true
  }
}
layer {
  name: "P5_inter_branch2a_relu"
  type: "ReLU"
  bottom: "P5_inter_branch2a"
  top: "P5_inter_branch2a"
}
layer {
  name: "P5_inter_branch2b"
  type: "Convolution"
  bottom: "P5_inter_branch2a"
  top: "P5_inter_branch2b"
  param {
    lr_mult: 1.0
    decay_mult: 1.0
  }
  convolution_param {
    num_output: 128
    bias_term: false
    pad: 1
    kernel_size: 3
    stride: 1
    weight_filler {
      type: "gaussian"
      std: 0.00999999977648
    }
  }
}
layer {
  name: "bnP5_inter_branch2b"
  type: "BatchNorm"
  bottom: "P5_inter_branch2b"
  top: "P5_inter_branch2b"
}
layer {
  name: "scaleP5_inter_branch2b"
  type: "Scale"
  bottom: "P5_inter_branch2b"
  top: "P5_inter_branch2b"
  scale_param {
    bias_term: true
  }
}
layer {
  name: "P5_inter_eltwise"
  type: "Eltwise"
  bottom: "P5_inter_branch1"
  bottom: "P5_inter_branch2b"
  top: "P5_inter_eltwise"
}
layer {
  name: "P5_inter_eltwise_relu"
  type: "ReLU"
  bottom: "P5_inter_eltwise"
  top: "P5_inter_eltwise"
}
layer {
  name: "P5_inter_eltwise_mbox_loc"
  type: "Convolution"
  bottom: "P5_inter_eltwise"
  top: "P5_inter_eltwise_mbox_loc"
  param {
    lr_mult: 1.0
    decay_mult: 1.0
  }
  param {
    lr_mult: 2.0
    decay_mult: 0.0
  }
  convolution_param {
    num_output: 12
    pad: 1
    kernel_size: 3
    stride: 1
    weight_filler {
      type: "xavier"
    }
    bias_filler {
      type: "constant"
      value: 0.0
    }
  }
}
layer {
  name: "P5_inter_eltwise_mbox_loc_perm"
  type: "Permute"
  bottom: "P5_inter_eltwise_mbox_loc"
  top: "P5_inter_eltwise_mbox_loc_perm"
  permute_param {
    order: 0
    order: 2
    order: 3
    order: 1
  }
}
layer {
  name: "P5_inter_eltwise_mbox_loc_flat"
  type: "Flatten"
  bottom: "P5_inter_eltwise_mbox_loc_perm"
  top: "P5_inter_eltwise_mbox_loc_flat"
  flatten_param {
    axis: 1
  }
}
layer {
  name: "P5_inter_eltwise_mbox_conf"
  type: "Convolution"
  bottom: "P5_inter_eltwise"
  top: "P5_inter_eltwise_mbox_conf"
  param {
    lr_mult: 1.0
    decay_mult: 1.0
  }
  param {
    lr_mult: 2.0
    decay_mult: 0.0
  }
  convolution_param {
    num_output: 243
    pad: 1
    kernel_size: 3
    stride: 1
    weight_filler {
      type: "xavier"
    }
    bias_filler {
      type: "constant"
      value: 0.0
    }
  }
}
layer {
  name: "P5_inter_eltwise_mbox_conf_perm"
  type: "Permute"
  bottom: "P5_inter_eltwise_mbox_conf"
  top: "P5_inter_eltwise_mbox_conf_perm"
  permute_param {
    order: 0
    order: 2
    order: 3
    order: 1
  }
}
layer {
  name: "P5_inter_eltwise_mbox_conf_flat"
  type: "Flatten"
  bottom: "P5_inter_eltwise_mbox_conf_perm"
  top: "P5_inter_eltwise_mbox_conf_flat"
  flatten_param {
    axis: 1
  }
}
layer {
  name: "P6_inter_branch1"
  type: "Convolution"
  bottom: "P6"
  top: "P6_inter_branch1"
  param {
    lr_mult: 1.0
    decay_mult: 1.0
  }
  convolution_param {
    num_output: 128
    bias_term: false
    pad: 0
    kernel_size: 1
    stride: 1
    weight_filler {
      type: "gaussian"
      std: 0.00999999977648
    }
  }
}
layer {
  name: "bnP6_inter_branch1"
  type: "BatchNorm"
  bottom: "P6_inter_branch1"
  top: "P6_inter_branch1"
}
layer {
  name: "scaleP6_inter_branch1"
  type: "Scale"
  bottom: "P6_inter_branch1"
  top: "P6_inter_branch1"
  scale_param {
    bias_term: true
  }
}
layer {
  name: "P6_inter_branch2a"
  type: "Convolution"
  bottom: "P6"
  top: "P6_inter_branch2a"
  param {
    lr_mult: 1.0
    decay_mult: 1.0
  }
  convolution_param {
    num_output: 128
    bias_term: false
    pad: 1
    kernel_size: 3
    stride: 1
    weight_filler {
      type: "gaussian"
      std: 0.00999999977648
    }
  }
}
layer {
  name: "bnP6_inter_branch2a"
  type: "BatchNorm"
  bottom: "P6_inter_branch2a"
  top: "P6_inter_branch2a"
}
layer {
  name: "scaleP6_inter_branch2a"
  type: "Scale"
  bottom: "P6_inter_branch2a"
  top: "P6_inter_branch2a"
  scale_param {
    bias_term: true
  }
}
layer {
  name: "P6_inter_branch2a_relu"
  type: "ReLU"
  bottom: "P6_inter_branch2a"
  top: "P6_inter_branch2a"
}
layer {
  name: "P6_inter_branch2b"
  type: "Convolution"
  bottom: "P6_inter_branch2a"
  top: "P6_inter_branch2b"
  param {
    lr_mult: 1.0
    decay_mult: 1.0
  }
  convolution_param {
    num_output: 128
    bias_term: false
    pad: 1
    kernel_size: 3
    stride: 1
    weight_filler {
      type: "gaussian"
      std: 0.00999999977648
    }
  }
}
layer {
  name: "bnP6_inter_branch2b"
  type: "BatchNorm"
  bottom: "P6_inter_branch2b"
  top: "P6_inter_branch2b"
}
layer {
  name: "scaleP6_inter_branch2b"
  type: "Scale"
  bottom: "P6_inter_branch2b"
  top: "P6_inter_branch2b"
  scale_param {
    bias_term: true
  }
}
layer {
  name: "P6_inter_eltwise"
  type: "Eltwise"
  bottom: "P6_inter_branch1"
  bottom: "P6_inter_branch2b"
  top: "P6_inter_eltwise"
}
layer {
  name: "P6_inter_eltwise_relu"
  type: "ReLU"
  bottom: "P6_inter_eltwise"
  top: "P6_inter_eltwise"
}
layer {
  name: "P6_inter_eltwise_mbox_loc"
  type: "Convolution"
  bottom: "P6_inter_eltwise"
  top: "P6_inter_eltwise_mbox_loc"
  param {
    lr_mult: 1.0
    decay_mult: 1.0
  }
  param {
    lr_mult: 2.0
    decay_mult: 0.0
  }
  convolution_param {
    num_output: 12
    pad: 1
    kernel_size: 3
    stride: 1
    weight_filler {
      type: "xavier"
    }
    bias_filler {
      type: "constant"
      value: 0.0
    }
  }
}
layer {
  name: "P6_inter_eltwise_mbox_loc_perm"
  type: "Permute"
  bottom: "P6_inter_eltwise_mbox_loc"
  top: "P6_inter_eltwise_mbox_loc_perm"
  permute_param {
    order: 0
    order: 2
    order: 3
    order: 1
  }
}
layer {
  name: "P6_inter_eltwise_mbox_loc_flat"
  type: "Flatten"
  bottom: "P6_inter_eltwise_mbox_loc_perm"
  top: "P6_inter_eltwise_mbox_loc_flat"
  flatten_param {
    axis: 1
  }
}
layer {
  name: "P6_inter_eltwise_mbox_conf"
  type: "Convolution"
  bottom: "P6_inter_eltwise"
  top: "P6_inter_eltwise_mbox_conf"
  param {
    lr_mult: 1.0
    decay_mult: 1.0
  }
  param {
    lr_mult: 2.0
    decay_mult: 0.0
  }
  convolution_param {
    num_output: 243
    pad: 1
    kernel_size: 3
    stride: 1
    weight_filler {
      type: "xavier"
    }
    bias_filler {
      type: "constant"
      value: 0.0
    }
  }
}
layer {
  name: "P6_inter_eltwise_mbox_conf_perm"
  type: "Permute"
  bottom: "P6_inter_eltwise_mbox_conf"
  top: "P6_inter_eltwise_mbox_conf_perm"
  permute_param {
    order: 0
    order: 2
    order: 3
    order: 1
  }
}
layer {
  name: "P6_inter_eltwise_mbox_conf_flat"
  type: "Flatten"
  bottom: "P6_inter_eltwise_mbox_conf_perm"
  top: "P6_inter_eltwise_mbox_conf_flat"
  flatten_param {
    axis: 1
  }
}
layer {
  name: "odm_loc"
  type: "Concat"
  bottom: "P3_inter_eltwise_mbox_loc_flat"
  bottom: "P4_inter_eltwise_mbox_loc_flat"
  bottom: "P5_inter_eltwise_mbox_loc_flat"
  bottom: "P6_inter_eltwise_mbox_loc_flat"
  top: "odm_loc"
  concat_param {
    axis: 1
  }
}
layer {
  name: "odm_conf"
  type: "Concat"
  bottom: "P3_inter_eltwise_mbox_conf_flat"
  bottom: "P4_inter_eltwise_mbox_conf_flat"
  bottom: "P5_inter_eltwise_mbox_conf_flat"
  bottom: "P6_inter_eltwise_mbox_conf_flat"
  top: "odm_conf"
  concat_param {
    axis: 1
  }
}
layer {
  name: "arm_conf_reshape"
  type: "Reshape"
  bottom: "arm_conf"
  top: "arm_conf_reshape"
  reshape_param {
    shape {
      dim: 0
      dim: -1
      dim: 2
    }
  }
}
layer {
  name: "arm_conf_softmax"
  type: "Softmax"
  bottom: "arm_conf_reshape"
  top: "arm_conf_softmax"
  softmax_param {
    axis: 2
  }
}
layer {
  name: "arm_conf_flatten"
  type: "Flatten"
  bottom: "arm_conf_softmax"
  top: "arm_conf_flatten"
  flatten_param {
    axis: 1
  }
}
layer {
  name: "odm_conf_reshape"
  type: "Reshape"
  bottom: "odm_conf"
  top: "odm_conf_reshape"
  reshape_param {
    shape {
      dim: 0
      dim: -1
      dim: 81
    }
  }
}
layer {
  name: "odm_conf_softmax"
  type: "Softmax"
  bottom: "odm_conf_reshape"
  top: "odm_conf_softmax"
  softmax_param {
    axis: 2
  }
}
layer {
  name: "odm_conf_flatten"
  type: "Flatten"
  bottom: "odm_conf_softmax"
  top: "odm_conf_flatten"
  flatten_param {
    axis: 1
  }
}
layer {
  name: "detection_out"
  type: "DetectionOutput"
  bottom: "odm_loc"
  bottom: "odm_conf_flatten"
  bottom: "arm_priorbox"
  bottom: "arm_conf_flatten"
  bottom: "arm_loc"
  top: "detection_out"
  include {
    phase: TEST
  }
  detection_output_param {
    num_classes: 81
    share_location: true
    background_label_id: 0
    nms_param {
      nms_threshold: 0.449999988079
      top_k: 400
    }
    code_type: CENTER_SIZE
    keep_top_k: 200
    confidence_threshold: 0.10000000149
    objectness_score: 0.00999999977648
  }
}

