name: "coco_refinedet_xception_320x320_deploy"
input: "data"
input_shape {
  dim: 1
  dim: 3
  dim: 320
  dim: 320
}
layer {
  name: "conv1"
  type: "Convolution"
  bottom: "data"
  top: "conv1"
  param {
    lr_mult: 1.0
    decay_mult: 1.0
  }
  convolution_param {
    num_output: 32
    bias_term: false
    pad: 1
    kernel_size: 3
    stride: 2
    weight_filler {
      type: "gaussian"
      std: 0.00999999977648
    }
  }
}
layer {
  name: "conv1_bn"
  type: "BatchNorm"
  bottom: "conv1"
  top: "conv1"
}
layer {
  name: "conv1_scale"
  type: "Scale"
  bottom: "conv1"
  top: "conv1"
  scale_param {
    bias_term: true
  }
}
layer {
  name: "conv1_relu"
  type: "ReLU"
  bottom: "conv1"
  top: "conv1"
}
layer {
  name: "conv2"
  type: "Convolution"
  bottom: "conv1"
  top: "conv2"
  param {
    lr_mult: 1.0
    decay_mult: 1.0
  }
  convolution_param {
    num_output: 64
    bias_term: false
    pad: 1
    kernel_size: 3
    stride: 1
    weight_filler {
      type: "gaussian"
      std: 0.00999999977648
    }
  }
}
layer {
  name: "conv2_bn"
  type: "BatchNorm"
  bottom: "conv2"
  top: "conv2"
}
layer {
  name: "conv2_scale"
  type: "Scale"
  bottom: "conv2"
  top: "conv2"
  scale_param {
    bias_term: true
  }
}
layer {
  name: "conv2_relu"
  type: "ReLU"
  bottom: "conv2"
  top: "conv2"
}
layer {
  name: "xception1_match_conv"
  type: "Convolution"
  bottom: "conv2"
  top: "xception1_match_conv"
  param {
    lr_mult: 1.0
    decay_mult: 1.0
  }
  convolution_param {
    num_output: 128
    bias_term: false
    pad: 0
    kernel_size: 1
    stride: 2
    weight_filler {
      type: "gaussian"
      std: 0.00999999977648
    }
  }
}
layer {
  name: "xception1_match_conv_bn"
  type: "BatchNorm"
  bottom: "xception1_match_conv"
  top: "xception1_match_conv"
}
layer {
  name: "xception1_match_conv_scale"
  type: "Scale"
  bottom: "xception1_match_conv"
  top: "xception1_match_conv"
  scale_param {
    bias_term: true
  }
}
layer {
  name: "xception1_conv1_1"
  type: "ConvolutionDepthwise"
  bottom: "conv2"
  top: "xception1_conv1_1"
  param {
    lr_mult: 1.0
    decay_mult: 1.0
  }
  convolution_param {
    num_output: 64
    bias_term: false
    pad: 1
    kernel_size: 3
    group: 64
    stride: 1
    weight_filler {
      type: "gaussian"
      std: 0.00999999977648
    }
  }
}
layer {
  name: "xception1_conv1_2"
  type: "Convolution"
  bottom: "xception1_conv1_1"
  top: "xception1_conv1_2"
  param {
    lr_mult: 1.0
    decay_mult: 1.0
  }
  convolution_param {
    num_output: 128
    bias_term: false
    pad: 0
    kernel_size: 1
    stride: 1
    weight_filler {
      type: "gaussian"
      std: 0.00999999977648
    }
  }
}
layer {
  name: "xception1_conv1_bn"
  type: "BatchNorm"
  bottom: "xception1_conv1_2"
  top: "xception1_conv1_2"
}
layer {
  name: "xception1_conv1_scale"
  type: "Scale"
  bottom: "xception1_conv1_2"
  top: "xception1_conv1_2"
  scale_param {
    bias_term: true
  }
}
layer {
  name: "xception1_conv1_relu"
  type: "ReLU"
  bottom: "xception1_conv1_2"
  top: "xception1_conv1_2"
}
layer {
  name: "xception1_conv2_1"
  type: "ConvolutionDepthwise"
  bottom: "xception1_conv1_2"
  top: "xception1_conv2_1"
  param {
    lr_mult: 1.0
    decay_mult: 1.0
  }
  convolution_param {
    num_output: 128
    bias_term: false
    pad: 1
    kernel_size: 3
    group: 128
    stride: 1
    weight_filler {
      type: "gaussian"
      std: 0.00999999977648
    }
  }
}
layer {
  name: "xception1_conv2_2"
  type: "Convolution"
  bottom: "xception1_conv2_1"
  top: "xception1_conv2_2"
  param {
    lr_mult: 1.0
    decay_mult: 1.0
  }
  convolution_param {
    num_output: 128
    bias_term: false
    pad: 0
    kernel_size: 1
    stride: 1
    weight_filler {
      type: "gaussian"
      std: 0.00999999977648
    }
  }
}
layer {
  name: "xception1_conv2_bn"
  type: "BatchNorm"
  bottom: "xception1_conv2_2"
  top: "xception1_conv2_2"
}
layer {
  name: "xception1_conv2_scale"
  type: "Scale"
  bottom: "xception1_conv2_2"
  top: "xception1_conv2_2"
  scale_param {
    bias_term: true
  }
}
layer {
  name: "xception1_pool"
  type: "Pooling"
  bottom: "xception1_conv2_2"
  top: "xception1_pool"
  pooling_param {
    pool: MAX
    kernel_size: 3
    stride: 2
    pad: 0
  }
}
layer {
  name: "xception1_elewise"
  type: "Eltwise"
  bottom: "xception1_match_conv"
  bottom: "xception1_pool"
  top: "xception1_elewise"
}
layer {
  name: "xception2_match_conv"
  type: "Convolution"
  bottom: "xception1_elewise"
  top: "xception2_match_conv"
  param {
    lr_mult: 1.0
    decay_mult: 1.0
  }
  convolution_param {
    num_output: 256
    bias_term: false
    pad: 0
    kernel_size: 1
    stride: 2
    weight_filler {
      type: "gaussian"
      std: 0.00999999977648
    }
  }
}
layer {
  name: "xception2_match_conv_bn"
  type: "BatchNorm"
  bottom: "xception2_match_conv"
  top: "xception2_match_conv"
}
layer {
  name: "xception2_match_conv_scale"
  type: "Scale"
  bottom: "xception2_match_conv"
  top: "xception2_match_conv"
  scale_param {
    bias_term: true
  }
}
layer {
  name: "xception2_relu"
  type: "ReLU"
  bottom: "xception1_elewise"
  top: "xception2_relu"
}
layer {
  name: "xception2_conv1_1"
  type: "ConvolutionDepthwise"
  bottom: "xception2_relu"
  top: "xception2_conv1_1"
  param {
    lr_mult: 1.0
    decay_mult: 1.0
  }
  convolution_param {
    num_output: 128
    bias_term: false
    pad: 1
    kernel_size: 3
    group: 128
    stride: 1
    weight_filler {
      type: "gaussian"
      std: 0.00999999977648
    }
  }
}
layer {
  name: "xception2_conv1_2"
  type: "Convolution"
  bottom: "xception2_conv1_1"
  top: "xception2_conv1_2"
  param {
    lr_mult: 1.0
    decay_mult: 1.0
  }
  convolution_param {
    num_output: 256
    bias_term: false
    pad: 0
    kernel_size: 1
    stride: 1
    weight_filler {
      type: "gaussian"
      std: 0.00999999977648
    }
  }
}
layer {
  name: "xception2_conv1_bn"
  type: "BatchNorm"
  bottom: "xception2_conv1_2"
  top: "xception2_conv1_2"
}
layer {
  name: "xception2_conv1_scale"
  type: "Scale"
  bottom: "xception2_conv1_2"
  top: "xception2_conv1_2"
  scale_param {
    bias_term: true
  }
}
layer {
  name: "xception2_conv1_relu"
  type: "ReLU"
  bottom: "xception2_conv1_2"
  top: "xception2_conv1_2"
}
layer {
  name: "xception2_conv2_1"
  type: "ConvolutionDepthwise"
  bottom: "xception2_conv1_2"
  top: "xception2_conv2_1"
  param {
    lr_mult: 1.0
    decay_mult: 1.0
  }
  convolution_param {
    num_output: 256
    bias_term: false
    pad: 1
    kernel_size: 3
    group: 256
    stride: 1
    weight_filler {
      type: "gaussian"
      std: 0.00999999977648
    }
  }
}
layer {
  name: "xception2_conv2_2"
  type: "Convolution"
  bottom: "xception2_conv2_1"
  top: "xception2_conv2_2"
  param {
    lr_mult: 1.0
    decay_mult: 1.0
  }
  convolution_param {
    num_output: 256
    bias_term: false
    pad: 0
    kernel_size: 1
    stride: 1
    weight_filler {
      type: "gaussian"
      std: 0.00999999977648
    }
  }
}
layer {
  name: "xception2_conv2_bn"
  type: "BatchNorm"
  bottom: "xception2_conv2_2"
  top: "xception2_conv2_2"
}
layer {
  name: "xception2_conv2_scale"
  type: "Scale"
  bottom: "xception2_conv2_2"
  top: "xception2_conv2_2"
  scale_param {
    bias_term: true
  }
}
layer {
  name: "xception2_pool"
  type: "Pooling"
  bottom: "xception2_conv2_2"
  top: "xception2_pool"
  pooling_param {
    pool: MAX
    kernel_size: 3
    stride: 2
    pad: 0
  }
}
layer {
  name: "xception2_elewise"
  type: "Eltwise"
  bottom: "xception2_match_conv"
  bottom: "xception2_pool"
  top: "xception2_elewise"
}
layer {
  name: "xception3_match_conv"
  type: "Convolution"
  bottom: "xception2_elewise"
  top: "xception3_match_conv"
  param {
    lr_mult: 1.0
    decay_mult: 1.0
  }
  convolution_param {
    num_output: 728
    bias_term: false
    pad: 0
    kernel_size: 1
    stride: 2
    weight_filler {
      type: "gaussian"
      std: 0.00999999977648
    }
  }
}
layer {
  name: "xception3_match_conv_bn"
  type: "BatchNorm"
  bottom: "xception3_match_conv"
  top: "xception3_match_conv"
}
layer {
  name: "xception3_match_conv_scale"
  type: "Scale"
  bottom: "xception3_match_conv"
  top: "xception3_match_conv"
  scale_param {
    bias_term: true
  }
}
layer {
  name: "xception3_relu"
  type: "ReLU"
  bottom: "xception2_elewise"
  top: "xception3_relu"
}
layer {
  name: "xception3_conv1_1"
  type: "ConvolutionDepthwise"
  bottom: "xception3_relu"
  top: "xception3_conv1_1"
  param {
    lr_mult: 1.0
    decay_mult: 1.0
  }
  convolution_param {
    num_output: 256
    bias_term: false
    pad: 1
    kernel_size: 3
    group: 256
    stride: 1
    weight_filler {
      type: "gaussian"
      std: 0.00999999977648
    }
  }
}
layer {
  name: "xception3_conv1_2"
  type: "Convolution"
  bottom: "xception3_conv1_1"
  top: "xception3_conv1_2"
  param {
    lr_mult: 1.0
    decay_mult: 1.0
  }
  convolution_param {
    num_output: 728
    bias_term: false
    pad: 0
    kernel_size: 1
    stride: 1
    weight_filler {
      type: "gaussian"
      std: 0.00999999977648
    }
  }
}
layer {
  name: "xception3_conv1_bn"
  type: "BatchNorm"
  bottom: "xception3_conv1_2"
  top: "xception3_conv1_2"
}
layer {
  name: "xception3_conv1_scale"
  type: "Scale"
  bottom: "xception3_conv1_2"
  top: "xception3_conv1_2"
  scale_param {
    bias_term: true
  }
}
layer {
  name: "xception3_conv1_relu"
  type: "ReLU"
  bottom: "xception3_conv1_2"
  top: "xception3_conv1_2"
}
layer {
  name: "xception3_conv2_1"
  type: "ConvolutionDepthwise"
  bottom: "xception3_conv1_2"
  top: "xception3_conv2_1"
  param {
    lr_mult: 1.0
    decay_mult: 1.0
  }
  convolution_param {
    num_output: 728
    bias_term: false
    pad: 1
    kernel_size: 3
    group: 728
    stride: 1
    weight_filler {
      type: "gaussian"
      std: 0.00999999977648
    }
  }
}
layer {
  name: "xception3_conv2_2"
  type: "Convolution"
  bottom: "xception3_conv2_1"
  top: "xception3_conv2_2"
  param {
    lr_mult: 1.0
    decay_mult: 1.0
  }
  convolution_param {
    num_output: 728
    bias_term: false
    pad: 0
    kernel_size: 1
    stride: 1
    weight_filler {
      type: "gaussian"
      std: 0.00999999977648
    }
  }
}
layer {
  name: "xception3_conv2_bn"
  type: "BatchNorm"
  bottom: "xception3_conv2_2"
  top: "xception3_conv2_2"
}
layer {
  name: "xception3_conv2_scale"
  type: "Scale"
  bottom: "xception3_conv2_2"
  top: "xception3_conv2_2"
  scale_param {
    bias_term: true
  }
}
layer {
  name: "xception3_pool"
  type: "Pooling"
  bottom: "xception3_conv2_2"
  top: "xception3_pool"
  pooling_param {
    pool: MAX
    kernel_size: 3
    stride: 2
    pad: 0
  }
}
layer {
  name: "xception3_elewise"
  type: "Eltwise"
  bottom: "xception3_match_conv"
  bottom: "xception3_pool"
  top: "xception3_elewise"
}
layer {
  name: "xception4_relu"
  type: "ReLU"
  bottom: "xception3_elewise"
  top: "xception4_relu"
}
layer {
  name: "xception4_conv1_1"
  type: "ConvolutionDepthwise"
  bottom: "xception4_relu"
  top: "xception4_conv1_1"
  param {
    lr_mult: 1.0
    decay_mult: 1.0
  }
  convolution_param {
    num_output: 728
    bias_term: false
    pad: 1
    kernel_size: 3
    group: 728
    stride: 1
    weight_filler {
      type: "gaussian"
      std: 0.00999999977648
    }
  }
}
layer {
  name: "xception4_conv1_2"
  type: "Convolution"
  bottom: "xception4_conv1_1"
  top: "xception4_conv1_2"
  param {
    lr_mult: 1.0
    decay_mult: 1.0
  }
  convolution_param {
    num_output: 728
    bias_term: false
    pad: 0
    kernel_size: 1
    stride: 1
    weight_filler {
      type: "gaussian"
      std: 0.00999999977648
    }
  }
}
layer {
  name: "xception4_conv1_bn"
  type: "BatchNorm"
  bottom: "xception4_conv1_2"
  top: "xception4_conv1_2"
}
layer {
  name: "xception4_conv1_scale"
  type: "Scale"
  bottom: "xception4_conv1_2"
  top: "xception4_conv1_2"
  scale_param {
    bias_term: true
  }
}
layer {
  name: "xception4_conv1_relu"
  type: "ReLU"
  bottom: "xception4_conv1_2"
  top: "xception4_conv1_2"
}
layer {
  name: "xception4_conv2_1"
  type: "ConvolutionDepthwise"
  bottom: "xception4_conv1_2"
  top: "xception4_conv2_1"
  param {
    lr_mult: 1.0
    decay_mult: 1.0
  }
  convolution_param {
    num_output: 728
    bias_term: false
    pad: 1
    kernel_size: 3
    group: 728
    stride: 1
    weight_filler {
      type: "gaussian"
      std: 0.00999999977648
    }
  }
}
layer {
  name: "xception4_conv2_2"
  type: "Convolution"
  bottom: "xception4_conv2_1"
  top: "xception4_conv2_2"
  param {
    lr_mult: 1.0
    decay_mult: 1.0
  }
  convolution_param {
    num_output: 728
    bias_term: false
    pad: 0
    kernel_size: 1
    stride: 1
    weight_filler {
      type: "gaussian"
      std: 0.00999999977648
    }
  }
}
layer {
  name: "xception4_conv2_bn"
  type: "BatchNorm"
  bottom: "xception4_conv2_2"
  top: "xception4_conv2_2"
}
layer {
  name: "xception4_conv2_scale"
  type: "Scale"
  bottom: "xception4_conv2_2"
  top: "xception4_conv2_2"
  scale_param {
    bias_term: true
  }
}
layer {
  name: "xception4_conv2_relu"
  type: "ReLU"
  bottom: "xception4_conv2_2"
  top: "xception4_conv2_2"
}
layer {
  name: "xception4_conv3_1"
  type: "ConvolutionDepthwise"
  bottom: "xception4_conv2_2"
  top: "xception4_conv3_1"
  param {
    lr_mult: 1.0
    decay_mult: 1.0
  }
  convolution_param {
    num_output: 728
    bias_term: false
    pad: 1
    kernel_size: 3
    group: 728
    stride: 1
    weight_filler {
      type: "gaussian"
      std: 0.00999999977648
    }
  }
}
layer {
  name: "xception4_conv3_2"
  type: "Convolution"
  bottom: "xception4_conv3_1"
  top: "xception4_conv3_2"
  param {
    lr_mult: 1.0
    decay_mult: 1.0
  }
  convolution_param {
    num_output: 728
    bias_term: false
    pad: 0
    kernel_size: 1
    stride: 1
    weight_filler {
      type: "gaussian"
      std: 0.00999999977648
    }
  }
}
layer {
  name: "xception4_conv3_bn"
  type: "BatchNorm"
  bottom: "xception4_conv3_2"
  top: "xception4_conv3_2"
}
layer {
  name: "xception4_conv3_scale"
  type: "Scale"
  bottom: "xception4_conv3_2"
  top: "xception4_conv3_2"
  scale_param {
    bias_term: true
  }
}
layer {
  name: "xception4_elewise"
  type: "Eltwise"
  bottom: "xception3_elewise"
  bottom: "xception4_conv3_2"
  top: "xception4_elewise"
}
layer {
  name: "xception5_relu"
  type: "ReLU"
  bottom: "xception4_elewise"
  top: "xception5_relu"
}
layer {
  name: "xception5_conv1_1"
  type: "ConvolutionDepthwise"
  bottom: "xception5_relu"
  top: "xception5_conv1_1"
  param {
    lr_mult: 1.0
    decay_mult: 1.0
  }
  convolution_param {
    num_output: 728
    bias_term: false
    pad: 1
    kernel_size: 3
    group: 728
    stride: 1
    weight_filler {
      type: "gaussian"
      std: 0.00999999977648
    }
  }
}
layer {
  name: "xception5_conv1_2"
  type: "Convolution"
  bottom: "xception5_conv1_1"
  top: "xception5_conv1_2"
  param {
    lr_mult: 1.0
    decay_mult: 1.0
  }
  convolution_param {
    num_output: 728
    bias_term: false
    pad: 0
    kernel_size: 1
    stride: 1
    weight_filler {
      type: "gaussian"
      std: 0.00999999977648
    }
  }
}
layer {
  name: "xception5_conv1_bn"
  type: "BatchNorm"
  bottom: "xception5_conv1_2"
  top: "xception5_conv1_2"
}
layer {
  name: "xception5_conv1_scale"
  type: "Scale"
  bottom: "xception5_conv1_2"
  top: "xception5_conv1_2"
  scale_param {
    bias_term: true
  }
}
layer {
  name: "xception5_conv1_relu"
  type: "ReLU"
  bottom: "xception5_conv1_2"
  top: "xception5_conv1_2"
}
layer {
  name: "xception5_conv2_1"
  type: "ConvolutionDepthwise"
  bottom: "xception5_conv1_2"
  top: "xception5_conv2_1"
  param {
    lr_mult: 1.0
    decay_mult: 1.0
  }
  convolution_param {
    num_output: 728
    bias_term: false
    pad: 1
    kernel_size: 3
    group: 728
    stride: 1
    weight_filler {
      type: "gaussian"
      std: 0.00999999977648
    }
  }
}
layer {
  name: "xception5_conv2_2"
  type: "Convolution"
  bottom: "xception5_conv2_1"
  top: "xception5_conv2_2"
  param {
    lr_mult: 1.0
    decay_mult: 1.0
  }
  convolution_param {
    num_output: 728
    bias_term: false
    pad: 0
    kernel_size: 1
    stride: 1
    weight_filler {
      type: "gaussian"
      std: 0.00999999977648
    }
  }
}
layer {
  name: "xception5_conv2_bn"
  type: "BatchNorm"
  bottom: "xception5_conv2_2"
  top: "xception5_conv2_2"
}
layer {
  name: "xception5_conv2_scale"
  type: "Scale"
  bottom: "xception5_conv2_2"
  top: "xception5_conv2_2"
  scale_param {
    bias_term: true
  }
}
layer {
  name: "xception5_conv2_relu"
  type: "ReLU"
  bottom: "xception5_conv2_2"
  top: "xception5_conv2_2"
}
layer {
  name: "xception5_conv3_1"
  type: "ConvolutionDepthwise"
  bottom: "xception5_conv2_2"
  top: "xception5_conv3_1"
  param {
    lr_mult: 1.0
    decay_mult: 1.0
  }
  convolution_param {
    num_output: 728
    bias_term: false
    pad: 1
    kernel_size: 3
    group: 728
    stride: 1
    weight_filler {
      type: "gaussian"
      std: 0.00999999977648
    }
  }
}
layer {
  name: "xception5_conv3_2"
  type: "Convolution"
  bottom: "xception5_conv3_1"
  top: "xception5_conv3_2"
  param {
    lr_mult: 1.0
    decay_mult: 1.0
  }
  convolution_param {
    num_output: 728
    bias_term: false
    pad: 0
    kernel_size: 1
    stride: 1
    weight_filler {
      type: "gaussian"
      std: 0.00999999977648
    }
  }
}
layer {
  name: "xception5_conv3_bn"
  type: "BatchNorm"
  bottom: "xception5_conv3_2"
  top: "xception5_conv3_2"
}
layer {
  name: "xception5_conv3_scale"
  type: "Scale"
  bottom: "xception5_conv3_2"
  top: "xception5_conv3_2"
  scale_param {
    bias_term: true
  }
}
layer {
  name: "xception5_elewise"
  type: "Eltwise"
  bottom: "xception4_elewise"
  bottom: "xception5_conv3_2"
  top: "xception5_elewise"
}
layer {
  name: "xception6_relu"
  type: "ReLU"
  bottom: "xception5_elewise"
  top: "xception6_relu"
}
layer {
  name: "xception6_conv1_1"
  type: "ConvolutionDepthwise"
  bottom: "xception6_relu"
  top: "xception6_conv1_1"
  param {
    lr_mult: 1.0
    decay_mult: 1.0
  }
  convolution_param {
    num_output: 728
    bias_term: false
    pad: 1
    kernel_size: 3
    group: 728
    stride: 1
    weight_filler {
      type: "gaussian"
      std: 0.00999999977648
    }
  }
}
layer {
  name: "xception6_conv1_2"
  type: "Convolution"
  bottom: "xception6_conv1_1"
  top: "xception6_conv1_2"
  param {
    lr_mult: 1.0
    decay_mult: 1.0
  }
  convolution_param {
    num_output: 728
    bias_term: false
    pad: 0
    kernel_size: 1
    stride: 1
    weight_filler {
      type: "gaussian"
      std: 0.00999999977648
    }
  }
}
layer {
  name: "xception6_conv1_bn"
  type: "BatchNorm"
  bottom: "xception6_conv1_2"
  top: "xception6_conv1_2"
}
layer {
  name: "xception6_conv1_scale"
  type: "Scale"
  bottom: "xception6_conv1_2"
  top: "xception6_conv1_2"
  scale_param {
    bias_term: true
  }
}
layer {
  name: "xception6_conv1_relu"
  type: "ReLU"
  bottom: "xception6_conv1_2"
  top: "xception6_conv1_2"
}
layer {
  name: "xception6_conv2_1"
  type: "ConvolutionDepthwise"
  bottom: "xception6_conv1_2"
  top: "xception6_conv2_1"
  param {
    lr_mult: 1.0
    decay_mult: 1.0
  }
  convolution_param {
    num_output: 728
    bias_term: false
    pad: 1
    kernel_size: 3
    group: 728
    stride: 1
    weight_filler {
      type: "gaussian"
      std: 0.00999999977648
    }
  }
}
layer {
  name: "xception6_conv2_2"
  type: "Convolution"
  bottom: "xception6_conv2_1"
  top: "xception6_conv2_2"
  param {
    lr_mult: 1.0
    decay_mult: 1.0
  }
  convolution_param {
    num_output: 728
    bias_term: false
    pad: 0
    kernel_size: 1
    stride: 1
    weight_filler {
      type: "gaussian"
      std: 0.00999999977648
    }
  }
}
layer {
  name: "xception6_conv2_bn"
  type: "BatchNorm"
  bottom: "xception6_conv2_2"
  top: "xception6_conv2_2"
}
layer {
  name: "xception6_conv2_scale"
  type: "Scale"
  bottom: "xception6_conv2_2"
  top: "xception6_conv2_2"
  scale_param {
    bias_term: true
  }
}
layer {
  name: "xception6_conv2_relu"
  type: "ReLU"
  bottom: "xception6_conv2_2"
  top: "xception6_conv2_2"
}
layer {
  name: "xception6_conv3_1"
  type: "ConvolutionDepthwise"
  bottom: "xception6_conv2_2"
  top: "xception6_conv3_1"
  param {
    lr_mult: 1.0
    decay_mult: 1.0
  }
  convolution_param {
    num_output: 728
    bias_term: false
    pad: 1
    kernel_size: 3
    group: 728
    stride: 1
    weight_filler {
      type: "gaussian"
      std: 0.00999999977648
    }
  }
}
layer {
  name: "xception6_conv3_2"
  type: "Convolution"
  bottom: "xception6_conv3_1"
  top: "xception6_conv3_2"
  param {
    lr_mult: 1.0
    decay_mult: 1.0
  }
  convolution_param {
    num_output: 728
    bias_term: false
    pad: 0
    kernel_size: 1
    stride: 1
    weight_filler {
      type: "gaussian"
      std: 0.00999999977648
    }
  }
}
layer {
  name: "xception6_conv3_bn"
  type: "BatchNorm"
  bottom: "xception6_conv3_2"
  top: "xception6_conv3_2"
}
layer {
  name: "xception6_conv3_scale"
  type: "Scale"
  bottom: "xception6_conv3_2"
  top: "xception6_conv3_2"
  scale_param {
    bias_term: true
  }
}
layer {
  name: "xception6_elewise"
  type: "Eltwise"
  bottom: "xception5_elewise"
  bottom: "xception6_conv3_2"
  top: "xception6_elewise"
}
layer {
  name: "xception7_relu"
  type: "ReLU"
  bottom: "xception6_elewise"
  top: "xception7_relu"
}
layer {
  name: "xception7_conv1_1"
  type: "ConvolutionDepthwise"
  bottom: "xception7_relu"
  top: "xception7_conv1_1"
  param {
    lr_mult: 1.0
    decay_mult: 1.0
  }
  convolution_param {
    num_output: 728
    bias_term: false
    pad: 1
    kernel_size: 3
    group: 728
    stride: 1
    weight_filler {
      type: "gaussian"
      std: 0.00999999977648
    }
  }
}
layer {
  name: "xception7_conv1_2"
  type: "Convolution"
  bottom: "xception7_conv1_1"
  top: "xception7_conv1_2"
  param {
    lr_mult: 1.0
    decay_mult: 1.0
  }
  convolution_param {
    num_output: 728
    bias_term: false
    pad: 0
    kernel_size: 1
    stride: 1
    weight_filler {
      type: "gaussian"
      std: 0.00999999977648
    }
  }
}
layer {
  name: "xception7_conv1_bn"
  type: "BatchNorm"
  bottom: "xception7_conv1_2"
  top: "xception7_conv1_2"
}
layer {
  name: "xception7_conv1_scale"
  type: "Scale"
  bottom: "xception7_conv1_2"
  top: "xception7_conv1_2"
  scale_param {
    bias_term: true
  }
}
layer {
  name: "xception7_conv1_relu"
  type: "ReLU"
  bottom: "xception7_conv1_2"
  top: "xception7_conv1_2"
}
layer {
  name: "xception7_conv2_1"
  type: "ConvolutionDepthwise"
  bottom: "xception7_conv1_2"
  top: "xception7_conv2_1"
  param {
    lr_mult: 1.0
    decay_mult: 1.0
  }
  convolution_param {
    num_output: 728
    bias_term: false
    pad: 1
    kernel_size: 3
    group: 728
    stride: 1
    weight_filler {
      type: "gaussian"
      std: 0.00999999977648
    }
  }
}
layer {
  name: "xception7_conv2_2"
  type: "Convolution"
  bottom: "xception7_conv2_1"
  top: "xception7_conv2_2"
  param {
    lr_mult: 1.0
    decay_mult: 1.0
  }
  convolution_param {
    num_output: 728
    bias_term: false
    pad: 0
    kernel_size: 1
    stride: 1
    weight_filler {
      type: "gaussian"
      std: 0.00999999977648
    }
  }
}
layer {
  name: "xception7_conv2_bn"
  type: "BatchNorm"
  bottom: "xception7_conv2_2"
  top: "xception7_conv2_2"
}
layer {
  name: "xception7_conv2_scale"
  type: "Scale"
  bottom: "xception7_conv2_2"
  top: "xception7_conv2_2"
  scale_param {
    bias_term: true
  }
}
layer {
  name: "xception7_conv2_relu"
  type: "ReLU"
  bottom: "xception7_conv2_2"
  top: "xception7_conv2_2"
}
layer {
  name: "xception7_conv3_1"
  type: "ConvolutionDepthwise"
  bottom: "xception7_conv2_2"
  top: "xception7_conv3_1"
  param {
    lr_mult: 1.0
    decay_mult: 1.0
  }
  convolution_param {
    num_output: 728
    bias_term: false
    pad: 1
    kernel_size: 3
    group: 728
    stride: 1
    weight_filler {
      type: "gaussian"
      std: 0.00999999977648
    }
  }
}
layer {
  name: "xception7_conv3_2"
  type: "Convolution"
  bottom: "xception7_conv3_1"
  top: "xception7_conv3_2"
  param {
    lr_mult: 1.0
    decay_mult: 1.0
  }
  convolution_param {
    num_output: 728
    bias_term: false
    pad: 0
    kernel_size: 1
    stride: 1
    weight_filler {
      type: "gaussian"
      std: 0.00999999977648
    }
  }
}
layer {
  name: "xception7_conv3_bn"
  type: "BatchNorm"
  bottom: "xception7_conv3_2"
  top: "xception7_conv3_2"
}
layer {
  name: "xception7_conv3_scale"
  type: "Scale"
  bottom: "xception7_conv3_2"
  top: "xception7_conv3_2"
  scale_param {
    bias_term: true
  }
}
layer {
  name: "xception7_elewise"
  type: "Eltwise"
  bottom: "xception6_elewise"
  bottom: "xception7_conv3_2"
  top: "xception7_elewise"
}
layer {
  name: "xception8_relu"
  type: "ReLU"
  bottom: "xception7_elewise"
  top: "xception8_relu"
}
layer {
  name: "xception8_conv1_1"
  type: "ConvolutionDepthwise"
  bottom: "xception8_relu"
  top: "xception8_conv1_1"
  param {
    lr_mult: 1.0
    decay_mult: 1.0
  }
  convolution_param {
    num_output: 728
    bias_term: false
    pad: 1
    kernel_size: 3
    group: 728
    stride: 1
    weight_filler {
      type: "gaussian"
      std: 0.00999999977648
    }
  }
}
layer {
  name: "xception8_conv1_2"
  type: "Convolution"
  bottom: "xception8_conv1_1"
  top: "xception8_conv1_2"
  param {
    lr_mult: 1.0
    decay_mult: 1.0
  }
  convolution_param {
    num_output: 728
    bias_term: false
    pad: 0
    kernel_size: 1
    stride: 1
    weight_filler {
      type: "gaussian"
      std: 0.00999999977648
    }
  }
}
layer {
  name: "xception8_conv1_bn"
  type: "BatchNorm"
  bottom: "xception8_conv1_2"
  top: "xception8_conv1_2"
}
layer {
  name: "xception8_conv1_scale"
  type: "Scale"
  bottom: "xception8_conv1_2"
  top: "xception8_conv1_2"
  scale_param {
    bias_term: true
  }
}
layer {
  name: "xception8_conv1_relu"
  type: "ReLU"
  bottom: "xception8_conv1_2"
  top: "xception8_conv1_2"
}
layer {
  name: "xception8_conv2_1"
  type: "ConvolutionDepthwise"
  bottom: "xception8_conv1_2"
  top: "xception8_conv2_1"
  param {
    lr_mult: 1.0
    decay_mult: 1.0
  }
  convolution_param {
    num_output: 728
    bias_term: false
    pad: 1
    kernel_size: 3
    group: 728
    stride: 1
    weight_filler {
      type: "gaussian"
      std: 0.00999999977648
    }
  }
}
layer {
  name: "xception8_conv2_2"
  type: "Convolution"
  bottom: "xception8_conv2_1"
  top: "xception8_conv2_2"
  param {
    lr_mult: 1.0
    decay_mult: 1.0
  }
  convolution_param {
    num_output: 728
    bias_term: false
    pad: 0
    kernel_size: 1
    stride: 1
    weight_filler {
      type: "gaussian"
      std: 0.00999999977648
    }
  }
}
layer {
  name: "xception8_conv2_bn"
  type: "BatchNorm"
  bottom: "xception8_conv2_2"
  top: "xception8_conv2_2"
}
layer {
  name: "xception8_conv2_scale"
  type: "Scale"
  bottom: "xception8_conv2_2"
  top: "xception8_conv2_2"
  scale_param {
    bias_term: true
  }
}
layer {
  name: "xception8_conv2_relu"
  type: "ReLU"
  bottom: "xception8_conv2_2"
  top: "xception8_conv2_2"
}
layer {
  name: "xception8_conv3_1"
  type: "ConvolutionDepthwise"
  bottom: "xception8_conv2_2"
  top: "xception8_conv3_1"
  param {
    lr_mult: 1.0
    decay_mult: 1.0
  }
  convolution_param {
    num_output: 728
    bias_term: false
    pad: 1
    kernel_size: 3
    group: 728
    stride: 1
    weight_filler {
      type: "gaussian"
      std: 0.00999999977648
    }
  }
}
layer {
  name: "xception8_conv3_2"
  type: "Convolution"
  bottom: "xception8_conv3_1"
  top: "xception8_conv3_2"
  param {
    lr_mult: 1.0
    decay_mult: 1.0
  }
  convolution_param {
    num_output: 728
    bias_term: false
    pad: 0
    kernel_size: 1
    stride: 1
    weight_filler {
      type: "gaussian"
      std: 0.00999999977648
    }
  }
}
layer {
  name: "xception8_conv3_bn"
  type: "BatchNorm"
  bottom: "xception8_conv3_2"
  top: "xception8_conv3_2"
}
layer {
  name: "xception8_conv3_scale"
  type: "Scale"
  bottom: "xception8_conv3_2"
  top: "xception8_conv3_2"
  scale_param {
    bias_term: true
  }
}
layer {
  name: "xception8_elewise"
  type: "Eltwise"
  bottom: "xception7_elewise"
  bottom: "xception8_conv3_2"
  top: "xception8_elewise"
}
layer {
  name: "xception9_relu"
  type: "ReLU"
  bottom: "xception8_elewise"
  top: "xception9_relu"
}
layer {
  name: "xception9_conv1_1"
  type: "ConvolutionDepthwise"
  bottom: "xception9_relu"
  top: "xception9_conv1_1"
  param {
    lr_mult: 1.0
    decay_mult: 1.0
  }
  convolution_param {
    num_output: 728
    bias_term: false
    pad: 1
    kernel_size: 3
    group: 728
    stride: 1
    weight_filler {
      type: "gaussian"
      std: 0.00999999977648
    }
  }
}
layer {
  name: "xception9_conv1_2"
  type: "Convolution"
  bottom: "xception9_conv1_1"
  top: "xception9_conv1_2"
  param {
    lr_mult: 1.0
    decay_mult: 1.0
  }
  convolution_param {
    num_output: 728
    bias_term: false
    pad: 0
    kernel_size: 1
    stride: 1
    weight_filler {
      type: "gaussian"
      std: 0.00999999977648
    }
  }
}
layer {
  name: "xception9_conv1_bn"
  type: "BatchNorm"
  bottom: "xception9_conv1_2"
  top: "xception9_conv1_2"
}
layer {
  name: "xception9_conv1_scale"
  type: "Scale"
  bottom: "xception9_conv1_2"
  top: "xception9_conv1_2"
  scale_param {
    bias_term: true
  }
}
layer {
  name: "xception9_conv1_relu"
  type: "ReLU"
  bottom: "xception9_conv1_2"
  top: "xception9_conv1_2"
}
layer {
  name: "xception9_conv2_1"
  type: "ConvolutionDepthwise"
  bottom: "xception9_conv1_2"
  top: "xception9_conv2_1"
  param {
    lr_mult: 1.0
    decay_mult: 1.0
  }
  convolution_param {
    num_output: 728
    bias_term: false
    pad: 1
    kernel_size: 3
    group: 728
    stride: 1
    weight_filler {
      type: "gaussian"
      std: 0.00999999977648
    }
  }
}
layer {
  name: "xception9_conv2_2"
  type: "Convolution"
  bottom: "xception9_conv2_1"
  top: "xception9_conv2_2"
  param {
    lr_mult: 1.0
    decay_mult: 1.0
  }
  convolution_param {
    num_output: 728
    bias_term: false
    pad: 0
    kernel_size: 1
    stride: 1
    weight_filler {
      type: "gaussian"
      std: 0.00999999977648
    }
  }
}
layer {
  name: "xception9_conv2_bn"
  type: "BatchNorm"
  bottom: "xception9_conv2_2"
  top: "xception9_conv2_2"
}
layer {
  name: "xception9_conv2_scale"
  type: "Scale"
  bottom: "xception9_conv2_2"
  top: "xception9_conv2_2"
  scale_param {
    bias_term: true
  }
}
layer {
  name: "xception9_conv2_relu"
  type: "ReLU"
  bottom: "xception9_conv2_2"
  top: "xception9_conv2_2"
}
layer {
  name: "xception9_conv3_1"
  type: "ConvolutionDepthwise"
  bottom: "xception9_conv2_2"
  top: "xception9_conv3_1"
  param {
    lr_mult: 1.0
    decay_mult: 1.0
  }
  convolution_param {
    num_output: 728
    bias_term: false
    pad: 1
    kernel_size: 3
    group: 728
    stride: 1
    weight_filler {
      type: "gaussian"
      std: 0.00999999977648
    }
  }
}
layer {
  name: "xception9_conv3_2"
  type: "Convolution"
  bottom: "xception9_conv3_1"
  top: "xception9_conv3_2"
  param {
    lr_mult: 1.0
    decay_mult: 1.0
  }
  convolution_param {
    num_output: 728
    bias_term: false
    pad: 0
    kernel_size: 1
    stride: 1
    weight_filler {
      type: "gaussian"
      std: 0.00999999977648
    }
  }
}
layer {
  name: "xception9_conv3_bn"
  type: "BatchNorm"
  bottom: "xception9_conv3_2"
  top: "xception9_conv3_2"
}
layer {
  name: "xception9_conv3_scale"
  type: "Scale"
  bottom: "xception9_conv3_2"
  top: "xception9_conv3_2"
  scale_param {
    bias_term: true
  }
}
layer {
  name: "xception9_elewise"
  type: "Eltwise"
  bottom: "xception8_elewise"
  bottom: "xception9_conv3_2"
  top: "xception9_elewise"
}
layer {
  name: "xception10_relu"
  type: "ReLU"
  bottom: "xception9_elewise"
  top: "xception10_relu"
}
layer {
  name: "xception10_conv1_1"
  type: "ConvolutionDepthwise"
  bottom: "xception10_relu"
  top: "xception10_conv1_1"
  param {
    lr_mult: 1.0
    decay_mult: 1.0
  }
  convolution_param {
    num_output: 728
    bias_term: false
    pad: 1
    kernel_size: 3
    group: 728
    stride: 1
    weight_filler {
      type: "gaussian"
      std: 0.00999999977648
    }
  }
}
layer {
  name: "xception10_conv1_2"
  type: "Convolution"
  bottom: "xception10_conv1_1"
  top: "xception10_conv1_2"
  param {
    lr_mult: 1.0
    decay_mult: 1.0
  }
  convolution_param {
    num_output: 728
    bias_term: false
    pad: 0
    kernel_size: 1
    stride: 1
    weight_filler {
      type: "gaussian"
      std: 0.00999999977648
    }
  }
}
layer {
  name: "xception10_conv1_bn"
  type: "BatchNorm"
  bottom: "xception10_conv1_2"
  top: "xception10_conv1_2"
}
layer {
  name: "xception10_conv1_scale"
  type: "Scale"
  bottom: "xception10_conv1_2"
  top: "xception10_conv1_2"
  scale_param {
    bias_term: true
  }
}
layer {
  name: "xception10_conv1_relu"
  type: "ReLU"
  bottom: "xception10_conv1_2"
  top: "xception10_conv1_2"
}
layer {
  name: "xception10_conv2_1"
  type: "ConvolutionDepthwise"
  bottom: "xception10_conv1_2"
  top: "xception10_conv2_1"
  param {
    lr_mult: 1.0
    decay_mult: 1.0
  }
  convolution_param {
    num_output: 728
    bias_term: false
    pad: 1
    kernel_size: 3
    group: 728
    stride: 1
    weight_filler {
      type: "gaussian"
      std: 0.00999999977648
    }
  }
}
layer {
  name: "xception10_conv2_2"
  type: "Convolution"
  bottom: "xception10_conv2_1"
  top: "xception10_conv2_2"
  param {
    lr_mult: 1.0
    decay_mult: 1.0
  }
  convolution_param {
    num_output: 728
    bias_term: false
    pad: 0
    kernel_size: 1
    stride: 1
    weight_filler {
      type: "gaussian"
      std: 0.00999999977648
    }
  }
}
layer {
  name: "xception10_conv2_bn"
  type: "BatchNorm"
  bottom: "xception10_conv2_2"
  top: "xception10_conv2_2"
}
layer {
  name: "xception10_conv2_scale"
  type: "Scale"
  bottom: "xception10_conv2_2"
  top: "xception10_conv2_2"
  scale_param {
    bias_term: true
  }
}
layer {
  name: "xception10_conv2_relu"
  type: "ReLU"
  bottom: "xception10_conv2_2"
  top: "xception10_conv2_2"
}
layer {
  name: "xception10_conv3_1"
  type: "ConvolutionDepthwise"
  bottom: "xception10_conv2_2"
  top: "xception10_conv3_1"
  param {
    lr_mult: 1.0
    decay_mult: 1.0
  }
  convolution_param {
    num_output: 728
    bias_term: false
    pad: 1
    kernel_size: 3
    group: 728
    stride: 1
    weight_filler {
      type: "gaussian"
      std: 0.00999999977648
    }
  }
}
layer {
  name: "xception10_conv3_2"
  type: "Convolution"
  bottom: "xception10_conv3_1"
  top: "xception10_conv3_2"
  param {
    lr_mult: 1.0
    decay_mult: 1.0
  }
  convolution_param {
    num_output: 728
    bias_term: false
    pad: 0
    kernel_size: 1
    stride: 1
    weight_filler {
      type: "gaussian"
      std: 0.00999999977648
    }
  }
}
layer {
  name: "xception10_conv3_bn"
  type: "BatchNorm"
  bottom: "xception10_conv3_2"
  top: "xception10_conv3_2"
}
layer {
  name: "xception10_conv3_scale"
  type: "Scale"
  bottom: "xception10_conv3_2"
  top: "xception10_conv3_2"
  scale_param {
    bias_term: true
  }
}
layer {
  name: "xception10_elewise"
  type: "Eltwise"
  bottom: "xception9_elewise"
  bottom: "xception10_conv3_2"
  top: "xception10_elewise"
}
layer {
  name: "xception11_relu"
  type: "ReLU"
  bottom: "xception10_elewise"
  top: "xception11_relu"
}
layer {
  name: "xception11_conv1_1"
  type: "ConvolutionDepthwise"
  bottom: "xception11_relu"
  top: "xception11_conv1_1"
  param {
    lr_mult: 1.0
    decay_mult: 1.0
  }
  convolution_param {
    num_output: 728
    bias_term: false
    pad: 1
    kernel_size: 3
    group: 728
    stride: 1
    weight_filler {
      type: "gaussian"
      std: 0.00999999977648
    }
  }
}
layer {
  name: "xception11_conv1_2"
  type: "Convolution"
  bottom: "xception11_conv1_1"
  top: "xception11_conv1_2"
  param {
    lr_mult: 1.0
    decay_mult: 1.0
  }
  convolution_param {
    num_output: 728
    bias_term: false
    pad: 0
    kernel_size: 1
    stride: 1
    weight_filler {
      type: "gaussian"
      std: 0.00999999977648
    }
  }
}
layer {
  name: "xception11_conv1_bn"
  type: "BatchNorm"
  bottom: "xception11_conv1_2"
  top: "xception11_conv1_2"
}
layer {
  name: "xception11_conv1_scale"
  type: "Scale"
  bottom: "xception11_conv1_2"
  top: "xception11_conv1_2"
  scale_param {
    bias_term: true
  }
}
layer {
  name: "xception11_conv1_relu"
  type: "ReLU"
  bottom: "xception11_conv1_2"
  top: "xception11_conv1_2"
}
layer {
  name: "xception11_conv2_1"
  type: "ConvolutionDepthwise"
  bottom: "xception11_conv1_2"
  top: "xception11_conv2_1"
  param {
    lr_mult: 1.0
    decay_mult: 1.0
  }
  convolution_param {
    num_output: 728
    bias_term: false
    pad: 1
    kernel_size: 3
    group: 728
    stride: 1
    weight_filler {
      type: "gaussian"
      std: 0.00999999977648
    }
  }
}
layer {
  name: "xception11_conv2_2"
  type: "Convolution"
  bottom: "xception11_conv2_1"
  top: "xception11_conv2_2"
  param {
    lr_mult: 1.0
    decay_mult: 1.0
  }
  convolution_param {
    num_output: 728
    bias_term: false
    pad: 0
    kernel_size: 1
    stride: 1
    weight_filler {
      type: "gaussian"
      std: 0.00999999977648
    }
  }
}
layer {
  name: "xception11_conv2_bn"
  type: "BatchNorm"
  bottom: "xception11_conv2_2"
  top: "xception11_conv2_2"
}
layer {
  name: "xception11_conv2_scale"
  type: "Scale"
  bottom: "xception11_conv2_2"
  top: "xception11_conv2_2"
  scale_param {
    bias_term: true
  }
}
layer {
  name: "xception11_conv2_relu"
  type: "ReLU"
  bottom: "xception11_conv2_2"
  top: "xception11_conv2_2"
}
layer {
  name: "xception11_conv3_1"
  type: "ConvolutionDepthwise"
  bottom: "xception11_conv2_2"
  top: "xception11_conv3_1"
  param {
    lr_mult: 1.0
    decay_mult: 1.0
  }
  convolution_param {
    num_output: 728
    bias_term: false
    pad: 1
    kernel_size: 3
    group: 728
    stride: 1
    weight_filler {
      type: "gaussian"
      std: 0.00999999977648
    }
  }
}
layer {
  name: "xception11_conv3_2"
  type: "Convolution"
  bottom: "xception11_conv3_1"
  top: "xception11_conv3_2"
  param {
    lr_mult: 1.0
    decay_mult: 1.0
  }
  convolution_param {
    num_output: 728
    bias_term: false
    pad: 0
    kernel_size: 1
    stride: 1
    weight_filler {
      type: "gaussian"
      std: 0.00999999977648
    }
  }
}
layer {
  name: "xception11_conv3_bn"
  type: "BatchNorm"
  bottom: "xception11_conv3_2"
  top: "xception11_conv3_2"
}
layer {
  name: "xception11_conv3_scale"
  type: "Scale"
  bottom: "xception11_conv3_2"
  top: "xception11_conv3_2"
  scale_param {
    bias_term: true
  }
}
layer {
  name: "xception11_elewise"
  type: "Eltwise"
  bottom: "xception10_elewise"
  bottom: "xception11_conv3_2"
  top: "xception11_elewise"
}
layer {
  name: "xception12_match_conv"
  type: "Convolution"
  bottom: "xception11_elewise"
  top: "xception12_match_conv"
  param {
    lr_mult: 1.0
    decay_mult: 1.0
  }
  convolution_param {
    num_output: 1024
    bias_term: false
    pad: 0
    kernel_size: 1
    stride: 2
    weight_filler {
      type: "gaussian"
      std: 0.00999999977648
    }
  }
}
layer {
  name: "xception12_match_conv_bn"
  type: "BatchNorm"
  bottom: "xception12_match_conv"
  top: "xception12_match_conv"
}
layer {
  name: "xception12_match_conv_scale"
  type: "Scale"
  bottom: "xception12_match_conv"
  top: "xception12_match_conv"
  scale_param {
    bias_term: true
  }
}
layer {
  name: "xception12_relu"
  type: "ReLU"
  bottom: "xception11_elewise"
  top: "xception12_relu"
}
layer {
  name: "xception12_conv1_1"
  type: "ConvolutionDepthwise"
  bottom: "xception12_relu"
  top: "xception12_conv1_1"
  param {
    lr_mult: 1.0
    decay_mult: 1.0
  }
  convolution_param {
    num_output: 728
    bias_term: false
    pad: 1
    kernel_size: 3
    group: 728
    stride: 1
    weight_filler {
      type: "gaussian"
      std: 0.00999999977648
    }
  }
}
layer {
  name: "xception12_conv1_2"
  type: "Convolution"
  bottom: "xception12_conv1_1"
  top: "xception12_conv1_2"
  param {
    lr_mult: 1.0
    decay_mult: 1.0
  }
  convolution_param {
    num_output: 728
    bias_term: false
    pad: 0
    kernel_size: 1
    stride: 1
    weight_filler {
      type: "gaussian"
      std: 0.00999999977648
    }
  }
}
layer {
  name: "xception12_conv1_bn"
  type: "BatchNorm"
  bottom: "xception12_conv1_2"
  top: "xception12_conv1_2"
}
layer {
  name: "xception12_conv1_scale"
  type: "Scale"
  bottom: "xception12_conv1_2"
  top: "xception12_conv1_2"
  scale_param {
    bias_term: true
  }
}
layer {
  name: "xception12_conv1_relu"
  type: "ReLU"
  bottom: "xception12_conv1_2"
  top: "xception12_conv1_2"
}
layer {
  name: "xception12_conv2_1"
  type: "ConvolutionDepthwise"
  bottom: "xception12_conv1_2"
  top: "xception12_conv2_1"
  param {
    lr_mult: 1.0
    decay_mult: 1.0
  }
  convolution_param {
    num_output: 728
    bias_term: false
    pad: 1
    kernel_size: 3
    group: 728
    stride: 1
    weight_filler {
      type: "gaussian"
      std: 0.00999999977648
    }
  }
}
layer {
  name: "xception12_conv2_2"
  type: "Convolution"
  bottom: "xception12_conv2_1"
  top: "xception12_conv2_2"
  param {
    lr_mult: 1.0
    decay_mult: 1.0
  }
  convolution_param {
    num_output: 1024
    bias_term: false
    pad: 0
    kernel_size: 1
    stride: 1
    weight_filler {
      type: "gaussian"
      std: 0.00999999977648
    }
  }
}
layer {
  name: "xception12_conv2_bn"
  type: "BatchNorm"
  bottom: "xception12_conv2_2"
  top: "xception12_conv2_2"
}
layer {
  name: "xception12_conv2_scale"
  type: "Scale"
  bottom: "xception12_conv2_2"
  top: "xception12_conv2_2"
  scale_param {
    bias_term: true
  }
}
layer {
  name: "xception12_pool"
  type: "Pooling"
  bottom: "xception12_conv2_2"
  top: "xception12_pool"
  pooling_param {
    pool: MAX
    kernel_size: 3
    stride: 2
    pad: 0
  }
}
layer {
  name: "xception12_elewise"
  type: "Eltwise"
  bottom: "xception12_match_conv"
  bottom: "xception12_pool"
  top: "xception12_elewise"
}
layer {
  name: "conv3_1"
  type: "ConvolutionDepthwise"
  bottom: "xception12_elewise"
  top: "conv3_1"
  param {
    lr_mult: 1.0
    decay_mult: 1.0
  }
  convolution_param {
    num_output: 1024
    bias_term: false
    pad: 1
    kernel_size: 3
    group: 1024
    stride: 1
    weight_filler {
      type: "gaussian"
      std: 0.00999999977648
    }
  }
}
layer {
  name: "conv3_2"
  type: "Convolution"
  bottom: "conv3_1"
  top: "conv3_2"
  param {
    lr_mult: 1.0
    decay_mult: 1.0
  }
  convolution_param {
    num_output: 1536
    bias_term: false
    pad: 0
    kernel_size: 1
    stride: 1
    weight_filler {
      type: "gaussian"
      std: 0.00999999977648
    }
  }
}
layer {
  name: "conv3_bn"
  type: "BatchNorm"
  bottom: "conv3_2"
  top: "conv3_2"
}
layer {
  name: "conv3_scale"
  type: "Scale"
  bottom: "conv3_2"
  top: "conv3_2"
  scale_param {
    bias_term: true
  }
}
layer {
  name: "conv3_relu"
  type: "ReLU"
  bottom: "conv3_2"
  top: "conv3_2"
}
layer {
  name: "conv4_1"
  type: "ConvolutionDepthwise"
  bottom: "conv3_2"
  top: "conv4_1"
  param {
    lr_mult: 1.0
    decay_mult: 1.0
  }
  convolution_param {
    num_output: 1536
    bias_term: false
    pad: 1
    kernel_size: 3
    group: 1536
    stride: 1
    weight_filler {
      type: "gaussian"
      std: 0.00999999977648
    }
  }
}
layer {
  name: "conv4_2"
  type: "Convolution"
  bottom: "conv4_1"
  top: "conv4_2"
  param {
    lr_mult: 1.0
    decay_mult: 1.0
  }
  convolution_param {
    num_output: 2048
    bias_term: false
    pad: 0
    kernel_size: 1
    stride: 1
    weight_filler {
      type: "gaussian"
      std: 0.00999999977648
    }
  }
}
layer {
  name: "conv4_bn"
  type: "BatchNorm"
  bottom: "conv4_2"
  top: "conv4_2"
}
layer {
  name: "conv4_scale"
  type: "Scale"
  bottom: "conv4_2"
  top: "conv4_2"
  scale_param {
    bias_term: true
  }
}
layer {
  name: "conv4_relu"
  type: "ReLU"
  bottom: "conv4_2"
  top: "conv4_2"
}
layer {
  name: "xception13_match_conv"
  type: "Convolution"
  bottom: "conv4_2"
  top: "xception13_match_conv"
  param {
    lr_mult: 1.0
    decay_mult: 1.0
  }
  convolution_param {
    num_output: 256
    bias_term: false
    pad: 0
    kernel_size: 1
    stride: 2
    weight_filler {
      type: "gaussian"
      std: 0.00999999977648
    }
  }
}
layer {
  name: "xception13_match_conv_bn"
  type: "BatchNorm"
  bottom: "xception13_match_conv"
  top: "xception13_match_conv"
}
layer {
  name: "xception13_match_conv_scale"
  type: "Scale"
  bottom: "xception13_match_conv"
  top: "xception13_match_conv"
  scale_param {
    bias_term: true
  }
}
layer {
  name: "xception13_relu"
  type: "ReLU"
  bottom: "conv4_2"
  top: "xception13_relu"
}
layer {
  name: "xception13_conv1_1"
  type: "ConvolutionDepthwise"
  bottom: "xception13_relu"
  top: "xception13_conv1_1"
  param {
    lr_mult: 1.0
    decay_mult: 1.0
  }
  convolution_param {
    num_output: 256
    bias_term: false
    pad: 1
    kernel_size: 3
    group: 256
    stride: 1
    weight_filler {
      type: "gaussian"
      std: 0.00999999977648
    }
  }
}
layer {
  name: "xception13_conv1_2"
  type: "Convolution"
  bottom: "xception13_conv1_1"
  top: "xception13_conv1_2"
  param {
    lr_mult: 1.0
    decay_mult: 1.0
  }
  convolution_param {
    num_output: 256
    bias_term: false
    pad: 0
    kernel_size: 1
    stride: 1
    weight_filler {
      type: "gaussian"
      std: 0.00999999977648
    }
  }
}
layer {
  name: "xception13_conv1_2_bn"
  type: "BatchNorm"
  bottom: "xception13_conv1_2"
  top: "xception13_conv1_2"
}
layer {
  name: "xception13_conv1_2_scale"
  type: "Scale"
  bottom: "xception13_conv1_2"
  top: "xception13_conv1_2"
  scale_param {
    bias_term: true
  }
}
layer {
  name: "xception13_conv1_2_relu"
  type: "ReLU"
  bottom: "xception13_conv1_2"
  top: "xception13_conv1_2"
}
layer {
  name: "xception13_conv2_1"
  type: "ConvolutionDepthwise"
  bottom: "xception13_conv1_2"
  top: "xception13_conv2_1"
  param {
    lr_mult: 1.0
    decay_mult: 1.0
  }
  convolution_param {
    num_output: 256
    bias_term: false
    pad: 1
    kernel_size: 3
    group: 256
    stride: 1
    weight_filler {
      type: "gaussian"
      std: 0.00999999977648
    }
  }
}
layer {
  name: "xception13_conv2_2"
  type: "Convolution"
  bottom: "xception13_conv2_1"
  top: "xception13_conv2_2"
  param {
    lr_mult: 1.0
    decay_mult: 1.0
  }
  convolution_param {
    num_output: 256
    bias_term: false
    pad: 0
    kernel_size: 1
    stride: 1
    weight_filler {
      type: "gaussian"
      std: 0.00999999977648
    }
  }
}
layer {
  name: "xception13_conv2_2_bn"
  type: "BatchNorm"
  bottom: "xception13_conv2_2"
  top: "xception13_conv2_2"
}
layer {
  name: "xception13_conv2_2_scale"
  type: "Scale"
  bottom: "xception13_conv2_2"
  top: "xception13_conv2_2"
  scale_param {
    bias_term: true
  }
}
layer {
  name: "xception13_pool"
  type: "Pooling"
  bottom: "xception13_conv2_2"
  top: "xception13_pool"
  pooling_param {
    pool: MAX
    kernel_size: 3
    stride: 2
    pad: 0
  }
}
layer {
  name: "xception13_elewise"
  type: "Eltwise"
  bottom: "xception13_match_conv"
  bottom: "xception13_pool"
  top: "xception13_elewise"
}
layer {
  name: "TL6_1"
  type: "Convolution"
  bottom: "xception13_elewise"
  top: "TL6_1"
  param {
    lr_mult: 1.0
    decay_mult: 1.0
  }
  convolution_param {
    num_output: 128
    bias_term: false
    pad: 1
    kernel_size: 3
    stride: 1
    weight_filler {
      type: "gaussian"
      std: 0.00999999977648
    }
  }
}
layer {
  name: "TL6_1_bn"
  type: "BatchNorm"
  bottom: "TL6_1"
  top: "TL6_1"
}
layer {
  name: "TL6_1_scale"
  type: "Scale"
  bottom: "TL6_1"
  top: "TL6_1"
  scale_param {
    bias_term: true
  }
}
layer {
  name: "TL6_1_relu"
  type: "ReLU"
  bottom: "TL6_1"
  top: "TL6_1"
}
layer {
  name: "TL6_2"
  type: "Convolution"
  bottom: "TL6_1"
  top: "TL6_2"
  param {
    lr_mult: 1.0
    decay_mult: 1.0
  }
  convolution_param {
    num_output: 128
    bias_term: false
    pad: 1
    kernel_size: 3
    stride: 1
    weight_filler {
      type: "gaussian"
      std: 0.00999999977648
    }
  }
}
layer {
  name: "TL6_2_bn"
  type: "BatchNorm"
  bottom: "TL6_2"
  top: "TL6_2"
}
layer {
  name: "TL6_2_scale"
  type: "Scale"
  bottom: "TL6_2"
  top: "TL6_2"
  scale_param {
    bias_term: true
  }
}
layer {
  name: "TL6_2_relu"
  type: "ReLU"
  bottom: "TL6_2"
  top: "TL6_2"
}
layer {
  name: "P6"
  type: "Convolution"
  bottom: "TL6_2"
  top: "P6"
  param {
    lr_mult: 1.0
    decay_mult: 1.0
  }
  convolution_param {
    num_output: 128
    bias_term: false
    pad: 1
    kernel_size: 3
    stride: 1
    weight_filler {
      type: "gaussian"
      std: 0.00999999977648
    }
  }
}
layer {
  name: "P6_bn"
  type: "BatchNorm"
  bottom: "P6"
  top: "P6"
}
layer {
  name: "P6_scale"
  type: "Scale"
  bottom: "P6"
  top: "P6"
  scale_param {
    bias_term: true
  }
}
layer {
  name: "P6_relu"
  type: "ReLU"
  bottom: "P6"
  top: "P6"
}
layer {
  name: "TL5_1"
  type: "Convolution"
  bottom: "conv4_2"
  top: "TL5_1"
  param {
    lr_mult: 1.0
    decay_mult: 1.0
  }
  convolution_param {
    num_output: 128
    bias_term: false
    pad: 1
    kernel_size: 3
    stride: 1
    weight_filler {
      type: "gaussian"
      std: 0.00999999977648
    }
  }
}
layer {
  name: "TL5_1_bn"
  type: "BatchNorm"
  bottom: "TL5_1"
  top: "TL5_1"
}
layer {
  name: "TL5_1_scale"
  type: "Scale"
  bottom: "TL5_1"
  top: "TL5_1"
  scale_param {
    bias_term: true
  }
}
layer {
  name: "TL5_1_relu"
  type: "ReLU"
  bottom: "TL5_1"
  top: "TL5_1"
}
layer {
  name: "TL5_2"
  type: "Convolution"
  bottom: "TL5_1"
  top: "TL5_2"
  param {
    lr_mult: 1.0
    decay_mult: 1.0
  }
  convolution_param {
    num_output: 128
    bias_term: false
    pad: 1
    kernel_size: 3
    stride: 1
    weight_filler {
      type: "gaussian"
      std: 0.00999999977648
    }
  }
}
layer {
  name: "TL5_2_bn"
  type: "BatchNorm"
  bottom: "TL5_2"
  top: "TL5_2"
}
layer {
  name: "TL5_2_scale"
  type: "Scale"
  bottom: "TL5_2"
  top: "TL5_2"
  scale_param {
    bias_term: true
  }
}
layer {
  name: "P6-up"
  type: "Deconvolution"
  bottom: "P6"
  top: "P6-up"
  param {
    lr_mult: 1.0
    decay_mult: 1.0
  }
  convolution_param {
    num_output: 128
    bias_term: false
    pad: 0
    kernel_size: 2
    stride: 2
    weight_filler {
      type: "gaussian"
      std: 0.00999999977648
    }
  }
}
layer {
  name: "P6-up_bn"
  type: "BatchNorm"
  bottom: "P6-up"
  top: "P6-up"
}
layer {
  name: "P6-up_scale"
  type: "Scale"
  bottom: "P6-up"
  top: "P6-up"
  scale_param {
    bias_term: true
  }
}
layer {
  name: "Elt5"
  type: "Eltwise"
  bottom: "TL5_2"
  bottom: "P6-up"
  top: "Elt5"
}
layer {
  name: "Elt5_relu"
  type: "ReLU"
  bottom: "Elt5"
  top: "Elt5"
}
layer {
  name: "P5"
  type: "Convolution"
  bottom: "Elt5"
  top: "P5"
  param {
    lr_mult: 1.0
    decay_mult: 1.0
  }
  convolution_param {
    num_output: 128
    bias_term: false
    pad: 1
    kernel_size: 3
    stride: 1
    weight_filler {
      type: "gaussian"
      std: 0.00999999977648
    }
  }
}
layer {
  name: "P5_bn"
  type: "BatchNorm"
  bottom: "P5"
  top: "P5"
}
layer {
  name: "P5_scale"
  type: "Scale"
  bottom: "P5"
  top: "P5"
  scale_param {
    bias_term: true
  }
}
layer {
  name: "P5_relu"
  type: "ReLU"
  bottom: "P5"
  top: "P5"
}
layer {
  name: "TL4_1"
  type: "Convolution"
  bottom: "xception11_elewise"
  top: "TL4_1"
  param {
    lr_mult: 1.0
    decay_mult: 1.0
  }
  convolution_param {
    num_output: 128
    bias_term: false
    pad: 1
    kernel_size: 3
    stride: 1
    weight_filler {
      type: "gaussian"
      std: 0.00999999977648
    }
  }
}
layer {
  name: "TL4_1_bn"
  type: "BatchNorm"
  bottom: "TL4_1"
  top: "TL4_1"
}
layer {
  name: "TL4_1_scale"
  type: "Scale"
  bottom: "TL4_1"
  top: "TL4_1"
  scale_param {
    bias_term: true
  }
}
layer {
  name: "TL4_1_relu"
  type: "ReLU"
  bottom: "TL4_1"
  top: "TL4_1"
}
layer {
  name: "TL4_2"
  type: "Convolution"
  bottom: "TL4_1"
  top: "TL4_2"
  param {
    lr_mult: 1.0
    decay_mult: 1.0
  }
  convolution_param {
    num_output: 128
    bias_term: false
    pad: 1
    kernel_size: 3
    stride: 1
    weight_filler {
      type: "gaussian"
      std: 0.00999999977648
    }
  }
}
layer {
  name: "TL4_2_bn"
  type: "BatchNorm"
  bottom: "TL4_2"
  top: "TL4_2"
}
layer {
  name: "TL4_2_scale"
  type: "Scale"
  bottom: "TL4_2"
  top: "TL4_2"
  scale_param {
    bias_term: true
  }
}
layer {
  name: "P5-up"
  type: "Deconvolution"
  bottom: "P5"
  top: "P5-up"
  param {
    lr_mult: 1.0
    decay_mult: 1.0
  }
  convolution_param {
    num_output: 128
    bias_term: false
    pad: 0
    kernel_size: 2
    stride: 2
    weight_filler {
      type: "gaussian"
      std: 0.00999999977648
    }
  }
}
layer {
  name: "P5-up_bn"
  type: "BatchNorm"
  bottom: "P5-up"
  top: "P5-up"
}
layer {
  name: "P5-up_scale"
  type: "Scale"
  bottom: "P5-up"
  top: "P5-up"
  scale_param {
    bias_term: true
  }
}
layer {
  name: "Elt4"
  type: "Eltwise"
  bottom: "TL4_2"
  bottom: "P5-up"
  top: "Elt4"
}
layer {
  name: "Elt4_relu"
  type: "ReLU"
  bottom: "Elt4"
  top: "Elt4"
}
layer {
  name: "P4"
  type: "Convolution"
  bottom: "Elt4"
  top: "P4"
  param {
    lr_mult: 1.0
    decay_mult: 1.0
  }
  convolution_param {
    num_output: 128
    bias_term: false
    pad: 1
    kernel_size: 3
    stride: 1
    weight_filler {
      type: "gaussian"
      std: 0.00999999977648
    }
  }
}
layer {
  name: "P4_bn"
  type: "BatchNorm"
  bottom: "P4"
  top: "P4"
}
layer {
  name: "P4_scale"
  type: "Scale"
  bottom: "P4"
  top: "P4"
  scale_param {
    bias_term: true
  }
}
layer {
  name: "P4_relu"
  type: "ReLU"
  bottom: "P4"
  top: "P4"
}
layer {
  name: "TL3_1"
  type: "Convolution"
  bottom: "xception2_elewise"
  top: "TL3_1"
  param {
    lr_mult: 1.0
    decay_mult: 1.0
  }
  convolution_param {
    num_output: 128
    bias_term: false
    pad: 1
    kernel_size: 3
    stride: 1
    weight_filler {
      type: "gaussian"
      std: 0.00999999977648
    }
  }
}
layer {
  name: "TL3_1_bn"
  type: "BatchNorm"
  bottom: "TL3_1"
  top: "TL3_1"
}
layer {
  name: "TL3_1_scale"
  type: "Scale"
  bottom: "TL3_1"
  top: "TL3_1"
  scale_param {
    bias_term: true
  }
}
layer {
  name: "TL3_1_relu"
  type: "ReLU"
  bottom: "TL3_1"
  top: "TL3_1"
}
layer {
  name: "TL3_2"
  type: "Convolution"
  bottom: "TL3_1"
  top: "TL3_2"
  param {
    lr_mult: 1.0
    decay_mult: 1.0
  }
  convolution_param {
    num_output: 128
    bias_term: false
    pad: 1
    kernel_size: 3
    stride: 1
    weight_filler {
      type: "gaussian"
      std: 0.00999999977648
    }
  }
}
layer {
  name: "TL3_2_bn"
  type: "BatchNorm"
  bottom: "TL3_2"
  top: "TL3_2"
}
layer {
  name: "TL3_2_scale"
  type: "Scale"
  bottom: "TL3_2"
  top: "TL3_2"
  scale_param {
    bias_term: true
  }
}
layer {
  name: "P4-up"
  type: "Deconvolution"
  bottom: "P4"
  top: "P4-up"
  param {
    lr_mult: 1.0
    decay_mult: 1.0
  }
  convolution_param {
    num_output: 128
    bias_term: false
    pad: 0
    kernel_size: 2
    stride: 2
    weight_filler {
      type: "gaussian"
      std: 0.00999999977648
    }
  }
}
layer {
  name: "P4-up_bn"
  type: "BatchNorm"
  bottom: "P4-up"
  top: "P4-up"
}
layer {
  name: "P4-up_scale"
  type: "Scale"
  bottom: "P4-up"
  top: "P4-up"
  scale_param {
    bias_term: true
  }
}
layer {
  name: "Elt3"
  type: "Eltwise"
  bottom: "TL3_2"
  bottom: "P4-up"
  top: "Elt3"
}
layer {
  name: "Elt3_relu"
  type: "ReLU"
  bottom: "Elt3"
  top: "Elt3"
}
layer {
  name: "P3"
  type: "Convolution"
  bottom: "Elt3"
  top: "P3"
  param {
    lr_mult: 1.0
    decay_mult: 1.0
  }
  convolution_param {
    num_output: 128
    bias_term: false
    pad: 1
    kernel_size: 3
    stride: 1
    weight_filler {
      type: "gaussian"
      std: 0.00999999977648
    }
  }
}
layer {
  name: "P3_bn"
  type: "BatchNorm"
  bottom: "P3"
  top: "P3"
}
layer {
  name: "P3_scale"
  type: "Scale"
  bottom: "P3"
  top: "P3"
  scale_param {
    bias_term: true
  }
}
layer {
  name: "P3_relu"
  type: "ReLU"
  bottom: "P3"
  top: "P3"
}
layer {
  name: "xception2_elewise_inter_match"
  type: "Convolution"
  bottom: "xception2_elewise"
  top: "xception2_elewise_inter_match"
  param {
    lr_mult: 1.0
    decay_mult: 1.0
  }
  convolution_param {
    num_output: 256
    bias_term: false
    pad: 0
    kernel_size: 1
    stride: 1
    weight_filler {
      type: "gaussian"
      std: 0.00999999977648
    }
  }
}
layer {
  name: "bnxception2_elewise_inter_match"
  type: "BatchNorm"
  bottom: "xception2_elewise_inter_match"
  top: "xception2_elewise_inter_match"
}
layer {
  name: "scalexception2_elewise_inter_match"
  type: "Scale"
  bottom: "xception2_elewise_inter_match"
  top: "xception2_elewise_inter_match"
  scale_param {
    bias_term: true
  }
}
layer {
  name: "xception2_elewise_inter_relu"
  type: "ReLU"
  bottom: "xception2_elewise"
  top: "xception2_elewise_inter_relu"
}
layer {
  name: "xception2_elewise_inter_conv1_1"
  type: "ConvolutionDepthwise"
  bottom: "xception2_elewise_inter_relu"
  top: "xception2_elewise_inter_conv1_1"
  param {
    lr_mult: 1.0
    decay_mult: 1.0
  }
  convolution_param {
    num_output: 256
    bias_term: false
    pad: 1
    kernel_size: 3
    group: 256
    stride: 1
    weight_filler {
      type: "gaussian"
      std: 0.00999999977648
    }
  }
}
layer {
  name: "xception2_elewise_inter_conv1_2"
  type: "Convolution"
  bottom: "xception2_elewise_inter_conv1_1"
  top: "xception2_elewise_inter_conv1_2"
  param {
    lr_mult: 1.0
    decay_mult: 1.0
  }
  convolution_param {
    num_output: 256
    bias_term: false
    pad: 0
    kernel_size: 1
    stride: 1
    weight_filler {
      type: "gaussian"
      std: 0.00999999977648
    }
  }
}
layer {
  name: "bnxception2_elewise_inter_conv1_2"
  type: "BatchNorm"
  bottom: "xception2_elewise_inter_conv1_2"
  top: "xception2_elewise_inter_conv1_2"
}
layer {
  name: "scalexception2_elewise_inter_conv1_2"
  type: "Scale"
  bottom: "xception2_elewise_inter_conv1_2"
  top: "xception2_elewise_inter_conv1_2"
  scale_param {
    bias_term: true
  }
}
layer {
  name: "xception2_elewise_inter_conv1_2_relu"
  type: "ReLU"
  bottom: "xception2_elewise_inter_conv1_2"
  top: "xception2_elewise_inter_conv1_2"
}
layer {
  name: "xception2_elewise_inter_conv2_1"
  type: "ConvolutionDepthwise"
  bottom: "xception2_elewise_inter_conv1_2"
  top: "xception2_elewise_inter_conv2_1"
  param {
    lr_mult: 1.0
    decay_mult: 1.0
  }
  convolution_param {
    num_output: 256
    bias_term: false
    pad: 1
    kernel_size: 3
    group: 256
    stride: 1
    weight_filler {
      type: "gaussian"
      std: 0.00999999977648
    }
  }
}
layer {
  name: "xception2_elewise_inter_conv2_2"
  type: "Convolution"
  bottom: "xception2_elewise_inter_conv2_1"
  top: "xception2_elewise_inter_conv2_2"
  param {
    lr_mult: 1.0
    decay_mult: 1.0
  }
  convolution_param {
    num_output: 256
    bias_term: false
    pad: 0
    kernel_size: 1
    stride: 1
    weight_filler {
      type: "gaussian"
      std: 0.00999999977648
    }
  }
}
layer {
  name: "bnxception2_elewise_inter_conv2_2"
  type: "BatchNorm"
  bottom: "xception2_elewise_inter_conv2_2"
  top: "xception2_elewise_inter_conv2_2"
}
layer {
  name: "scalexception2_elewise_inter_conv2_2"
  type: "Scale"
  bottom: "xception2_elewise_inter_conv2_2"
  top: "xception2_elewise_inter_conv2_2"
  scale_param {
    bias_term: true
  }
}
layer {
  name: "xception2_elewise_inter_eltwise"
  type: "Eltwise"
  bottom: "xception2_elewise_inter_match"
  bottom: "xception2_elewise_inter_conv2_2"
  top: "xception2_elewise_inter_eltwise"
}
layer {
  name: "xception2_elewise_inter_eltwise_mbox_loc"
  type: "Convolution"
  bottom: "xception2_elewise_inter_eltwise"
  top: "xception2_elewise_inter_eltwise_mbox_loc"
  param {
    lr_mult: 1.0
    decay_mult: 1.0
  }
  param {
    lr_mult: 2.0
    decay_mult: 0.0
  }
  convolution_param {
    num_output: 12
    pad: 1
    kernel_size: 3
    stride: 1
    weight_filler {
      type: "xavier"
    }
    bias_filler {
      type: "constant"
      value: 0.0
    }
  }
}
layer {
  name: "xception2_elewise_inter_eltwise_mbox_loc_perm"
  type: "Permute"
  bottom: "xception2_elewise_inter_eltwise_mbox_loc"
  top: "xception2_elewise_inter_eltwise_mbox_loc_perm"
  permute_param {
    order: 0
    order: 2
    order: 3
    order: 1
  }
}
layer {
  name: "xception2_elewise_inter_eltwise_mbox_loc_flat"
  type: "Flatten"
  bottom: "xception2_elewise_inter_eltwise_mbox_loc_perm"
  top: "xception2_elewise_inter_eltwise_mbox_loc_flat"
  flatten_param {
    axis: 1
  }
}
layer {
  name: "xception2_elewise_inter_eltwise_mbox_conf"
  type: "Convolution"
  bottom: "xception2_elewise_inter_eltwise"
  top: "xception2_elewise_inter_eltwise_mbox_conf"
  param {
    lr_mult: 1.0
    decay_mult: 1.0
  }
  param {
    lr_mult: 2.0
    decay_mult: 0.0
  }
  convolution_param {
    num_output: 6
    pad: 1
    kernel_size: 3
    stride: 1
    weight_filler {
      type: "xavier"
    }
    bias_filler {
      type: "constant"
      value: 0.0
    }
  }
}
layer {
  name: "xception2_elewise_inter_eltwise_mbox_conf_perm"
  type: "Permute"
  bottom: "xception2_elewise_inter_eltwise_mbox_conf"
  top: "xception2_elewise_inter_eltwise_mbox_conf_perm"
  permute_param {
    order: 0
    order: 2
    order: 3
    order: 1
  }
}
layer {
  name: "xception2_elewise_inter_eltwise_mbox_conf_flat"
  type: "Flatten"
  bottom: "xception2_elewise_inter_eltwise_mbox_conf_perm"
  top: "xception2_elewise_inter_eltwise_mbox_conf_flat"
  flatten_param {
    axis: 1
  }
}
layer {
  name: "xception2_elewise_inter_eltwise_mbox_priorbox"
  type: "PriorBox"
  bottom: "xception2_elewise_inter_eltwise"
  bottom: "data"
  top: "xception2_elewise_inter_eltwise_mbox_priorbox"
  prior_box_param {
    min_size: 32.0
    aspect_ratio: 2.0
    flip: true
    clip: false
    variance: 0.10000000149
    variance: 0.10000000149
    variance: 0.20000000298
    variance: 0.20000000298
    step: 8.0
    offset: 0.5
  }
}
layer {
  name: "xception11_elewise_inter_match"
  type: "Convolution"
  bottom: "xception11_elewise"
  top: "xception11_elewise_inter_match"
  param {
    lr_mult: 1.0
    decay_mult: 1.0
  }
  convolution_param {
    num_output: 256
    bias_term: false
    pad: 0
    kernel_size: 1
    stride: 1
    weight_filler {
      type: "gaussian"
      std: 0.00999999977648
    }
  }
}
layer {
  name: "bnxception11_elewise_inter_match"
  type: "BatchNorm"
  bottom: "xception11_elewise_inter_match"
  top: "xception11_elewise_inter_match"
}
layer {
  name: "scalexception11_elewise_inter_match"
  type: "Scale"
  bottom: "xception11_elewise_inter_match"
  top: "xception11_elewise_inter_match"
  scale_param {
    bias_term: true
  }
}
layer {
  name: "xception11_elewise_inter_relu"
  type: "ReLU"
  bottom: "xception11_elewise"
  top: "xception11_elewise_inter_relu"
}
layer {
  name: "xception11_elewise_inter_conv1_1"
  type: "ConvolutionDepthwise"
  bottom: "xception11_elewise_inter_relu"
  top: "xception11_elewise_inter_conv1_1"
  param {
    lr_mult: 1.0
    decay_mult: 1.0
  }
  convolution_param {
    num_output: 256
    bias_term: false
    pad: 1
    kernel_size: 3
    group: 256
    stride: 1
    weight_filler {
      type: "gaussian"
      std: 0.00999999977648
    }
  }
}
layer {
  name: "xception11_elewise_inter_conv1_2"
  type: "Convolution"
  bottom: "xception11_elewise_inter_conv1_1"
  top: "xception11_elewise_inter_conv1_2"
  param {
    lr_mult: 1.0
    decay_mult: 1.0
  }
  convolution_param {
    num_output: 256
    bias_term: false
    pad: 0
    kernel_size: 1
    stride: 1
    weight_filler {
      type: "gaussian"
      std: 0.00999999977648
    }
  }
}
layer {
  name: "bnxception11_elewise_inter_conv1_2"
  type: "BatchNorm"
  bottom: "xception11_elewise_inter_conv1_2"
  top: "xception11_elewise_inter_conv1_2"
}
layer {
  name: "scalexception11_elewise_inter_conv1_2"
  type: "Scale"
  bottom: "xception11_elewise_inter_conv1_2"
  top: "xception11_elewise_inter_conv1_2"
  scale_param {
    bias_term: true
  }
}
layer {
  name: "xception11_elewise_inter_conv1_2_relu"
  type: "ReLU"
  bottom: "xception11_elewise_inter_conv1_2"
  top: "xception11_elewise_inter_conv1_2"
}
layer {
  name: "xception11_elewise_inter_conv2_1"
  type: "ConvolutionDepthwise"
  bottom: "xception11_elewise_inter_conv1_2"
  top: "xception11_elewise_inter_conv2_1"
  param {
    lr_mult: 1.0
    decay_mult: 1.0
  }
  convolution_param {
    num_output: 256
    bias_term: false
    pad: 1
    kernel_size: 3
    group: 256
    stride: 1
    weight_filler {
      type: "gaussian"
      std: 0.00999999977648
    }
  }
}
layer {
  name: "xception11_elewise_inter_conv2_2"
  type: "Convolution"
  bottom: "xception11_elewise_inter_conv2_1"
  top: "xception11_elewise_inter_conv2_2"
  param {
    lr_mult: 1.0
    decay_mult: 1.0
  }
  convolution_param {
    num_output: 256
    bias_term: false
    pad: 0
    kernel_size: 1
    stride: 1
    weight_filler {
      type: "gaussian"
      std: 0.00999999977648
    }
  }
}
layer {
  name: "bnxception11_elewise_inter_conv2_2"
  type: "BatchNorm"
  bottom: "xception11_elewise_inter_conv2_2"
  top: "xception11_elewise_inter_conv2_2"
}
layer {
  name: "scalexception11_elewise_inter_conv2_2"
  type: "Scale"
  bottom: "xception11_elewise_inter_conv2_2"
  top: "xception11_elewise_inter_conv2_2"
  scale_param {
    bias_term: true
  }
}
layer {
  name: "xception11_elewise_inter_eltwise"
  type: "Eltwise"
  bottom: "xception11_elewise_inter_match"
  bottom: "xception11_elewise_inter_conv2_2"
  top: "xception11_elewise_inter_eltwise"
}
layer {
  name: "xception11_elewise_inter_eltwise_mbox_loc"
  type: "Convolution"
  bottom: "xception11_elewise_inter_eltwise"
  top: "xception11_elewise_inter_eltwise_mbox_loc"
  param {
    lr_mult: 1.0
    decay_mult: 1.0
  }
  param {
    lr_mult: 2.0
    decay_mult: 0.0
  }
  convolution_param {
    num_output: 12
    pad: 1
    kernel_size: 3
    stride: 1
    weight_filler {
      type: "xavier"
    }
    bias_filler {
      type: "constant"
      value: 0.0
    }
  }
}
layer {
  name: "xception11_elewise_inter_eltwise_mbox_loc_perm"
  type: "Permute"
  bottom: "xception11_elewise_inter_eltwise_mbox_loc"
  top: "xception11_elewise_inter_eltwise_mbox_loc_perm"
  permute_param {
    order: 0
    order: 2
    order: 3
    order: 1
  }
}
layer {
  name: "xception11_elewise_inter_eltwise_mbox_loc_flat"
  type: "Flatten"
  bottom: "xception11_elewise_inter_eltwise_mbox_loc_perm"
  top: "xception11_elewise_inter_eltwise_mbox_loc_flat"
  flatten_param {
    axis: 1
  }
}
layer {
  name: "xception11_elewise_inter_eltwise_mbox_conf"
  type: "Convolution"
  bottom: "xception11_elewise_inter_eltwise"
  top: "xception11_elewise_inter_eltwise_mbox_conf"
  param {
    lr_mult: 1.0
    decay_mult: 1.0
  }
  param {
    lr_mult: 2.0
    decay_mult: 0.0
  }
  convolution_param {
    num_output: 6
    pad: 1
    kernel_size: 3
    stride: 1
    weight_filler {
      type: "xavier"
    }
    bias_filler {
      type: "constant"
      value: 0.0
    }
  }
}
layer {
  name: "xception11_elewise_inter_eltwise_mbox_conf_perm"
  type: "Permute"
  bottom: "xception11_elewise_inter_eltwise_mbox_conf"
  top: "xception11_elewise_inter_eltwise_mbox_conf_perm"
  permute_param {
    order: 0
    order: 2
    order: 3
    order: 1
  }
}
layer {
  name: "xception11_elewise_inter_eltwise_mbox_conf_flat"
  type: "Flatten"
  bottom: "xception11_elewise_inter_eltwise_mbox_conf_perm"
  top: "xception11_elewise_inter_eltwise_mbox_conf_flat"
  flatten_param {
    axis: 1
  }
}
layer {
  name: "xception11_elewise_inter_eltwise_mbox_priorbox"
  type: "PriorBox"
  bottom: "xception11_elewise_inter_eltwise"
  bottom: "data"
  top: "xception11_elewise_inter_eltwise_mbox_priorbox"
  prior_box_param {
    min_size: 64.0
    aspect_ratio: 2.0
    flip: true
    clip: false
    variance: 0.10000000149
    variance: 0.10000000149
    variance: 0.20000000298
    variance: 0.20000000298
    step: 16.0
    offset: 0.5
  }
}
layer {
  name: "conv4_2_inter_match"
  type: "Convolution"
  bottom: "conv4_2"
  top: "conv4_2_inter_match"
  param {
    lr_mult: 1.0
    decay_mult: 1.0
  }
  convolution_param {
    num_output: 256
    bias_term: false
    pad: 0
    kernel_size: 1
    stride: 1
    weight_filler {
      type: "gaussian"
      std: 0.00999999977648
    }
  }
}
layer {
  name: "bnconv4_2_inter_match"
  type: "BatchNorm"
  bottom: "conv4_2_inter_match"
  top: "conv4_2_inter_match"
}
layer {
  name: "scaleconv4_2_inter_match"
  type: "Scale"
  bottom: "conv4_2_inter_match"
  top: "conv4_2_inter_match"
  scale_param {
    bias_term: true
  }
}
layer {
  name: "conv4_2_inter_relu"
  type: "ReLU"
  bottom: "conv4_2"
  top: "conv4_2_inter_relu"
}
layer {
  name: "conv4_2_inter_conv1_1"
  type: "ConvolutionDepthwise"
  bottom: "conv4_2_inter_relu"
  top: "conv4_2_inter_conv1_1"
  param {
    lr_mult: 1.0
    decay_mult: 1.0
  }
  convolution_param {
    num_output: 256
    bias_term: false
    pad: 1
    kernel_size: 3
    group: 256
    stride: 1
    weight_filler {
      type: "gaussian"
      std: 0.00999999977648
    }
  }
}
layer {
  name: "conv4_2_inter_conv1_2"
  type: "Convolution"
  bottom: "conv4_2_inter_conv1_1"
  top: "conv4_2_inter_conv1_2"
  param {
    lr_mult: 1.0
    decay_mult: 1.0
  }
  convolution_param {
    num_output: 256
    bias_term: false
    pad: 0
    kernel_size: 1
    stride: 1
    weight_filler {
      type: "gaussian"
      std: 0.00999999977648
    }
  }
}
layer {
  name: "bnconv4_2_inter_conv1_2"
  type: "BatchNorm"
  bottom: "conv4_2_inter_conv1_2"
  top: "conv4_2_inter_conv1_2"
}
layer {
  name: "scaleconv4_2_inter_conv1_2"
  type: "Scale"
  bottom: "conv4_2_inter_conv1_2"
  top: "conv4_2_inter_conv1_2"
  scale_param {
    bias_term: true
  }
}
layer {
  name: "conv4_2_inter_conv1_2_relu"
  type: "ReLU"
  bottom: "conv4_2_inter_conv1_2"
  top: "conv4_2_inter_conv1_2"
}
layer {
  name: "conv4_2_inter_conv2_1"
  type: "ConvolutionDepthwise"
  bottom: "conv4_2_inter_conv1_2"
  top: "conv4_2_inter_conv2_1"
  param {
    lr_mult: 1.0
    decay_mult: 1.0
  }
  convolution_param {
    num_output: 256
    bias_term: false
    pad: 1
    kernel_size: 3
    group: 256
    stride: 1
    weight_filler {
      type: "gaussian"
      std: 0.00999999977648
    }
  }
}
layer {
  name: "conv4_2_inter_conv2_2"
  type: "Convolution"
  bottom: "conv4_2_inter_conv2_1"
  top: "conv4_2_inter_conv2_2"
  param {
    lr_mult: 1.0
    decay_mult: 1.0
  }
  convolution_param {
    num_output: 256
    bias_term: false
    pad: 0
    kernel_size: 1
    stride: 1
    weight_filler {
      type: "gaussian"
      std: 0.00999999977648
    }
  }
}
layer {
  name: "bnconv4_2_inter_conv2_2"
  type: "BatchNorm"
  bottom: "conv4_2_inter_conv2_2"
  top: "conv4_2_inter_conv2_2"
}
layer {
  name: "scaleconv4_2_inter_conv2_2"
  type: "Scale"
  bottom: "conv4_2_inter_conv2_2"
  top: "conv4_2_inter_conv2_2"
  scale_param {
    bias_term: true
  }
}
layer {
  name: "conv4_2_inter_eltwise"
  type: "Eltwise"
  bottom: "conv4_2_inter_match"
  bottom: "conv4_2_inter_conv2_2"
  top: "conv4_2_inter_eltwise"
}
layer {
  name: "conv4_2_inter_eltwise_mbox_loc"
  type: "Convolution"
  bottom: "conv4_2_inter_eltwise"
  top: "conv4_2_inter_eltwise_mbox_loc"
  param {
    lr_mult: 1.0
    decay_mult: 1.0
  }
  param {
    lr_mult: 2.0
    decay_mult: 0.0
  }
  convolution_param {
    num_output: 12
    pad: 1
    kernel_size: 3
    stride: 1
    weight_filler {
      type: "xavier"
    }
    bias_filler {
      type: "constant"
      value: 0.0
    }
  }
}
layer {
  name: "conv4_2_inter_eltwise_mbox_loc_perm"
  type: "Permute"
  bottom: "conv4_2_inter_eltwise_mbox_loc"
  top: "conv4_2_inter_eltwise_mbox_loc_perm"
  permute_param {
    order: 0
    order: 2
    order: 3
    order: 1
  }
}
layer {
  name: "conv4_2_inter_eltwise_mbox_loc_flat"
  type: "Flatten"
  bottom: "conv4_2_inter_eltwise_mbox_loc_perm"
  top: "conv4_2_inter_eltwise_mbox_loc_flat"
  flatten_param {
    axis: 1
  }
}
layer {
  name: "conv4_2_inter_eltwise_mbox_conf"
  type: "Convolution"
  bottom: "conv4_2_inter_eltwise"
  top: "conv4_2_inter_eltwise_mbox_conf"
  param {
    lr_mult: 1.0
    decay_mult: 1.0
  }
  param {
    lr_mult: 2.0
    decay_mult: 0.0
  }
  convolution_param {
    num_output: 6
    pad: 1
    kernel_size: 3
    stride: 1
    weight_filler {
      type: "xavier"
    }
    bias_filler {
      type: "constant"
      value: 0.0
    }
  }
}
layer {
  name: "conv4_2_inter_eltwise_mbox_conf_perm"
  type: "Permute"
  bottom: "conv4_2_inter_eltwise_mbox_conf"
  top: "conv4_2_inter_eltwise_mbox_conf_perm"
  permute_param {
    order: 0
    order: 2
    order: 3
    order: 1
  }
}
layer {
  name: "conv4_2_inter_eltwise_mbox_conf_flat"
  type: "Flatten"
  bottom: "conv4_2_inter_eltwise_mbox_conf_perm"
  top: "conv4_2_inter_eltwise_mbox_conf_flat"
  flatten_param {
    axis: 1
  }
}
layer {
  name: "conv4_2_inter_eltwise_mbox_priorbox"
  type: "PriorBox"
  bottom: "conv4_2_inter_eltwise"
  bottom: "data"
  top: "conv4_2_inter_eltwise_mbox_priorbox"
  prior_box_param {
    min_size: 128.0
    aspect_ratio: 2.0
    flip: true
    clip: false
    variance: 0.10000000149
    variance: 0.10000000149
    variance: 0.20000000298
    variance: 0.20000000298
    step: 32.0
    offset: 0.5
  }
}
layer {
  name: "xception13_elewise_inter_match"
  type: "Convolution"
  bottom: "xception13_elewise"
  top: "xception13_elewise_inter_match"
  param {
    lr_mult: 1.0
    decay_mult: 1.0
  }
  convolution_param {
    num_output: 256
    bias_term: false
    pad: 0
    kernel_size: 1
    stride: 1
    weight_filler {
      type: "gaussian"
      std: 0.00999999977648
    }
  }
}
layer {
  name: "bnxception13_elewise_inter_match"
  type: "BatchNorm"
  bottom: "xception13_elewise_inter_match"
  top: "xception13_elewise_inter_match"
}
layer {
  name: "scalexception13_elewise_inter_match"
  type: "Scale"
  bottom: "xception13_elewise_inter_match"
  top: "xception13_elewise_inter_match"
  scale_param {
    bias_term: true
  }
}
layer {
  name: "xception13_elewise_inter_relu"
  type: "ReLU"
  bottom: "xception13_elewise"
  top: "xception13_elewise_inter_relu"
}
layer {
  name: "xception13_elewise_inter_conv1_1"
  type: "ConvolutionDepthwise"
  bottom: "xception13_elewise_inter_relu"
  top: "xception13_elewise_inter_conv1_1"
  param {
    lr_mult: 1.0
    decay_mult: 1.0
  }
  convolution_param {
    num_output: 256
    bias_term: false
    pad: 1
    kernel_size: 3
    group: 256
    stride: 1
    weight_filler {
      type: "gaussian"
      std: 0.00999999977648
    }
  }
}
layer {
  name: "xception13_elewise_inter_conv1_2"
  type: "Convolution"
  bottom: "xception13_elewise_inter_conv1_1"
  top: "xception13_elewise_inter_conv1_2"
  param {
    lr_mult: 1.0
    decay_mult: 1.0
  }
  convolution_param {
    num_output: 256
    bias_term: false
    pad: 0
    kernel_size: 1
    stride: 1
    weight_filler {
      type: "gaussian"
      std: 0.00999999977648
    }
  }
}
layer {
  name: "bnxception13_elewise_inter_conv1_2"
  type: "BatchNorm"
  bottom: "xception13_elewise_inter_conv1_2"
  top: "xception13_elewise_inter_conv1_2"
}
layer {
  name: "scalexception13_elewise_inter_conv1_2"
  type: "Scale"
  bottom: "xception13_elewise_inter_conv1_2"
  top: "xception13_elewise_inter_conv1_2"
  scale_param {
    bias_term: true
  }
}
layer {
  name: "xception13_elewise_inter_conv1_2_relu"
  type: "ReLU"
  bottom: "xception13_elewise_inter_conv1_2"
  top: "xception13_elewise_inter_conv1_2"
}
layer {
  name: "xception13_elewise_inter_conv2_1"
  type: "ConvolutionDepthwise"
  bottom: "xception13_elewise_inter_conv1_2"
  top: "xception13_elewise_inter_conv2_1"
  param {
    lr_mult: 1.0
    decay_mult: 1.0
  }
  convolution_param {
    num_output: 256
    bias_term: false
    pad: 1
    kernel_size: 3
    group: 256
    stride: 1
    weight_filler {
      type: "gaussian"
      std: 0.00999999977648
    }
  }
}
layer {
  name: "xception13_elewise_inter_conv2_2"
  type: "Convolution"
  bottom: "xception13_elewise_inter_conv2_1"
  top: "xception13_elewise_inter_conv2_2"
  param {
    lr_mult: 1.0
    decay_mult: 1.0
  }
  convolution_param {
    num_output: 256
    bias_term: false
    pad: 0
    kernel_size: 1
    stride: 1
    weight_filler {
      type: "gaussian"
      std: 0.00999999977648
    }
  }
}
layer {
  name: "bnxception13_elewise_inter_conv2_2"
  type: "BatchNorm"
  bottom: "xception13_elewise_inter_conv2_2"
  top: "xception13_elewise_inter_conv2_2"
}
layer {
  name: "scalexception13_elewise_inter_conv2_2"
  type: "Scale"
  bottom: "xception13_elewise_inter_conv2_2"
  top: "xception13_elewise_inter_conv2_2"
  scale_param {
    bias_term: true
  }
}
layer {
  name: "xception13_elewise_inter_eltwise"
  type: "Eltwise"
  bottom: "xception13_elewise_inter_match"
  bottom: "xception13_elewise_inter_conv2_2"
  top: "xception13_elewise_inter_eltwise"
}
layer {
  name: "xception13_elewise_inter_eltwise_mbox_loc"
  type: "Convolution"
  bottom: "xception13_elewise_inter_eltwise"
  top: "xception13_elewise_inter_eltwise_mbox_loc"
  param {
    lr_mult: 1.0
    decay_mult: 1.0
  }
  param {
    lr_mult: 2.0
    decay_mult: 0.0
  }
  convolution_param {
    num_output: 12
    pad: 1
    kernel_size: 3
    stride: 1
    weight_filler {
      type: "xavier"
    }
    bias_filler {
      type: "constant"
      value: 0.0
    }
  }
}
layer {
  name: "xception13_elewise_inter_eltwise_mbox_loc_perm"
  type: "Permute"
  bottom: "xception13_elewise_inter_eltwise_mbox_loc"
  top: "xception13_elewise_inter_eltwise_mbox_loc_perm"
  permute_param {
    order: 0
    order: 2
    order: 3
    order: 1
  }
}
layer {
  name: "xception13_elewise_inter_eltwise_mbox_loc_flat"
  type: "Flatten"
  bottom: "xception13_elewise_inter_eltwise_mbox_loc_perm"
  top: "xception13_elewise_inter_eltwise_mbox_loc_flat"
  flatten_param {
    axis: 1
  }
}
layer {
  name: "xception13_elewise_inter_eltwise_mbox_conf"
  type: "Convolution"
  bottom: "xception13_elewise_inter_eltwise"
  top: "xception13_elewise_inter_eltwise_mbox_conf"
  param {
    lr_mult: 1.0
    decay_mult: 1.0
  }
  param {
    lr_mult: 2.0
    decay_mult: 0.0
  }
  convolution_param {
    num_output: 6
    pad: 1
    kernel_size: 3
    stride: 1
    weight_filler {
      type: "xavier"
    }
    bias_filler {
      type: "constant"
      value: 0.0
    }
  }
}
layer {
  name: "xception13_elewise_inter_eltwise_mbox_conf_perm"
  type: "Permute"
  bottom: "xception13_elewise_inter_eltwise_mbox_conf"
  top: "xception13_elewise_inter_eltwise_mbox_conf_perm"
  permute_param {
    order: 0
    order: 2
    order: 3
    order: 1
  }
}
layer {
  name: "xception13_elewise_inter_eltwise_mbox_conf_flat"
  type: "Flatten"
  bottom: "xception13_elewise_inter_eltwise_mbox_conf_perm"
  top: "xception13_elewise_inter_eltwise_mbox_conf_flat"
  flatten_param {
    axis: 1
  }
}
layer {
  name: "xception13_elewise_inter_eltwise_mbox_priorbox"
  type: "PriorBox"
  bottom: "xception13_elewise_inter_eltwise"
  bottom: "data"
  top: "xception13_elewise_inter_eltwise_mbox_priorbox"
  prior_box_param {
    min_size: 256.0
    aspect_ratio: 2.0
    flip: true
    clip: false
    variance: 0.10000000149
    variance: 0.10000000149
    variance: 0.20000000298
    variance: 0.20000000298
    step: 64.0
    offset: 0.5
  }
}
layer {
  name: "arm_loc"
  type: "Concat"
  bottom: "xception2_elewise_inter_eltwise_mbox_loc_flat"
  bottom: "xception11_elewise_inter_eltwise_mbox_loc_flat"
  bottom: "conv4_2_inter_eltwise_mbox_loc_flat"
  bottom: "xception13_elewise_inter_eltwise_mbox_loc_flat"
  top: "arm_loc"
  concat_param {
    axis: 1
  }
}
layer {
  name: "arm_conf"
  type: "Concat"
  bottom: "xception2_elewise_inter_eltwise_mbox_conf_flat"
  bottom: "xception11_elewise_inter_eltwise_mbox_conf_flat"
  bottom: "conv4_2_inter_eltwise_mbox_conf_flat"
  bottom: "xception13_elewise_inter_eltwise_mbox_conf_flat"
  top: "arm_conf"
  concat_param {
    axis: 1
  }
}
layer {
  name: "arm_priorbox"
  type: "Concat"
  bottom: "xception2_elewise_inter_eltwise_mbox_priorbox"
  bottom: "xception11_elewise_inter_eltwise_mbox_priorbox"
  bottom: "conv4_2_inter_eltwise_mbox_priorbox"
  bottom: "xception13_elewise_inter_eltwise_mbox_priorbox"
  top: "arm_priorbox"
  concat_param {
    axis: 2
  }
}
layer {
  name: "P3_inter_match"
  type: "Convolution"
  bottom: "P3"
  top: "P3_inter_match"
  param {
    lr_mult: 1.0
    decay_mult: 1.0
  }
  convolution_param {
    num_output: 256
    bias_term: false
    pad: 0
    kernel_size: 1
    stride: 1
    weight_filler {
      type: "gaussian"
      std: 0.00999999977648
    }
  }
}
layer {
  name: "bnP3_inter_match"
  type: "BatchNorm"
  bottom: "P3_inter_match"
  top: "P3_inter_match"
}
layer {
  name: "scaleP3_inter_match"
  type: "Scale"
  bottom: "P3_inter_match"
  top: "P3_inter_match"
  scale_param {
    bias_term: true
  }
}
layer {
  name: "P3_inter_relu"
  type: "ReLU"
  bottom: "P3"
  top: "P3_inter_relu"
}
layer {
  name: "P3_inter_conv1_1"
  type: "ConvolutionDepthwise"
  bottom: "P3_inter_relu"
  top: "P3_inter_conv1_1"
  param {
    lr_mult: 1.0
    decay_mult: 1.0
  }
  convolution_param {
    num_output: 256
    bias_term: false
    pad: 1
    kernel_size: 3
    group: 256
    stride: 1
    weight_filler {
      type: "gaussian"
      std: 0.00999999977648
    }
  }
}
layer {
  name: "P3_inter_conv1_2"
  type: "Convolution"
  bottom: "P3_inter_conv1_1"
  top: "P3_inter_conv1_2"
  param {
    lr_mult: 1.0
    decay_mult: 1.0
  }
  convolution_param {
    num_output: 256
    bias_term: false
    pad: 0
    kernel_size: 1
    stride: 1
    weight_filler {
      type: "gaussian"
      std: 0.00999999977648
    }
  }
}
layer {
  name: "bnP3_inter_conv1_2"
  type: "BatchNorm"
  bottom: "P3_inter_conv1_2"
  top: "P3_inter_conv1_2"
}
layer {
  name: "scaleP3_inter_conv1_2"
  type: "Scale"
  bottom: "P3_inter_conv1_2"
  top: "P3_inter_conv1_2"
  scale_param {
    bias_term: true
  }
}
layer {
  name: "P3_inter_conv1_2_relu"
  type: "ReLU"
  bottom: "P3_inter_conv1_2"
  top: "P3_inter_conv1_2"
}
layer {
  name: "P3_inter_conv2_1"
  type: "ConvolutionDepthwise"
  bottom: "P3_inter_conv1_2"
  top: "P3_inter_conv2_1"
  param {
    lr_mult: 1.0
    decay_mult: 1.0
  }
  convolution_param {
    num_output: 256
    bias_term: false
    pad: 1
    kernel_size: 3
    group: 256
    stride: 1
    weight_filler {
      type: "gaussian"
      std: 0.00999999977648
    }
  }
}
layer {
  name: "P3_inter_conv2_2"
  type: "Convolution"
  bottom: "P3_inter_conv2_1"
  top: "P3_inter_conv2_2"
  param {
    lr_mult: 1.0
    decay_mult: 1.0
  }
  convolution_param {
    num_output: 256
    bias_term: false
    pad: 0
    kernel_size: 1
    stride: 1
    weight_filler {
      type: "gaussian"
      std: 0.00999999977648
    }
  }
}
layer {
  name: "bnP3_inter_conv2_2"
  type: "BatchNorm"
  bottom: "P3_inter_conv2_2"
  top: "P3_inter_conv2_2"
}
layer {
  name: "scaleP3_inter_conv2_2"
  type: "Scale"
  bottom: "P3_inter_conv2_2"
  top: "P3_inter_conv2_2"
  scale_param {
    bias_term: true
  }
}
layer {
  name: "P3_inter_eltwise"
  type: "Eltwise"
  bottom: "P3_inter_match"
  bottom: "P3_inter_conv2_2"
  top: "P3_inter_eltwise"
}
layer {
  name: "P3_inter_eltwise_mbox_loc"
  type: "Convolution"
  bottom: "P3_inter_eltwise"
  top: "P3_inter_eltwise_mbox_loc"
  param {
    lr_mult: 1.0
    decay_mult: 1.0
  }
  param {
    lr_mult: 2.0
    decay_mult: 0.0
  }
  convolution_param {
    num_output: 12
    pad: 1
    kernel_size: 3
    stride: 1
    weight_filler {
      type: "xavier"
    }
    bias_filler {
      type: "constant"
      value: 0.0
    }
  }
}
layer {
  name: "P3_inter_eltwise_mbox_loc_perm"
  type: "Permute"
  bottom: "P3_inter_eltwise_mbox_loc"
  top: "P3_inter_eltwise_mbox_loc_perm"
  permute_param {
    order: 0
    order: 2
    order: 3
    order: 1
  }
}
layer {
  name: "P3_inter_eltwise_mbox_loc_flat"
  type: "Flatten"
  bottom: "P3_inter_eltwise_mbox_loc_perm"
  top: "P3_inter_eltwise_mbox_loc_flat"
  flatten_param {
    axis: 1
  }
}
layer {
  name: "P3_inter_eltwise_mbox_conf"
  type: "Convolution"
  bottom: "P3_inter_eltwise"
  top: "P3_inter_eltwise_mbox_conf"
  param {
    lr_mult: 1.0
    decay_mult: 1.0
  }
  param {
    lr_mult: 2.0
    decay_mult: 0.0
  }
  convolution_param {
    num_output: 243
    pad: 1
    kernel_size: 3
    stride: 1
    weight_filler {
      type: "xavier"
    }
    bias_filler {
      type: "constant"
      value: 0.0
    }
  }
}
layer {
  name: "P3_inter_eltwise_mbox_conf_perm"
  type: "Permute"
  bottom: "P3_inter_eltwise_mbox_conf"
  top: "P3_inter_eltwise_mbox_conf_perm"
  permute_param {
    order: 0
    order: 2
    order: 3
    order: 1
  }
}
layer {
  name: "P3_inter_eltwise_mbox_conf_flat"
  type: "Flatten"
  bottom: "P3_inter_eltwise_mbox_conf_perm"
  top: "P3_inter_eltwise_mbox_conf_flat"
  flatten_param {
    axis: 1
  }
}
layer {
  name: "P4_inter_match"
  type: "Convolution"
  bottom: "P4"
  top: "P4_inter_match"
  param {
    lr_mult: 1.0
    decay_mult: 1.0
  }
  convolution_param {
    num_output: 256
    bias_term: false
    pad: 0
    kernel_size: 1
    stride: 1
    weight_filler {
      type: "gaussian"
      std: 0.00999999977648
    }
  }
}
layer {
  name: "bnP4_inter_match"
  type: "BatchNorm"
  bottom: "P4_inter_match"
  top: "P4_inter_match"
}
layer {
  name: "scaleP4_inter_match"
  type: "Scale"
  bottom: "P4_inter_match"
  top: "P4_inter_match"
  scale_param {
    bias_term: true
  }
}
layer {
  name: "P4_inter_relu"
  type: "ReLU"
  bottom: "P4"
  top: "P4_inter_relu"
}
layer {
  name: "P4_inter_conv1_1"
  type: "ConvolutionDepthwise"
  bottom: "P4_inter_relu"
  top: "P4_inter_conv1_1"
  param {
    lr_mult: 1.0
    decay_mult: 1.0
  }
  convolution_param {
    num_output: 256
    bias_term: false
    pad: 1
    kernel_size: 3
    group: 256
    stride: 1
    weight_filler {
      type: "gaussian"
      std: 0.00999999977648
    }
  }
}
layer {
  name: "P4_inter_conv1_2"
  type: "Convolution"
  bottom: "P4_inter_conv1_1"
  top: "P4_inter_conv1_2"
  param {
    lr_mult: 1.0
    decay_mult: 1.0
  }
  convolution_param {
    num_output: 256
    bias_term: false
    pad: 0
    kernel_size: 1
    stride: 1
    weight_filler {
      type: "gaussian"
      std: 0.00999999977648
    }
  }
}
layer {
  name: "bnP4_inter_conv1_2"
  type: "BatchNorm"
  bottom: "P4_inter_conv1_2"
  top: "P4_inter_conv1_2"
}
layer {
  name: "scaleP4_inter_conv1_2"
  type: "Scale"
  bottom: "P4_inter_conv1_2"
  top: "P4_inter_conv1_2"
  scale_param {
    bias_term: true
  }
}
layer {
  name: "P4_inter_conv1_2_relu"
  type: "ReLU"
  bottom: "P4_inter_conv1_2"
  top: "P4_inter_conv1_2"
}
layer {
  name: "P4_inter_conv2_1"
  type: "ConvolutionDepthwise"
  bottom: "P4_inter_conv1_2"
  top: "P4_inter_conv2_1"
  param {
    lr_mult: 1.0
    decay_mult: 1.0
  }
  convolution_param {
    num_output: 256
    bias_term: false
    pad: 1
    kernel_size: 3
    group: 256
    stride: 1
    weight_filler {
      type: "gaussian"
      std: 0.00999999977648
    }
  }
}
layer {
  name: "P4_inter_conv2_2"
  type: "Convolution"
  bottom: "P4_inter_conv2_1"
  top: "P4_inter_conv2_2"
  param {
    lr_mult: 1.0
    decay_mult: 1.0
  }
  convolution_param {
    num_output: 256
    bias_term: false
    pad: 0
    kernel_size: 1
    stride: 1
    weight_filler {
      type: "gaussian"
      std: 0.00999999977648
    }
  }
}
layer {
  name: "bnP4_inter_conv2_2"
  type: "BatchNorm"
  bottom: "P4_inter_conv2_2"
  top: "P4_inter_conv2_2"
}
layer {
  name: "scaleP4_inter_conv2_2"
  type: "Scale"
  bottom: "P4_inter_conv2_2"
  top: "P4_inter_conv2_2"
  scale_param {
    bias_term: true
  }
}
layer {
  name: "P4_inter_eltwise"
  type: "Eltwise"
  bottom: "P4_inter_match"
  bottom: "P4_inter_conv2_2"
  top: "P4_inter_eltwise"
}
layer {
  name: "P4_inter_eltwise_mbox_loc"
  type: "Convolution"
  bottom: "P4_inter_eltwise"
  top: "P4_inter_eltwise_mbox_loc"
  param {
    lr_mult: 1.0
    decay_mult: 1.0
  }
  param {
    lr_mult: 2.0
    decay_mult: 0.0
  }
  convolution_param {
    num_output: 12
    pad: 1
    kernel_size: 3
    stride: 1
    weight_filler {
      type: "xavier"
    }
    bias_filler {
      type: "constant"
      value: 0.0
    }
  }
}
layer {
  name: "P4_inter_eltwise_mbox_loc_perm"
  type: "Permute"
  bottom: "P4_inter_eltwise_mbox_loc"
  top: "P4_inter_eltwise_mbox_loc_perm"
  permute_param {
    order: 0
    order: 2
    order: 3
    order: 1
  }
}
layer {
  name: "P4_inter_eltwise_mbox_loc_flat"
  type: "Flatten"
  bottom: "P4_inter_eltwise_mbox_loc_perm"
  top: "P4_inter_eltwise_mbox_loc_flat"
  flatten_param {
    axis: 1
  }
}
layer {
  name: "P4_inter_eltwise_mbox_conf"
  type: "Convolution"
  bottom: "P4_inter_eltwise"
  top: "P4_inter_eltwise_mbox_conf"
  param {
    lr_mult: 1.0
    decay_mult: 1.0
  }
  param {
    lr_mult: 2.0
    decay_mult: 0.0
  }
  convolution_param {
    num_output: 243
    pad: 1
    kernel_size: 3
    stride: 1
    weight_filler {
      type: "xavier"
    }
    bias_filler {
      type: "constant"
      value: 0.0
    }
  }
}
layer {
  name: "P4_inter_eltwise_mbox_conf_perm"
  type: "Permute"
  bottom: "P4_inter_eltwise_mbox_conf"
  top: "P4_inter_eltwise_mbox_conf_perm"
  permute_param {
    order: 0
    order: 2
    order: 3
    order: 1
  }
}
layer {
  name: "P4_inter_eltwise_mbox_conf_flat"
  type: "Flatten"
  bottom: "P4_inter_eltwise_mbox_conf_perm"
  top: "P4_inter_eltwise_mbox_conf_flat"
  flatten_param {
    axis: 1
  }
}
layer {
  name: "P5_inter_match"
  type: "Convolution"
  bottom: "P5"
  top: "P5_inter_match"
  param {
    lr_mult: 1.0
    decay_mult: 1.0
  }
  convolution_param {
    num_output: 256
    bias_term: false
    pad: 0
    kernel_size: 1
    stride: 1
    weight_filler {
      type: "gaussian"
      std: 0.00999999977648
    }
  }
}
layer {
  name: "bnP5_inter_match"
  type: "BatchNorm"
  bottom: "P5_inter_match"
  top: "P5_inter_match"
}
layer {
  name: "scaleP5_inter_match"
  type: "Scale"
  bottom: "P5_inter_match"
  top: "P5_inter_match"
  scale_param {
    bias_term: true
  }
}
layer {
  name: "P5_inter_relu"
  type: "ReLU"
  bottom: "P5"
  top: "P5_inter_relu"
}
layer {
  name: "P5_inter_conv1_1"
  type: "ConvolutionDepthwise"
  bottom: "P5_inter_relu"
  top: "P5_inter_conv1_1"
  param {
    lr_mult: 1.0
    decay_mult: 1.0
  }
  convolution_param {
    num_output: 256
    bias_term: false
    pad: 1
    kernel_size: 3
    group: 256
    stride: 1
    weight_filler {
      type: "gaussian"
      std: 0.00999999977648
    }
  }
}
layer {
  name: "P5_inter_conv1_2"
  type: "Convolution"
  bottom: "P5_inter_conv1_1"
  top: "P5_inter_conv1_2"
  param {
    lr_mult: 1.0
    decay_mult: 1.0
  }
  convolution_param {
    num_output: 256
    bias_term: false
    pad: 0
    kernel_size: 1
    stride: 1
    weight_filler {
      type: "gaussian"
      std: 0.00999999977648
    }
  }
}
layer {
  name: "bnP5_inter_conv1_2"
  type: "BatchNorm"
  bottom: "P5_inter_conv1_2"
  top: "P5_inter_conv1_2"
}
layer {
  name: "scaleP5_inter_conv1_2"
  type: "Scale"
  bottom: "P5_inter_conv1_2"
  top: "P5_inter_conv1_2"
  scale_param {
    bias_term: true
  }
}
layer {
  name: "P5_inter_conv1_2_relu"
  type: "ReLU"
  bottom: "P5_inter_conv1_2"
  top: "P5_inter_conv1_2"
}
layer {
  name: "P5_inter_conv2_1"
  type: "ConvolutionDepthwise"
  bottom: "P5_inter_conv1_2"
  top: "P5_inter_conv2_1"
  param {
    lr_mult: 1.0
    decay_mult: 1.0
  }
  convolution_param {
    num_output: 256
    bias_term: false
    pad: 1
    kernel_size: 3
    group: 256
    stride: 1
    weight_filler {
      type: "gaussian"
      std: 0.00999999977648
    }
  }
}
layer {
  name: "P5_inter_conv2_2"
  type: "Convolution"
  bottom: "P5_inter_conv2_1"
  top: "P5_inter_conv2_2"
  param {
    lr_mult: 1.0
    decay_mult: 1.0
  }
  convolution_param {
    num_output: 256
    bias_term: false
    pad: 0
    kernel_size: 1
    stride: 1
    weight_filler {
      type: "gaussian"
      std: 0.00999999977648
    }
  }
}
layer {
  name: "bnP5_inter_conv2_2"
  type: "BatchNorm"
  bottom: "P5_inter_conv2_2"
  top: "P5_inter_conv2_2"
}
layer {
  name: "scaleP5_inter_conv2_2"
  type: "Scale"
  bottom: "P5_inter_conv2_2"
  top: "P5_inter_conv2_2"
  scale_param {
    bias_term: true
  }
}
layer {
  name: "P5_inter_eltwise"
  type: "Eltwise"
  bottom: "P5_inter_match"
  bottom: "P5_inter_conv2_2"
  top: "P5_inter_eltwise"
}
layer {
  name: "P5_inter_eltwise_mbox_loc"
  type: "Convolution"
  bottom: "P5_inter_eltwise"
  top: "P5_inter_eltwise_mbox_loc"
  param {
    lr_mult: 1.0
    decay_mult: 1.0
  }
  param {
    lr_mult: 2.0
    decay_mult: 0.0
  }
  convolution_param {
    num_output: 12
    pad: 1
    kernel_size: 3
    stride: 1
    weight_filler {
      type: "xavier"
    }
    bias_filler {
      type: "constant"
      value: 0.0
    }
  }
}
layer {
  name: "P5_inter_eltwise_mbox_loc_perm"
  type: "Permute"
  bottom: "P5_inter_eltwise_mbox_loc"
  top: "P5_inter_eltwise_mbox_loc_perm"
  permute_param {
    order: 0
    order: 2
    order: 3
    order: 1
  }
}
layer {
  name: "P5_inter_eltwise_mbox_loc_flat"
  type: "Flatten"
  bottom: "P5_inter_eltwise_mbox_loc_perm"
  top: "P5_inter_eltwise_mbox_loc_flat"
  flatten_param {
    axis: 1
  }
}
layer {
  name: "P5_inter_eltwise_mbox_conf"
  type: "Convolution"
  bottom: "P5_inter_eltwise"
  top: "P5_inter_eltwise_mbox_conf"
  param {
    lr_mult: 1.0
    decay_mult: 1.0
  }
  param {
    lr_mult: 2.0
    decay_mult: 0.0
  }
  convolution_param {
    num_output: 243
    pad: 1
    kernel_size: 3
    stride: 1
    weight_filler {
      type: "xavier"
    }
    bias_filler {
      type: "constant"
      value: 0.0
    }
  }
}
layer {
  name: "P5_inter_eltwise_mbox_conf_perm"
  type: "Permute"
  bottom: "P5_inter_eltwise_mbox_conf"
  top: "P5_inter_eltwise_mbox_conf_perm"
  permute_param {
    order: 0
    order: 2
    order: 3
    order: 1
  }
}
layer {
  name: "P5_inter_eltwise_mbox_conf_flat"
  type: "Flatten"
  bottom: "P5_inter_eltwise_mbox_conf_perm"
  top: "P5_inter_eltwise_mbox_conf_flat"
  flatten_param {
    axis: 1
  }
}
layer {
  name: "P6_inter_match"
  type: "Convolution"
  bottom: "P6"
  top: "P6_inter_match"
  param {
    lr_mult: 1.0
    decay_mult: 1.0
  }
  convolution_param {
    num_output: 256
    bias_term: false
    pad: 0
    kernel_size: 1
    stride: 1
    weight_filler {
      type: "gaussian"
      std: 0.00999999977648
    }
  }
}
layer {
  name: "bnP6_inter_match"
  type: "BatchNorm"
  bottom: "P6_inter_match"
  top: "P6_inter_match"
}
layer {
  name: "scaleP6_inter_match"
  type: "Scale"
  bottom: "P6_inter_match"
  top: "P6_inter_match"
  scale_param {
    bias_term: true
  }
}
layer {
  name: "P6_inter_relu"
  type: "ReLU"
  bottom: "P6"
  top: "P6_inter_relu"
}
layer {
  name: "P6_inter_conv1_1"
  type: "ConvolutionDepthwise"
  bottom: "P6_inter_relu"
  top: "P6_inter_conv1_1"
  param {
    lr_mult: 1.0
    decay_mult: 1.0
  }
  convolution_param {
    num_output: 256
    bias_term: false
    pad: 1
    kernel_size: 3
    group: 256
    stride: 1
    weight_filler {
      type: "gaussian"
      std: 0.00999999977648
    }
  }
}
layer {
  name: "P6_inter_conv1_2"
  type: "Convolution"
  bottom: "P6_inter_conv1_1"
  top: "P6_inter_conv1_2"
  param {
    lr_mult: 1.0
    decay_mult: 1.0
  }
  convolution_param {
    num_output: 256
    bias_term: false
    pad: 0
    kernel_size: 1
    stride: 1
    weight_filler {
      type: "gaussian"
      std: 0.00999999977648
    }
  }
}
layer {
  name: "bnP6_inter_conv1_2"
  type: "BatchNorm"
  bottom: "P6_inter_conv1_2"
  top: "P6_inter_conv1_2"
}
layer {
  name: "scaleP6_inter_conv1_2"
  type: "Scale"
  bottom: "P6_inter_conv1_2"
  top: "P6_inter_conv1_2"
  scale_param {
    bias_term: true
  }
}
layer {
  name: "P6_inter_conv1_2_relu"
  type: "ReLU"
  bottom: "P6_inter_conv1_2"
  top: "P6_inter_conv1_2"
}
layer {
  name: "P6_inter_conv2_1"
  type: "ConvolutionDepthwise"
  bottom: "P6_inter_conv1_2"
  top: "P6_inter_conv2_1"
  param {
    lr_mult: 1.0
    decay_mult: 1.0
  }
  convolution_param {
    num_output: 256
    bias_term: false
    pad: 1
    kernel_size: 3
    group: 256
    stride: 1
    weight_filler {
      type: "gaussian"
      std: 0.00999999977648
    }
  }
}
layer {
  name: "P6_inter_conv2_2"
  type: "Convolution"
  bottom: "P6_inter_conv2_1"
  top: "P6_inter_conv2_2"
  param {
    lr_mult: 1.0
    decay_mult: 1.0
  }
  convolution_param {
    num_output: 256
    bias_term: false
    pad: 0
    kernel_size: 1
    stride: 1
    weight_filler {
      type: "gaussian"
      std: 0.00999999977648
    }
  }
}
layer {
  name: "bnP6_inter_conv2_2"
  type: "BatchNorm"
  bottom: "P6_inter_conv2_2"
  top: "P6_inter_conv2_2"
}
layer {
  name: "scaleP6_inter_conv2_2"
  type: "Scale"
  bottom: "P6_inter_conv2_2"
  top: "P6_inter_conv2_2"
  scale_param {
    bias_term: true
  }
}
layer {
  name: "P6_inter_eltwise"
  type: "Eltwise"
  bottom: "P6_inter_match"
  bottom: "P6_inter_conv2_2"
  top: "P6_inter_eltwise"
}
layer {
  name: "P6_inter_eltwise_mbox_loc"
  type: "Convolution"
  bottom: "P6_inter_eltwise"
  top: "P6_inter_eltwise_mbox_loc"
  param {
    lr_mult: 1.0
    decay_mult: 1.0
  }
  param {
    lr_mult: 2.0
    decay_mult: 0.0
  }
  convolution_param {
    num_output: 12
    pad: 1
    kernel_size: 3
    stride: 1
    weight_filler {
      type: "xavier"
    }
    bias_filler {
      type: "constant"
      value: 0.0
    }
  }
}
layer {
  name: "P6_inter_eltwise_mbox_loc_perm"
  type: "Permute"
  bottom: "P6_inter_eltwise_mbox_loc"
  top: "P6_inter_eltwise_mbox_loc_perm"
  permute_param {
    order: 0
    order: 2
    order: 3
    order: 1
  }
}
layer {
  name: "P6_inter_eltwise_mbox_loc_flat"
  type: "Flatten"
  bottom: "P6_inter_eltwise_mbox_loc_perm"
  top: "P6_inter_eltwise_mbox_loc_flat"
  flatten_param {
    axis: 1
  }
}
layer {
  name: "P6_inter_eltwise_mbox_conf"
  type: "Convolution"
  bottom: "P6_inter_eltwise"
  top: "P6_inter_eltwise_mbox_conf"
  param {
    lr_mult: 1.0
    decay_mult: 1.0
  }
  param {
    lr_mult: 2.0
    decay_mult: 0.0
  }
  convolution_param {
    num_output: 243
    pad: 1
    kernel_size: 3
    stride: 1
    weight_filler {
      type: "xavier"
    }
    bias_filler {
      type: "constant"
      value: 0.0
    }
  }
}
layer {
  name: "P6_inter_eltwise_mbox_conf_perm"
  type: "Permute"
  bottom: "P6_inter_eltwise_mbox_conf"
  top: "P6_inter_eltwise_mbox_conf_perm"
  permute_param {
    order: 0
    order: 2
    order: 3
    order: 1
  }
}
layer {
  name: "P6_inter_eltwise_mbox_conf_flat"
  type: "Flatten"
  bottom: "P6_inter_eltwise_mbox_conf_perm"
  top: "P6_inter_eltwise_mbox_conf_flat"
  flatten_param {
    axis: 1
  }
}
layer {
  name: "odm_loc"
  type: "Concat"
  bottom: "P3_inter_eltwise_mbox_loc_flat"
  bottom: "P4_inter_eltwise_mbox_loc_flat"
  bottom: "P5_inter_eltwise_mbox_loc_flat"
  bottom: "P6_inter_eltwise_mbox_loc_flat"
  top: "odm_loc"
  concat_param {
    axis: 1
  }
}
layer {
  name: "odm_conf"
  type: "Concat"
  bottom: "P3_inter_eltwise_mbox_conf_flat"
  bottom: "P4_inter_eltwise_mbox_conf_flat"
  bottom: "P5_inter_eltwise_mbox_conf_flat"
  bottom: "P6_inter_eltwise_mbox_conf_flat"
  top: "odm_conf"
  concat_param {
    axis: 1
  }
}
layer {
  name: "arm_conf_reshape"
  type: "Reshape"
  bottom: "arm_conf"
  top: "arm_conf_reshape"
  reshape_param {
    shape {
      dim: 0
      dim: -1
      dim: 2
    }
  }
}
layer {
  name: "arm_conf_softmax"
  type: "Softmax"
  bottom: "arm_conf_reshape"
  top: "arm_conf_softmax"
  softmax_param {
    axis: 2
  }
}
layer {
  name: "arm_conf_flatten"
  type: "Flatten"
  bottom: "arm_conf_softmax"
  top: "arm_conf_flatten"
  flatten_param {
    axis: 1
  }
}
layer {
  name: "odm_conf_reshape"
  type: "Reshape"
  bottom: "odm_conf"
  top: "odm_conf_reshape"
  reshape_param {
    shape {
      dim: 0
      dim: -1
      dim: 81
    }
  }
}
layer {
  name: "odm_conf_softmax"
  type: "Softmax"
  bottom: "odm_conf_reshape"
  top: "odm_conf_softmax"
  softmax_param {
    axis: 2
  }
}
layer {
  name: "odm_conf_flatten"
  type: "Flatten"
  bottom: "odm_conf_softmax"
  top: "odm_conf_flatten"
  flatten_param {
    axis: 1
  }
}
layer {
  name: "detection_out"
  type: "DetectionOutput"
  bottom: "odm_loc"
  bottom: "odm_conf_flatten"
  bottom: "arm_priorbox"
  bottom: "arm_conf_flatten"
  bottom: "arm_loc"
  top: "detection_out"
  include {
    phase: TEST
  }
  detection_output_param {
    num_classes: 81
    share_location: true
    background_label_id: 0
    nms_param {
      nms_threshold: 0.449999988079
      top_k: 400
    }
    code_type: CENTER_SIZE
    keep_top_k: 200
    confidence_threshold: 0.10000000149
    objectness_score: 0.00999999977648
  }
}

