name: "coco_refinedet_sebninception_320x320_deploy"
input: "data"
input_shape {
  dim: 1
  dim: 3
  dim: 320
  dim: 320
}
layer {
  name: "conv1/7x7_s2"
  type: "Convolution"
  bottom: "data"
  top: "conv1/7x7_s2"
  param {
    lr_mult: 1.0
    decay_mult: 1.0
  }
  convolution_param {
    num_output: 64
    bias_term: false
    pad: 3
    kernel_size: 7
    stride: 2
    weight_filler {
      type: "gaussian"
      std: 0.00999999977648
    }
  }
}
layer {
  name: "conv1/7x7_s2/bn"
  type: "BatchNorm"
  bottom: "conv1/7x7_s2"
  top: "conv1/7x7_s2"
}
layer {
  name: "conv1/7x7_s2/bn/scale"
  type: "Scale"
  bottom: "conv1/7x7_s2"
  top: "conv1/7x7_s2"
  scale_param {
    bias_term: true
  }
}
layer {
  name: "conv1/relu_7x7"
  type: "ReLU"
  bottom: "conv1/7x7_s2"
  top: "conv1/7x7_s2"
}
layer {
  name: "pool1/3x3_s2"
  type: "Pooling"
  bottom: "conv1/7x7_s2"
  top: "pool1/3x3_s2"
  pooling_param {
    pool: MAX
    kernel_size: 3
    stride: 2
  }
}
layer {
  name: "conv2/3x3_reduce"
  type: "Convolution"
  bottom: "pool1/3x3_s2"
  top: "conv2/3x3_reduce"
  param {
    lr_mult: 1.0
    decay_mult: 1.0
  }
  convolution_param {
    num_output: 64
    bias_term: false
    pad: 0
    kernel_size: 1
    stride: 1
    weight_filler {
      type: "gaussian"
      std: 0.00999999977648
    }
  }
}
layer {
  name: "conv2/3x3_reduce/bn"
  type: "BatchNorm"
  bottom: "conv2/3x3_reduce"
  top: "conv2/3x3_reduce"
}
layer {
  name: "conv2/3x3_reduce/bn/scale"
  type: "Scale"
  bottom: "conv2/3x3_reduce"
  top: "conv2/3x3_reduce"
  scale_param {
    bias_term: true
  }
}
layer {
  name: "conv2/relu_3x3_reduce"
  type: "ReLU"
  bottom: "conv2/3x3_reduce"
  top: "conv2/3x3_reduce"
}
layer {
  name: "conv2/3x3"
  type: "Convolution"
  bottom: "conv2/3x3_reduce"
  top: "conv2/3x3"
  param {
    lr_mult: 1.0
    decay_mult: 1.0
  }
  convolution_param {
    num_output: 192
    bias_term: false
    pad: 1
    kernel_size: 3
    stride: 1
    weight_filler {
      type: "gaussian"
      std: 0.00999999977648
    }
  }
}
layer {
  name: "conv2/3x3/bn"
  type: "BatchNorm"
  bottom: "conv2/3x3"
  top: "conv2/3x3"
}
layer {
  name: "conv2/3x3/bn/scale"
  type: "Scale"
  bottom: "conv2/3x3"
  top: "conv2/3x3"
  scale_param {
    bias_term: true
  }
}
layer {
  name: "conv2/relu_3x3"
  type: "ReLU"
  bottom: "conv2/3x3"
  top: "conv2/3x3"
}
layer {
  name: "pool2/3x3_s2"
  type: "Pooling"
  bottom: "conv2/3x3"
  top: "pool2/3x3_s2"
  pooling_param {
    pool: MAX
    kernel_size: 3
    stride: 2
  }
}
layer {
  name: "inception_3a/1x1"
  type: "Convolution"
  bottom: "pool2/3x3_s2"
  top: "inception_3a/1x1"
  param {
    lr_mult: 1.0
    decay_mult: 1.0
  }
  convolution_param {
    num_output: 64
    bias_term: false
    pad: 0
    kernel_size: 1
    stride: 1
    weight_filler {
      type: "gaussian"
      std: 0.00999999977648
    }
  }
}
layer {
  name: "inception_3a/1x1/bn"
  type: "BatchNorm"
  bottom: "inception_3a/1x1"
  top: "inception_3a/1x1"
}
layer {
  name: "inception_3a/1x1/bn/scale"
  type: "Scale"
  bottom: "inception_3a/1x1"
  top: "inception_3a/1x1"
  scale_param {
    bias_term: true
  }
}
layer {
  name: "inception_3a/relu_1x1"
  type: "ReLU"
  bottom: "inception_3a/1x1"
  top: "inception_3a/1x1"
}
layer {
  name: "inception_3a/3x3_reduce"
  type: "Convolution"
  bottom: "pool2/3x3_s2"
  top: "inception_3a/3x3_reduce"
  param {
    lr_mult: 1.0
    decay_mult: 1.0
  }
  convolution_param {
    num_output: 64
    bias_term: false
    pad: 0
    kernel_size: 1
    stride: 1
    weight_filler {
      type: "gaussian"
      std: 0.00999999977648
    }
  }
}
layer {
  name: "inception_3a/3x3_reduce/bn"
  type: "BatchNorm"
  bottom: "inception_3a/3x3_reduce"
  top: "inception_3a/3x3_reduce"
}
layer {
  name: "inception_3a/3x3_reduce/bn/scale"
  type: "Scale"
  bottom: "inception_3a/3x3_reduce"
  top: "inception_3a/3x3_reduce"
  scale_param {
    bias_term: true
  }
}
layer {
  name: "inception_3a/relu_3x3_reduce"
  type: "ReLU"
  bottom: "inception_3a/3x3_reduce"
  top: "inception_3a/3x3_reduce"
}
layer {
  name: "inception_3a/3x3"
  type: "Convolution"
  bottom: "inception_3a/3x3_reduce"
  top: "inception_3a/3x3"
  param {
    lr_mult: 1.0
    decay_mult: 1.0
  }
  convolution_param {
    num_output: 64
    bias_term: false
    pad: 1
    kernel_size: 3
    stride: 1
    weight_filler {
      type: "gaussian"
      std: 0.00999999977648
    }
  }
}
layer {
  name: "inception_3a/3x3/bn"
  type: "BatchNorm"
  bottom: "inception_3a/3x3"
  top: "inception_3a/3x3"
}
layer {
  name: "inception_3a/3x3/bn/scale"
  type: "Scale"
  bottom: "inception_3a/3x3"
  top: "inception_3a/3x3"
  scale_param {
    bias_term: true
  }
}
layer {
  name: "inception_3a/relu_3x3"
  type: "ReLU"
  bottom: "inception_3a/3x3"
  top: "inception_3a/3x3"
}
layer {
  name: "inception_3a/double3x3_reduce"
  type: "Convolution"
  bottom: "pool2/3x3_s2"
  top: "inception_3a/double3x3_reduce"
  param {
    lr_mult: 1.0
    decay_mult: 1.0
  }
  convolution_param {
    num_output: 64
    bias_term: false
    pad: 0
    kernel_size: 1
    stride: 1
    weight_filler {
      type: "gaussian"
      std: 0.00999999977648
    }
  }
}
layer {
  name: "inception_3a/double3x3_reduce/bn"
  type: "BatchNorm"
  bottom: "inception_3a/double3x3_reduce"
  top: "inception_3a/double3x3_reduce"
}
layer {
  name: "inception_3a/double3x3_reduce/bn/scale"
  type: "Scale"
  bottom: "inception_3a/double3x3_reduce"
  top: "inception_3a/double3x3_reduce"
  scale_param {
    bias_term: true
  }
}
layer {
  name: "inception_3a/relu_double3x3_reduce"
  type: "ReLU"
  bottom: "inception_3a/double3x3_reduce"
  top: "inception_3a/double3x3_reduce"
}
layer {
  name: "inception_3a/double3x3a"
  type: "Convolution"
  bottom: "inception_3a/double3x3_reduce"
  top: "inception_3a/double3x3a"
  param {
    lr_mult: 1.0
    decay_mult: 1.0
  }
  convolution_param {
    num_output: 96
    bias_term: false
    pad: 1
    kernel_size: 3
    stride: 1
    weight_filler {
      type: "gaussian"
      std: 0.00999999977648
    }
  }
}
layer {
  name: "inception_3a/double3x3a/bn"
  type: "BatchNorm"
  bottom: "inception_3a/double3x3a"
  top: "inception_3a/double3x3a"
}
layer {
  name: "inception_3a/double3x3a/bn/scale"
  type: "Scale"
  bottom: "inception_3a/double3x3a"
  top: "inception_3a/double3x3a"
  scale_param {
    bias_term: true
  }
}
layer {
  name: "inception_3a/relu_double3x3a"
  type: "ReLU"
  bottom: "inception_3a/double3x3a"
  top: "inception_3a/double3x3a"
}
layer {
  name: "inception_3a/double3x3b"
  type: "Convolution"
  bottom: "inception_3a/double3x3a"
  top: "inception_3a/double3x3b"
  param {
    lr_mult: 1.0
    decay_mult: 1.0
  }
  convolution_param {
    num_output: 96
    bias_term: false
    pad: 1
    kernel_size: 3
    stride: 1
    weight_filler {
      type: "gaussian"
      std: 0.00999999977648
    }
  }
}
layer {
  name: "inception_3a/double3x3b/bn"
  type: "BatchNorm"
  bottom: "inception_3a/double3x3b"
  top: "inception_3a/double3x3b"
}
layer {
  name: "inception_3a/double3x3b/bn/scale"
  type: "Scale"
  bottom: "inception_3a/double3x3b"
  top: "inception_3a/double3x3b"
  scale_param {
    bias_term: true
  }
}
layer {
  name: "inception_3a/relu_double3x3b"
  type: "ReLU"
  bottom: "inception_3a/double3x3b"
  top: "inception_3a/double3x3b"
}
layer {
  name: "inception_3a/pool"
  type: "Pooling"
  bottom: "pool2/3x3_s2"
  top: "inception_3a/pool"
  pooling_param {
    pool: AVE
    kernel_size: 3
    stride: 1
    pad: 1
  }
}
layer {
  name: "inception_3a/pool_proj"
  type: "Convolution"
  bottom: "inception_3a/pool"
  top: "inception_3a/pool_proj"
  param {
    lr_mult: 1.0
    decay_mult: 1.0
  }
  convolution_param {
    num_output: 32
    bias_term: false
    pad: 0
    kernel_size: 1
    stride: 1
    weight_filler {
      type: "gaussian"
      std: 0.00999999977648
    }
  }
}
layer {
  name: "inception_3a/pool_proj/bn"
  type: "BatchNorm"
  bottom: "inception_3a/pool_proj"
  top: "inception_3a/pool_proj"
}
layer {
  name: "inception_3a/pool_proj/bn/scale"
  type: "Scale"
  bottom: "inception_3a/pool_proj"
  top: "inception_3a/pool_proj"
  scale_param {
    bias_term: true
  }
}
layer {
  name: "inception_3a/relu_pool_proj"
  type: "ReLU"
  bottom: "inception_3a/pool_proj"
  top: "inception_3a/pool_proj"
}
layer {
  name: "inception_3a/concat"
  type: "Concat"
  bottom: "inception_3a/1x1"
  bottom: "inception_3a/3x3"
  bottom: "inception_3a/double3x3b"
  bottom: "inception_3a/pool_proj"
  top: "inception_3a/concat"
}
layer {
  name: "inception_3a_global_pool"
  type: "Pooling"
  bottom: "inception_3a/concat"
  top: "inception_3a_global_pool"
  pooling_param {
    pool: AVE
    engine: CAFFE
    global_pooling: true
  }
}
layer {
  name: "inception_3a_1x1_down"
  type: "Convolution"
  bottom: "inception_3a_global_pool"
  top: "inception_3a_1x1_down"
  param {
    lr_mult: 1.0
    decay_mult: 1.0
  }
  convolution_param {
    num_output: 16
    kernel_size: 1
    stride: 1
    weight_filler {
      type: "gaussian"
      std: 0.00999999977648
    }
  }
}
layer {
  name: "inception_3a_1x1_down/relu"
  type: "ReLU"
  bottom: "inception_3a_1x1_down"
  top: "inception_3a_1x1_down"
}
layer {
  name: "inception_3a_1x1_up"
  type: "Convolution"
  bottom: "inception_3a_1x1_down"
  top: "inception_3a_1x1_up"
  param {
    lr_mult: 1.0
    decay_mult: 1.0
  }
  convolution_param {
    num_output: 256
    kernel_size: 1
    stride: 1
    weight_filler {
      type: "gaussian"
      std: 0.00999999977648
    }
  }
}
layer {
  name: "inception_3a_prob"
  type: "Sigmoid"
  bottom: "inception_3a_1x1_up"
  top: "inception_3a_1x1_up"
}
layer {
  name: "inception_3a_prob_reshape"
  type: "Reshape"
  bottom: "inception_3a_1x1_up"
  top: "inception_3a_prob_reshape"
  reshape_param {
    shape {
      dim: 0
      dim: 0
    }
  }
}
layer {
  name: "inception_3a_scale"
  type: "Scale"
  bottom: "inception_3a/concat"
  bottom: "inception_3a_prob_reshape"
  top: "inception_3a_scale"
  scale_param {
    axis: 0
    bias_term: false
  }
}
layer {
  name: "inception_3b/1x1"
  type: "Convolution"
  bottom: "inception_3a_scale"
  top: "inception_3b/1x1"
  param {
    lr_mult: 1.0
    decay_mult: 1.0
  }
  convolution_param {
    num_output: 64
    bias_term: false
    pad: 0
    kernel_size: 1
    stride: 1
    weight_filler {
      type: "gaussian"
      std: 0.00999999977648
    }
  }
}
layer {
  name: "inception_3b/1x1/bn"
  type: "BatchNorm"
  bottom: "inception_3b/1x1"
  top: "inception_3b/1x1"
}
layer {
  name: "inception_3b/1x1/bn/scale"
  type: "Scale"
  bottom: "inception_3b/1x1"
  top: "inception_3b/1x1"
  scale_param {
    bias_term: true
  }
}
layer {
  name: "inception_3b/relu_1x1"
  type: "ReLU"
  bottom: "inception_3b/1x1"
  top: "inception_3b/1x1"
}
layer {
  name: "inception_3b/3x3_reduce"
  type: "Convolution"
  bottom: "inception_3a_scale"
  top: "inception_3b/3x3_reduce"
  param {
    lr_mult: 1.0
    decay_mult: 1.0
  }
  convolution_param {
    num_output: 64
    bias_term: false
    pad: 0
    kernel_size: 1
    stride: 1
    weight_filler {
      type: "gaussian"
      std: 0.00999999977648
    }
  }
}
layer {
  name: "inception_3b/3x3_reduce/bn"
  type: "BatchNorm"
  bottom: "inception_3b/3x3_reduce"
  top: "inception_3b/3x3_reduce"
}
layer {
  name: "inception_3b/3x3_reduce/bn/scale"
  type: "Scale"
  bottom: "inception_3b/3x3_reduce"
  top: "inception_3b/3x3_reduce"
  scale_param {
    bias_term: true
  }
}
layer {
  name: "inception_3b/relu_3x3_reduce"
  type: "ReLU"
  bottom: "inception_3b/3x3_reduce"
  top: "inception_3b/3x3_reduce"
}
layer {
  name: "inception_3b/3x3"
  type: "Convolution"
  bottom: "inception_3b/3x3_reduce"
  top: "inception_3b/3x3"
  param {
    lr_mult: 1.0
    decay_mult: 1.0
  }
  convolution_param {
    num_output: 96
    bias_term: false
    pad: 1
    kernel_size: 3
    stride: 1
    weight_filler {
      type: "gaussian"
      std: 0.00999999977648
    }
  }
}
layer {
  name: "inception_3b/3x3/bn"
  type: "BatchNorm"
  bottom: "inception_3b/3x3"
  top: "inception_3b/3x3"
}
layer {
  name: "inception_3b/3x3/bn/scale"
  type: "Scale"
  bottom: "inception_3b/3x3"
  top: "inception_3b/3x3"
  scale_param {
    bias_term: true
  }
}
layer {
  name: "inception_3b/relu_3x3"
  type: "ReLU"
  bottom: "inception_3b/3x3"
  top: "inception_3b/3x3"
}
layer {
  name: "inception_3b/double3x3_reduce"
  type: "Convolution"
  bottom: "inception_3a_scale"
  top: "inception_3b/double3x3_reduce"
  param {
    lr_mult: 1.0
    decay_mult: 1.0
  }
  convolution_param {
    num_output: 64
    bias_term: false
    pad: 0
    kernel_size: 1
    stride: 1
    weight_filler {
      type: "gaussian"
      std: 0.00999999977648
    }
  }
}
layer {
  name: "inception_3b/double3x3_reduce/bn"
  type: "BatchNorm"
  bottom: "inception_3b/double3x3_reduce"
  top: "inception_3b/double3x3_reduce"
}
layer {
  name: "inception_3b/double3x3_reduce/bn/scale"
  type: "Scale"
  bottom: "inception_3b/double3x3_reduce"
  top: "inception_3b/double3x3_reduce"
  scale_param {
    bias_term: true
  }
}
layer {
  name: "inception_3b/relu_double3x3_reduce"
  type: "ReLU"
  bottom: "inception_3b/double3x3_reduce"
  top: "inception_3b/double3x3_reduce"
}
layer {
  name: "inception_3b/double3x3a"
  type: "Convolution"
  bottom: "inception_3b/double3x3_reduce"
  top: "inception_3b/double3x3a"
  param {
    lr_mult: 1.0
    decay_mult: 1.0
  }
  convolution_param {
    num_output: 96
    bias_term: false
    pad: 1
    kernel_size: 3
    stride: 1
    weight_filler {
      type: "gaussian"
      std: 0.00999999977648
    }
  }
}
layer {
  name: "inception_3b/double3x3a/bn"
  type: "BatchNorm"
  bottom: "inception_3b/double3x3a"
  top: "inception_3b/double3x3a"
}
layer {
  name: "inception_3b/double3x3a/bn/scale"
  type: "Scale"
  bottom: "inception_3b/double3x3a"
  top: "inception_3b/double3x3a"
  scale_param {
    bias_term: true
  }
}
layer {
  name: "inception_3b/relu_double3x3a"
  type: "ReLU"
  bottom: "inception_3b/double3x3a"
  top: "inception_3b/double3x3a"
}
layer {
  name: "inception_3b/double3x3b"
  type: "Convolution"
  bottom: "inception_3b/double3x3a"
  top: "inception_3b/double3x3b"
  param {
    lr_mult: 1.0
    decay_mult: 1.0
  }
  convolution_param {
    num_output: 96
    bias_term: false
    pad: 1
    kernel_size: 3
    stride: 1
    weight_filler {
      type: "gaussian"
      std: 0.00999999977648
    }
  }
}
layer {
  name: "inception_3b/double3x3b/bn"
  type: "BatchNorm"
  bottom: "inception_3b/double3x3b"
  top: "inception_3b/double3x3b"
}
layer {
  name: "inception_3b/double3x3b/bn/scale"
  type: "Scale"
  bottom: "inception_3b/double3x3b"
  top: "inception_3b/double3x3b"
  scale_param {
    bias_term: true
  }
}
layer {
  name: "inception_3b/relu_double3x3b"
  type: "ReLU"
  bottom: "inception_3b/double3x3b"
  top: "inception_3b/double3x3b"
}
layer {
  name: "inception_3b/pool"
  type: "Pooling"
  bottom: "inception_3a_scale"
  top: "inception_3b/pool"
  pooling_param {
    pool: AVE
    kernel_size: 3
    stride: 1
    pad: 1
  }
}
layer {
  name: "inception_3b/pool_proj"
  type: "Convolution"
  bottom: "inception_3b/pool"
  top: "inception_3b/pool_proj"
  param {
    lr_mult: 1.0
    decay_mult: 1.0
  }
  convolution_param {
    num_output: 64
    bias_term: false
    pad: 0
    kernel_size: 1
    stride: 1
    weight_filler {
      type: "gaussian"
      std: 0.00999999977648
    }
  }
}
layer {
  name: "inception_3b/pool_proj/bn"
  type: "BatchNorm"
  bottom: "inception_3b/pool_proj"
  top: "inception_3b/pool_proj"
}
layer {
  name: "inception_3b/pool_proj/bn/scale"
  type: "Scale"
  bottom: "inception_3b/pool_proj"
  top: "inception_3b/pool_proj"
  scale_param {
    bias_term: true
  }
}
layer {
  name: "inception_3b/relu_pool_proj"
  type: "ReLU"
  bottom: "inception_3b/pool_proj"
  top: "inception_3b/pool_proj"
}
layer {
  name: "inception_3b/concat"
  type: "Concat"
  bottom: "inception_3b/1x1"
  bottom: "inception_3b/3x3"
  bottom: "inception_3b/double3x3b"
  bottom: "inception_3b/pool_proj"
  top: "inception_3b/concat"
}
layer {
  name: "inception_3b_global_pool"
  type: "Pooling"
  bottom: "inception_3b/concat"
  top: "inception_3b_global_pool"
  pooling_param {
    pool: AVE
    engine: CAFFE
    global_pooling: true
  }
}
layer {
  name: "inception_3b_1x1_down"
  type: "Convolution"
  bottom: "inception_3b_global_pool"
  top: "inception_3b_1x1_down"
  param {
    lr_mult: 1.0
    decay_mult: 1.0
  }
  convolution_param {
    num_output: 20
    kernel_size: 1
    stride: 1
    weight_filler {
      type: "gaussian"
      std: 0.00999999977648
    }
  }
}
layer {
  name: "inception_3b_1x1_down/relu"
  type: "ReLU"
  bottom: "inception_3b_1x1_down"
  top: "inception_3b_1x1_down"
}
layer {
  name: "inception_3b_1x1_up"
  type: "Convolution"
  bottom: "inception_3b_1x1_down"
  top: "inception_3b_1x1_up"
  param {
    lr_mult: 1.0
    decay_mult: 1.0
  }
  convolution_param {
    num_output: 320
    kernel_size: 1
    stride: 1
    weight_filler {
      type: "gaussian"
      std: 0.00999999977648
    }
  }
}
layer {
  name: "inception_3b_prob"
  type: "Sigmoid"
  bottom: "inception_3b_1x1_up"
  top: "inception_3b_1x1_up"
}
layer {
  name: "inception_3b_prob_reshape"
  type: "Reshape"
  bottom: "inception_3b_1x1_up"
  top: "inception_3b_prob_reshape"
  reshape_param {
    shape {
      dim: 0
      dim: 0
    }
  }
}
layer {
  name: "inception_3b_scale"
  type: "Scale"
  bottom: "inception_3b/concat"
  bottom: "inception_3b_prob_reshape"
  top: "inception_3b_scale"
  scale_param {
    axis: 0
    bias_term: false
  }
}
layer {
  name: "inception_3c/3x3_reduce"
  type: "Convolution"
  bottom: "inception_3b_scale"
  top: "inception_3c/3x3_reduce"
  param {
    lr_mult: 1.0
    decay_mult: 1.0
  }
  convolution_param {
    num_output: 128
    bias_term: false
    pad: 0
    kernel_size: 1
    stride: 1
    weight_filler {
      type: "gaussian"
      std: 0.00999999977648
    }
  }
}
layer {
  name: "inception_3c/3x3_reduce/bn"
  type: "BatchNorm"
  bottom: "inception_3c/3x3_reduce"
  top: "inception_3c/3x3_reduce"
}
layer {
  name: "inception_3c/3x3_reduce/bn/scale"
  type: "Scale"
  bottom: "inception_3c/3x3_reduce"
  top: "inception_3c/3x3_reduce"
  scale_param {
    bias_term: true
  }
}
layer {
  name: "inception_3c/relu_3x3_reduce"
  type: "ReLU"
  bottom: "inception_3c/3x3_reduce"
  top: "inception_3c/3x3_reduce"
}
layer {
  name: "inception_3c/3x3"
  type: "Convolution"
  bottom: "inception_3c/3x3_reduce"
  top: "inception_3c/3x3"
  param {
    lr_mult: 1.0
    decay_mult: 1.0
  }
  convolution_param {
    num_output: 160
    bias_term: false
    pad: 1
    kernel_size: 3
    stride: 2
    weight_filler {
      type: "gaussian"
      std: 0.00999999977648
    }
  }
}
layer {
  name: "inception_3c/3x3/bn"
  type: "BatchNorm"
  bottom: "inception_3c/3x3"
  top: "inception_3c/3x3"
}
layer {
  name: "inception_3c/3x3/bn/scale"
  type: "Scale"
  bottom: "inception_3c/3x3"
  top: "inception_3c/3x3"
  scale_param {
    bias_term: true
  }
}
layer {
  name: "inception_3c/relu_3x3"
  type: "ReLU"
  bottom: "inception_3c/3x3"
  top: "inception_3c/3x3"
}
layer {
  name: "inception_3c/double3x3_reduce"
  type: "Convolution"
  bottom: "inception_3b_scale"
  top: "inception_3c/double3x3_reduce"
  param {
    lr_mult: 1.0
    decay_mult: 1.0
  }
  convolution_param {
    num_output: 64
    bias_term: false
    pad: 0
    kernel_size: 1
    stride: 1
    weight_filler {
      type: "gaussian"
      std: 0.00999999977648
    }
  }
}
layer {
  name: "inception_3c/double3x3_reduce/bn"
  type: "BatchNorm"
  bottom: "inception_3c/double3x3_reduce"
  top: "inception_3c/double3x3_reduce"
}
layer {
  name: "inception_3c/double3x3_reduce/bn/scale"
  type: "Scale"
  bottom: "inception_3c/double3x3_reduce"
  top: "inception_3c/double3x3_reduce"
  scale_param {
    bias_term: true
  }
}
layer {
  name: "inception_3c/relu_double3x3_reduce"
  type: "ReLU"
  bottom: "inception_3c/double3x3_reduce"
  top: "inception_3c/double3x3_reduce"
}
layer {
  name: "inception_3c/double3x3a"
  type: "Convolution"
  bottom: "inception_3c/double3x3_reduce"
  top: "inception_3c/double3x3a"
  param {
    lr_mult: 1.0
    decay_mult: 1.0
  }
  convolution_param {
    num_output: 96
    bias_term: false
    pad: 1
    kernel_size: 3
    stride: 1
    weight_filler {
      type: "gaussian"
      std: 0.00999999977648
    }
  }
}
layer {
  name: "inception_3c/double3x3a/bn"
  type: "BatchNorm"
  bottom: "inception_3c/double3x3a"
  top: "inception_3c/double3x3a"
}
layer {
  name: "inception_3c/double3x3a/bn/scale"
  type: "Scale"
  bottom: "inception_3c/double3x3a"
  top: "inception_3c/double3x3a"
  scale_param {
    bias_term: true
  }
}
layer {
  name: "inception_3c/relu_double3x3a"
  type: "ReLU"
  bottom: "inception_3c/double3x3a"
  top: "inception_3c/double3x3a"
}
layer {
  name: "inception_3c/double3x3b"
  type: "Convolution"
  bottom: "inception_3c/double3x3a"
  top: "inception_3c/double3x3b"
  param {
    lr_mult: 1.0
    decay_mult: 1.0
  }
  convolution_param {
    num_output: 96
    bias_term: false
    pad: 1
    kernel_size: 3
    stride: 2
    weight_filler {
      type: "gaussian"
      std: 0.00999999977648
    }
  }
}
layer {
  name: "inception_3c/double3x3b/bn"
  type: "BatchNorm"
  bottom: "inception_3c/double3x3b"
  top: "inception_3c/double3x3b"
}
layer {
  name: "inception_3c/double3x3b/bn/scale"
  type: "Scale"
  bottom: "inception_3c/double3x3b"
  top: "inception_3c/double3x3b"
  scale_param {
    bias_term: true
  }
}
layer {
  name: "inception_3c/relu_double3x3b"
  type: "ReLU"
  bottom: "inception_3c/double3x3b"
  top: "inception_3c/double3x3b"
}
layer {
  name: "inception_3c/pool/3x3_s2"
  type: "Pooling"
  bottom: "inception_3b_scale"
  top: "inception_3c/pool/3x3_s2"
  pooling_param {
    pool: AVE
    kernel_size: 3
    stride: 2
  }
}
layer {
  name: "inception_3c/concat"
  type: "Concat"
  bottom: "inception_3c/3x3"
  bottom: "inception_3c/double3x3b"
  bottom: "inception_3c/pool/3x3_s2"
  top: "inception_3c/concat"
}
layer {
  name: "inception_3c_global_pool"
  type: "Pooling"
  bottom: "inception_3c/concat"
  top: "inception_3c_global_pool"
  pooling_param {
    pool: AVE
    engine: CAFFE
    global_pooling: true
  }
}
layer {
  name: "inception_3c_1x1_down"
  type: "Convolution"
  bottom: "inception_3c_global_pool"
  top: "inception_3c_1x1_down"
  param {
    lr_mult: 1.0
    decay_mult: 1.0
  }
  convolution_param {
    num_output: 36
    kernel_size: 1
    stride: 1
    weight_filler {
      type: "gaussian"
      std: 0.00999999977648
    }
  }
}
layer {
  name: "inception_3c_1x1_down/relu"
  type: "ReLU"
  bottom: "inception_3c_1x1_down"
  top: "inception_3c_1x1_down"
}
layer {
  name: "inception_3c_1x1_up"
  type: "Convolution"
  bottom: "inception_3c_1x1_down"
  top: "inception_3c_1x1_up"
  param {
    lr_mult: 1.0
    decay_mult: 1.0
  }
  convolution_param {
    num_output: 576
    kernel_size: 1
    stride: 1
    weight_filler {
      type: "gaussian"
      std: 0.00999999977648
    }
  }
}
layer {
  name: "inception_3c_prob"
  type: "Sigmoid"
  bottom: "inception_3c_1x1_up"
  top: "inception_3c_1x1_up"
}
layer {
  name: "inception_3c_prob_reshape"
  type: "Reshape"
  bottom: "inception_3c_1x1_up"
  top: "inception_3c_prob_reshape"
  reshape_param {
    shape {
      dim: 0
      dim: 0
    }
  }
}
layer {
  name: "inception_3c_scale"
  type: "Scale"
  bottom: "inception_3c/concat"
  bottom: "inception_3c_prob_reshape"
  top: "inception_3c_scale"
  scale_param {
    axis: 0
    bias_term: false
  }
}
layer {
  name: "inception_4a/1x1"
  type: "Convolution"
  bottom: "inception_3c_scale"
  top: "inception_4a/1x1"
  param {
    lr_mult: 1.0
    decay_mult: 1.0
  }
  convolution_param {
    num_output: 224
    bias_term: false
    pad: 0
    kernel_size: 1
    stride: 1
    weight_filler {
      type: "gaussian"
      std: 0.00999999977648
    }
  }
}
layer {
  name: "inception_4a/1x1/bn"
  type: "BatchNorm"
  bottom: "inception_4a/1x1"
  top: "inception_4a/1x1"
}
layer {
  name: "inception_4a/1x1/bn/scale"
  type: "Scale"
  bottom: "inception_4a/1x1"
  top: "inception_4a/1x1"
  scale_param {
    bias_term: true
  }
}
layer {
  name: "inception_4a/relu_1x1"
  type: "ReLU"
  bottom: "inception_4a/1x1"
  top: "inception_4a/1x1"
}
layer {
  name: "inception_4a/3x3_reduce"
  type: "Convolution"
  bottom: "inception_3c_scale"
  top: "inception_4a/3x3_reduce"
  param {
    lr_mult: 1.0
    decay_mult: 1.0
  }
  convolution_param {
    num_output: 64
    bias_term: false
    pad: 0
    kernel_size: 1
    stride: 1
    weight_filler {
      type: "gaussian"
      std: 0.00999999977648
    }
  }
}
layer {
  name: "inception_4a/3x3_reduce/bn"
  type: "BatchNorm"
  bottom: "inception_4a/3x3_reduce"
  top: "inception_4a/3x3_reduce"
}
layer {
  name: "inception_4a/3x3_reduce/bn/scale"
  type: "Scale"
  bottom: "inception_4a/3x3_reduce"
  top: "inception_4a/3x3_reduce"
  scale_param {
    bias_term: true
  }
}
layer {
  name: "inception_4a/relu_3x3_reduce"
  type: "ReLU"
  bottom: "inception_4a/3x3_reduce"
  top: "inception_4a/3x3_reduce"
}
layer {
  name: "inception_4a/3x3"
  type: "Convolution"
  bottom: "inception_4a/3x3_reduce"
  top: "inception_4a/3x3"
  param {
    lr_mult: 1.0
    decay_mult: 1.0
  }
  convolution_param {
    num_output: 96
    bias_term: false
    pad: 1
    kernel_size: 3
    stride: 1
    weight_filler {
      type: "gaussian"
      std: 0.00999999977648
    }
  }
}
layer {
  name: "inception_4a/3x3/bn"
  type: "BatchNorm"
  bottom: "inception_4a/3x3"
  top: "inception_4a/3x3"
}
layer {
  name: "inception_4a/3x3/bn/scale"
  type: "Scale"
  bottom: "inception_4a/3x3"
  top: "inception_4a/3x3"
  scale_param {
    bias_term: true
  }
}
layer {
  name: "inception_4a/relu_3x3"
  type: "ReLU"
  bottom: "inception_4a/3x3"
  top: "inception_4a/3x3"
}
layer {
  name: "inception_4a/double3x3_reduce"
  type: "Convolution"
  bottom: "inception_3c_scale"
  top: "inception_4a/double3x3_reduce"
  param {
    lr_mult: 1.0
    decay_mult: 1.0
  }
  convolution_param {
    num_output: 96
    bias_term: false
    pad: 0
    kernel_size: 1
    stride: 1
    weight_filler {
      type: "gaussian"
      std: 0.00999999977648
    }
  }
}
layer {
  name: "inception_4a/double3x3_reduce/bn"
  type: "BatchNorm"
  bottom: "inception_4a/double3x3_reduce"
  top: "inception_4a/double3x3_reduce"
}
layer {
  name: "inception_4a/double3x3_reduce/bn/scale"
  type: "Scale"
  bottom: "inception_4a/double3x3_reduce"
  top: "inception_4a/double3x3_reduce"
  scale_param {
    bias_term: true
  }
}
layer {
  name: "inception_4a/relu_double3x3_reduce"
  type: "ReLU"
  bottom: "inception_4a/double3x3_reduce"
  top: "inception_4a/double3x3_reduce"
}
layer {
  name: "inception_4a/double3x3a"
  type: "Convolution"
  bottom: "inception_4a/double3x3_reduce"
  top: "inception_4a/double3x3a"
  param {
    lr_mult: 1.0
    decay_mult: 1.0
  }
  convolution_param {
    num_output: 128
    bias_term: false
    pad: 1
    kernel_size: 3
    stride: 1
    weight_filler {
      type: "gaussian"
      std: 0.00999999977648
    }
  }
}
layer {
  name: "inception_4a/double3x3a/bn"
  type: "BatchNorm"
  bottom: "inception_4a/double3x3a"
  top: "inception_4a/double3x3a"
}
layer {
  name: "inception_4a/double3x3a/bn/scale"
  type: "Scale"
  bottom: "inception_4a/double3x3a"
  top: "inception_4a/double3x3a"
  scale_param {
    bias_term: true
  }
}
layer {
  name: "inception_4a/relu_double3x3a"
  type: "ReLU"
  bottom: "inception_4a/double3x3a"
  top: "inception_4a/double3x3a"
}
layer {
  name: "inception_4a/double3x3b"
  type: "Convolution"
  bottom: "inception_4a/double3x3a"
  top: "inception_4a/double3x3b"
  param {
    lr_mult: 1.0
    decay_mult: 1.0
  }
  convolution_param {
    num_output: 128
    bias_term: false
    pad: 1
    kernel_size: 3
    stride: 1
    weight_filler {
      type: "gaussian"
      std: 0.00999999977648
    }
  }
}
layer {
  name: "inception_4a/double3x3b/bn"
  type: "BatchNorm"
  bottom: "inception_4a/double3x3b"
  top: "inception_4a/double3x3b"
}
layer {
  name: "inception_4a/double3x3b/bn/scale"
  type: "Scale"
  bottom: "inception_4a/double3x3b"
  top: "inception_4a/double3x3b"
  scale_param {
    bias_term: true
  }
}
layer {
  name: "inception_4a/relu_double3x3b"
  type: "ReLU"
  bottom: "inception_4a/double3x3b"
  top: "inception_4a/double3x3b"
}
layer {
  name: "inception_4a/pool"
  type: "Pooling"
  bottom: "inception_3c_scale"
  top: "inception_4a/pool"
  pooling_param {
    pool: AVE
    kernel_size: 3
    stride: 1
    pad: 1
  }
}
layer {
  name: "inception_4a/pool_proj"
  type: "Convolution"
  bottom: "inception_4a/pool"
  top: "inception_4a/pool_proj"
  param {
    lr_mult: 1.0
    decay_mult: 1.0
  }
  convolution_param {
    num_output: 128
    bias_term: false
    pad: 0
    kernel_size: 1
    stride: 1
    weight_filler {
      type: "gaussian"
      std: 0.00999999977648
    }
  }
}
layer {
  name: "inception_4a/pool_proj/bn"
  type: "BatchNorm"
  bottom: "inception_4a/pool_proj"
  top: "inception_4a/pool_proj"
}
layer {
  name: "inception_4a/pool_proj/bn/scale"
  type: "Scale"
  bottom: "inception_4a/pool_proj"
  top: "inception_4a/pool_proj"
  scale_param {
    bias_term: true
  }
}
layer {
  name: "inception_4a/relu_pool_proj"
  type: "ReLU"
  bottom: "inception_4a/pool_proj"
  top: "inception_4a/pool_proj"
}
layer {
  name: "inception_4a/concat"
  type: "Concat"
  bottom: "inception_4a/1x1"
  bottom: "inception_4a/3x3"
  bottom: "inception_4a/double3x3b"
  bottom: "inception_4a/pool_proj"
  top: "inception_4a/concat"
}
layer {
  name: "inception_4a_global_pool"
  type: "Pooling"
  bottom: "inception_4a/concat"
  top: "inception_4a_global_pool"
  pooling_param {
    pool: AVE
    engine: CAFFE
    global_pooling: true
  }
}
layer {
  name: "inception_4a_1x1_down"
  type: "Convolution"
  bottom: "inception_4a_global_pool"
  top: "inception_4a_1x1_down"
  param {
    lr_mult: 1.0
    decay_mult: 1.0
  }
  convolution_param {
    num_output: 36
    kernel_size: 1
    stride: 1
    weight_filler {
      type: "gaussian"
      std: 0.00999999977648
    }
  }
}
layer {
  name: "inception_4a_1x1_down/relu"
  type: "ReLU"
  bottom: "inception_4a_1x1_down"
  top: "inception_4a_1x1_down"
}
layer {
  name: "inception_4a_1x1_up"
  type: "Convolution"
  bottom: "inception_4a_1x1_down"
  top: "inception_4a_1x1_up"
  param {
    lr_mult: 1.0
    decay_mult: 1.0
  }
  convolution_param {
    num_output: 576
    kernel_size: 1
    stride: 1
    weight_filler {
      type: "gaussian"
      std: 0.00999999977648
    }
  }
}
layer {
  name: "inception_4a_prob"
  type: "Sigmoid"
  bottom: "inception_4a_1x1_up"
  top: "inception_4a_1x1_up"
}
layer {
  name: "inception_4a_prob_reshape"
  type: "Reshape"
  bottom: "inception_4a_1x1_up"
  top: "inception_4a_prob_reshape"
  reshape_param {
    shape {
      dim: 0
      dim: 0
    }
  }
}
layer {
  name: "inception_4a_scale"
  type: "Scale"
  bottom: "inception_4a/concat"
  bottom: "inception_4a_prob_reshape"
  top: "inception_4a_scale"
  scale_param {
    axis: 0
    bias_term: false
  }
}
layer {
  name: "inception_4b/1x1"
  type: "Convolution"
  bottom: "inception_4a_scale"
  top: "inception_4b/1x1"
  param {
    lr_mult: 1.0
    decay_mult: 1.0
  }
  convolution_param {
    num_output: 192
    bias_term: false
    pad: 0
    kernel_size: 1
    stride: 1
    weight_filler {
      type: "gaussian"
      std: 0.00999999977648
    }
  }
}
layer {
  name: "inception_4b/1x1/bn"
  type: "BatchNorm"
  bottom: "inception_4b/1x1"
  top: "inception_4b/1x1"
}
layer {
  name: "inception_4b/1x1/bn/scale"
  type: "Scale"
  bottom: "inception_4b/1x1"
  top: "inception_4b/1x1"
  scale_param {
    bias_term: true
  }
}
layer {
  name: "inception_4b/relu_1x1"
  type: "ReLU"
  bottom: "inception_4b/1x1"
  top: "inception_4b/1x1"
}
layer {
  name: "inception_4b/3x3_reduce"
  type: "Convolution"
  bottom: "inception_4a_scale"
  top: "inception_4b/3x3_reduce"
  param {
    lr_mult: 1.0
    decay_mult: 1.0
  }
  convolution_param {
    num_output: 96
    bias_term: false
    pad: 0
    kernel_size: 1
    stride: 1
    weight_filler {
      type: "gaussian"
      std: 0.00999999977648
    }
  }
}
layer {
  name: "inception_4b/3x3_reduce/bn"
  type: "BatchNorm"
  bottom: "inception_4b/3x3_reduce"
  top: "inception_4b/3x3_reduce"
}
layer {
  name: "inception_4b/3x3_reduce/bn/scale"
  type: "Scale"
  bottom: "inception_4b/3x3_reduce"
  top: "inception_4b/3x3_reduce"
  scale_param {
    bias_term: true
  }
}
layer {
  name: "inception_4b/relu_3x3_reduce"
  type: "ReLU"
  bottom: "inception_4b/3x3_reduce"
  top: "inception_4b/3x3_reduce"
}
layer {
  name: "inception_4b/3x3"
  type: "Convolution"
  bottom: "inception_4b/3x3_reduce"
  top: "inception_4b/3x3"
  param {
    lr_mult: 1.0
    decay_mult: 1.0
  }
  convolution_param {
    num_output: 128
    bias_term: false
    pad: 1
    kernel_size: 3
    stride: 1
    weight_filler {
      type: "gaussian"
      std: 0.00999999977648
    }
  }
}
layer {
  name: "inception_4b/3x3/bn"
  type: "BatchNorm"
  bottom: "inception_4b/3x3"
  top: "inception_4b/3x3"
}
layer {
  name: "inception_4b/3x3/bn/scale"
  type: "Scale"
  bottom: "inception_4b/3x3"
  top: "inception_4b/3x3"
  scale_param {
    bias_term: true
  }
}
layer {
  name: "inception_4b/relu_3x3"
  type: "ReLU"
  bottom: "inception_4b/3x3"
  top: "inception_4b/3x3"
}
layer {
  name: "inception_4b/double3x3_reduce"
  type: "Convolution"
  bottom: "inception_4a_scale"
  top: "inception_4b/double3x3_reduce"
  param {
    lr_mult: 1.0
    decay_mult: 1.0
  }
  convolution_param {
    num_output: 96
    bias_term: false
    pad: 0
    kernel_size: 1
    stride: 1
    weight_filler {
      type: "gaussian"
      std: 0.00999999977648
    }
  }
}
layer {
  name: "inception_4b/double3x3_reduce/bn"
  type: "BatchNorm"
  bottom: "inception_4b/double3x3_reduce"
  top: "inception_4b/double3x3_reduce"
}
layer {
  name: "inception_4b/double3x3_reduce/bn/scale"
  type: "Scale"
  bottom: "inception_4b/double3x3_reduce"
  top: "inception_4b/double3x3_reduce"
  scale_param {
    bias_term: true
  }
}
layer {
  name: "inception_4b/relu_double3x3_reduce"
  type: "ReLU"
  bottom: "inception_4b/double3x3_reduce"
  top: "inception_4b/double3x3_reduce"
}
layer {
  name: "inception_4b/double3x3a"
  type: "Convolution"
  bottom: "inception_4b/double3x3_reduce"
  top: "inception_4b/double3x3a"
  param {
    lr_mult: 1.0
    decay_mult: 1.0
  }
  convolution_param {
    num_output: 128
    bias_term: false
    pad: 1
    kernel_size: 3
    stride: 1
    weight_filler {
      type: "gaussian"
      std: 0.00999999977648
    }
  }
}
layer {
  name: "inception_4b/double3x3a/bn"
  type: "BatchNorm"
  bottom: "inception_4b/double3x3a"
  top: "inception_4b/double3x3a"
}
layer {
  name: "inception_4b/double3x3a/bn/scale"
  type: "Scale"
  bottom: "inception_4b/double3x3a"
  top: "inception_4b/double3x3a"
  scale_param {
    bias_term: true
  }
}
layer {
  name: "inception_4b/relu_double3x3a"
  type: "ReLU"
  bottom: "inception_4b/double3x3a"
  top: "inception_4b/double3x3a"
}
layer {
  name: "inception_4b/double3x3b"
  type: "Convolution"
  bottom: "inception_4b/double3x3a"
  top: "inception_4b/double3x3b"
  param {
    lr_mult: 1.0
    decay_mult: 1.0
  }
  convolution_param {
    num_output: 128
    bias_term: false
    pad: 1
    kernel_size: 3
    stride: 1
    weight_filler {
      type: "gaussian"
      std: 0.00999999977648
    }
  }
}
layer {
  name: "inception_4b/double3x3b/bn"
  type: "BatchNorm"
  bottom: "inception_4b/double3x3b"
  top: "inception_4b/double3x3b"
}
layer {
  name: "inception_4b/double3x3b/bn/scale"
  type: "Scale"
  bottom: "inception_4b/double3x3b"
  top: "inception_4b/double3x3b"
  scale_param {
    bias_term: true
  }
}
layer {
  name: "inception_4b/relu_double3x3b"
  type: "ReLU"
  bottom: "inception_4b/double3x3b"
  top: "inception_4b/double3x3b"
}
layer {
  name: "inception_4b/pool"
  type: "Pooling"
  bottom: "inception_4a_scale"
  top: "inception_4b/pool"
  pooling_param {
    pool: AVE
    kernel_size: 3
    stride: 1
    pad: 1
  }
}
layer {
  name: "inception_4b/pool_proj"
  type: "Convolution"
  bottom: "inception_4b/pool"
  top: "inception_4b/pool_proj"
  param {
    lr_mult: 1.0
    decay_mult: 1.0
  }
  convolution_param {
    num_output: 128
    bias_term: false
    pad: 0
    kernel_size: 1
    stride: 1
    weight_filler {
      type: "gaussian"
      std: 0.00999999977648
    }
  }
}
layer {
  name: "inception_4b/pool_proj/bn"
  type: "BatchNorm"
  bottom: "inception_4b/pool_proj"
  top: "inception_4b/pool_proj"
}
layer {
  name: "inception_4b/pool_proj/bn/scale"
  type: "Scale"
  bottom: "inception_4b/pool_proj"
  top: "inception_4b/pool_proj"
  scale_param {
    bias_term: true
  }
}
layer {
  name: "inception_4b/relu_pool_proj"
  type: "ReLU"
  bottom: "inception_4b/pool_proj"
  top: "inception_4b/pool_proj"
}
layer {
  name: "inception_4b/concat"
  type: "Concat"
  bottom: "inception_4b/1x1"
  bottom: "inception_4b/3x3"
  bottom: "inception_4b/double3x3b"
  bottom: "inception_4b/pool_proj"
  top: "inception_4b/concat"
}
layer {
  name: "inception_4b_global_pool"
  type: "Pooling"
  bottom: "inception_4b/concat"
  top: "inception_4b_global_pool"
  pooling_param {
    pool: AVE
    engine: CAFFE
    global_pooling: true
  }
}
layer {
  name: "inception_4b_1x1_down"
  type: "Convolution"
  bottom: "inception_4b_global_pool"
  top: "inception_4b_1x1_down"
  param {
    lr_mult: 1.0
    decay_mult: 1.0
  }
  convolution_param {
    num_output: 36
    kernel_size: 1
    stride: 1
    weight_filler {
      type: "gaussian"
      std: 0.00999999977648
    }
  }
}
layer {
  name: "inception_4b_1x1_down/relu"
  type: "ReLU"
  bottom: "inception_4b_1x1_down"
  top: "inception_4b_1x1_down"
}
layer {
  name: "inception_4b_1x1_up"
  type: "Convolution"
  bottom: "inception_4b_1x1_down"
  top: "inception_4b_1x1_up"
  param {
    lr_mult: 1.0
    decay_mult: 1.0
  }
  convolution_param {
    num_output: 576
    kernel_size: 1
    stride: 1
    weight_filler {
      type: "gaussian"
      std: 0.00999999977648
    }
  }
}
layer {
  name: "inception_4b_prob"
  type: "Sigmoid"
  bottom: "inception_4b_1x1_up"
  top: "inception_4b_1x1_up"
}
layer {
  name: "inception_4b_prob_reshape"
  type: "Reshape"
  bottom: "inception_4b_1x1_up"
  top: "inception_4b_prob_reshape"
  reshape_param {
    shape {
      dim: 0
      dim: 0
    }
  }
}
layer {
  name: "inception_4b_scale"
  type: "Scale"
  bottom: "inception_4b/concat"
  bottom: "inception_4b_prob_reshape"
  top: "inception_4b_scale"
  scale_param {
    axis: 0
    bias_term: false
  }
}
layer {
  name: "inception_4c/1x1"
  type: "Convolution"
  bottom: "inception_4b_scale"
  top: "inception_4c/1x1"
  param {
    lr_mult: 1.0
    decay_mult: 1.0
  }
  convolution_param {
    num_output: 160
    bias_term: false
    pad: 0
    kernel_size: 1
    stride: 1
    weight_filler {
      type: "gaussian"
      std: 0.00999999977648
    }
  }
}
layer {
  name: "inception_4c/1x1/bn"
  type: "BatchNorm"
  bottom: "inception_4c/1x1"
  top: "inception_4c/1x1"
}
layer {
  name: "inception_4c/1x1/bn/scale"
  type: "Scale"
  bottom: "inception_4c/1x1"
  top: "inception_4c/1x1"
  scale_param {
    bias_term: true
  }
}
layer {
  name: "inception_4c/relu_1x1"
  type: "ReLU"
  bottom: "inception_4c/1x1"
  top: "inception_4c/1x1"
}
layer {
  name: "inception_4c/3x3_reduce"
  type: "Convolution"
  bottom: "inception_4b_scale"
  top: "inception_4c/3x3_reduce"
  param {
    lr_mult: 1.0
    decay_mult: 1.0
  }
  convolution_param {
    num_output: 128
    bias_term: false
    pad: 0
    kernel_size: 1
    stride: 1
    weight_filler {
      type: "gaussian"
      std: 0.00999999977648
    }
  }
}
layer {
  name: "inception_4c/3x3_reduce/bn"
  type: "BatchNorm"
  bottom: "inception_4c/3x3_reduce"
  top: "inception_4c/3x3_reduce"
}
layer {
  name: "inception_4c/3x3_reduce/bn/scale"
  type: "Scale"
  bottom: "inception_4c/3x3_reduce"
  top: "inception_4c/3x3_reduce"
  scale_param {
    bias_term: true
  }
}
layer {
  name: "inception_4c/relu_3x3_reduce"
  type: "ReLU"
  bottom: "inception_4c/3x3_reduce"
  top: "inception_4c/3x3_reduce"
}
layer {
  name: "inception_4c/3x3"
  type: "Convolution"
  bottom: "inception_4c/3x3_reduce"
  top: "inception_4c/3x3"
  param {
    lr_mult: 1.0
    decay_mult: 1.0
  }
  convolution_param {
    num_output: 160
    bias_term: false
    pad: 1
    kernel_size: 3
    stride: 1
    weight_filler {
      type: "gaussian"
      std: 0.00999999977648
    }
  }
}
layer {
  name: "inception_4c/3x3/bn"
  type: "BatchNorm"
  bottom: "inception_4c/3x3"
  top: "inception_4c/3x3"
}
layer {
  name: "inception_4c/3x3/bn/scale"
  type: "Scale"
  bottom: "inception_4c/3x3"
  top: "inception_4c/3x3"
  scale_param {
    bias_term: true
  }
}
layer {
  name: "inception_4c/relu_3x3"
  type: "ReLU"
  bottom: "inception_4c/3x3"
  top: "inception_4c/3x3"
}
layer {
  name: "inception_4c/double3x3_reduce"
  type: "Convolution"
  bottom: "inception_4b_scale"
  top: "inception_4c/double3x3_reduce"
  param {
    lr_mult: 1.0
    decay_mult: 1.0
  }
  convolution_param {
    num_output: 128
    bias_term: false
    pad: 0
    kernel_size: 1
    stride: 1
    weight_filler {
      type: "gaussian"
      std: 0.00999999977648
    }
  }
}
layer {
  name: "inception_4c/double3x3_reduce/bn"
  type: "BatchNorm"
  bottom: "inception_4c/double3x3_reduce"
  top: "inception_4c/double3x3_reduce"
}
layer {
  name: "inception_4c/double3x3_reduce/bn/scale"
  type: "Scale"
  bottom: "inception_4c/double3x3_reduce"
  top: "inception_4c/double3x3_reduce"
  scale_param {
    bias_term: true
  }
}
layer {
  name: "inception_4c/relu_double3x3_reduce"
  type: "ReLU"
  bottom: "inception_4c/double3x3_reduce"
  top: "inception_4c/double3x3_reduce"
}
layer {
  name: "inception_4c/double3x3a"
  type: "Convolution"
  bottom: "inception_4c/double3x3_reduce"
  top: "inception_4c/double3x3a"
  param {
    lr_mult: 1.0
    decay_mult: 1.0
  }
  convolution_param {
    num_output: 160
    bias_term: false
    pad: 1
    kernel_size: 3
    stride: 1
    weight_filler {
      type: "gaussian"
      std: 0.00999999977648
    }
  }
}
layer {
  name: "inception_4c/double3x3a/bn"
  type: "BatchNorm"
  bottom: "inception_4c/double3x3a"
  top: "inception_4c/double3x3a"
}
layer {
  name: "inception_4c/double3x3a/bn/scale"
  type: "Scale"
  bottom: "inception_4c/double3x3a"
  top: "inception_4c/double3x3a"
  scale_param {
    bias_term: true
  }
}
layer {
  name: "inception_4c/relu_double3x3a"
  type: "ReLU"
  bottom: "inception_4c/double3x3a"
  top: "inception_4c/double3x3a"
}
layer {
  name: "inception_4c/double3x3b"
  type: "Convolution"
  bottom: "inception_4c/double3x3a"
  top: "inception_4c/double3x3b"
  param {
    lr_mult: 1.0
    decay_mult: 1.0
  }
  convolution_param {
    num_output: 160
    bias_term: false
    pad: 1
    kernel_size: 3
    stride: 1
    weight_filler {
      type: "gaussian"
      std: 0.00999999977648
    }
  }
}
layer {
  name: "inception_4c/double3x3b/bn"
  type: "BatchNorm"
  bottom: "inception_4c/double3x3b"
  top: "inception_4c/double3x3b"
}
layer {
  name: "inception_4c/double3x3b/bn/scale"
  type: "Scale"
  bottom: "inception_4c/double3x3b"
  top: "inception_4c/double3x3b"
  scale_param {
    bias_term: true
  }
}
layer {
  name: "inception_4c/relu_double3x3b"
  type: "ReLU"
  bottom: "inception_4c/double3x3b"
  top: "inception_4c/double3x3b"
}
layer {
  name: "inception_4c/pool"
  type: "Pooling"
  bottom: "inception_4b_scale"
  top: "inception_4c/pool"
  pooling_param {
    pool: AVE
    kernel_size: 3
    stride: 1
    pad: 1
  }
}
layer {
  name: "inception_4c/pool_proj"
  type: "Convolution"
  bottom: "inception_4c/pool"
  top: "inception_4c/pool_proj"
  param {
    lr_mult: 1.0
    decay_mult: 1.0
  }
  convolution_param {
    num_output: 128
    bias_term: false
    pad: 0
    kernel_size: 1
    stride: 1
    weight_filler {
      type: "gaussian"
      std: 0.00999999977648
    }
  }
}
layer {
  name: "inception_4c/pool_proj/bn"
  type: "BatchNorm"
  bottom: "inception_4c/pool_proj"
  top: "inception_4c/pool_proj"
}
layer {
  name: "inception_4c/pool_proj/bn/scale"
  type: "Scale"
  bottom: "inception_4c/pool_proj"
  top: "inception_4c/pool_proj"
  scale_param {
    bias_term: true
  }
}
layer {
  name: "inception_4c/relu_pool_proj"
  type: "ReLU"
  bottom: "inception_4c/pool_proj"
  top: "inception_4c/pool_proj"
}
layer {
  name: "inception_4c/concat"
  type: "Concat"
  bottom: "inception_4c/1x1"
  bottom: "inception_4c/3x3"
  bottom: "inception_4c/double3x3b"
  bottom: "inception_4c/pool_proj"
  top: "inception_4c/concat"
}
layer {
  name: "inception_4c_global_pool"
  type: "Pooling"
  bottom: "inception_4c/concat"
  top: "inception_4c_global_pool"
  pooling_param {
    pool: AVE
    engine: CAFFE
    global_pooling: true
  }
}
layer {
  name: "inception_4c_1x1_down"
  type: "Convolution"
  bottom: "inception_4c_global_pool"
  top: "inception_4c_1x1_down"
  param {
    lr_mult: 1.0
    decay_mult: 1.0
  }
  convolution_param {
    num_output: 38
    kernel_size: 1
    stride: 1
    weight_filler {
      type: "gaussian"
      std: 0.00999999977648
    }
  }
}
layer {
  name: "inception_4c_1x1_down/relu"
  type: "ReLU"
  bottom: "inception_4c_1x1_down"
  top: "inception_4c_1x1_down"
}
layer {
  name: "inception_4c_1x1_up"
  type: "Convolution"
  bottom: "inception_4c_1x1_down"
  top: "inception_4c_1x1_up"
  param {
    lr_mult: 1.0
    decay_mult: 1.0
  }
  convolution_param {
    num_output: 608
    kernel_size: 1
    stride: 1
    weight_filler {
      type: "gaussian"
      std: 0.00999999977648
    }
  }
}
layer {
  name: "inception_4c_prob"
  type: "Sigmoid"
  bottom: "inception_4c_1x1_up"
  top: "inception_4c_1x1_up"
}
layer {
  name: "inception_4c_prob_reshape"
  type: "Reshape"
  bottom: "inception_4c_1x1_up"
  top: "inception_4c_prob_reshape"
  reshape_param {
    shape {
      dim: 0
      dim: 0
    }
  }
}
layer {
  name: "inception_4c_scale"
  type: "Scale"
  bottom: "inception_4c/concat"
  bottom: "inception_4c_prob_reshape"
  top: "inception_4c_scale"
  scale_param {
    axis: 0
    bias_term: false
  }
}
layer {
  name: "inception_4d/1x1"
  type: "Convolution"
  bottom: "inception_4c_scale"
  top: "inception_4d/1x1"
  param {
    lr_mult: 1.0
    decay_mult: 1.0
  }
  convolution_param {
    num_output: 96
    bias_term: false
    pad: 0
    kernel_size: 1
    stride: 1
    weight_filler {
      type: "gaussian"
      std: 0.00999999977648
    }
  }
}
layer {
  name: "inception_4d/1x1/bn"
  type: "BatchNorm"
  bottom: "inception_4d/1x1"
  top: "inception_4d/1x1"
}
layer {
  name: "inception_4d/1x1/bn/scale"
  type: "Scale"
  bottom: "inception_4d/1x1"
  top: "inception_4d/1x1"
  scale_param {
    bias_term: true
  }
}
layer {
  name: "inception_4d/relu_1x1"
  type: "ReLU"
  bottom: "inception_4d/1x1"
  top: "inception_4d/1x1"
}
layer {
  name: "inception_4d/3x3_reduce"
  type: "Convolution"
  bottom: "inception_4c_scale"
  top: "inception_4d/3x3_reduce"
  param {
    lr_mult: 1.0
    decay_mult: 1.0
  }
  convolution_param {
    num_output: 128
    bias_term: false
    pad: 0
    kernel_size: 1
    stride: 1
    weight_filler {
      type: "gaussian"
      std: 0.00999999977648
    }
  }
}
layer {
  name: "inception_4d/3x3_reduce/bn"
  type: "BatchNorm"
  bottom: "inception_4d/3x3_reduce"
  top: "inception_4d/3x3_reduce"
}
layer {
  name: "inception_4d/3x3_reduce/bn/scale"
  type: "Scale"
  bottom: "inception_4d/3x3_reduce"
  top: "inception_4d/3x3_reduce"
  scale_param {
    bias_term: true
  }
}
layer {
  name: "inception_4d/relu_3x3_reduce"
  type: "ReLU"
  bottom: "inception_4d/3x3_reduce"
  top: "inception_4d/3x3_reduce"
}
layer {
  name: "inception_4d/3x3"
  type: "Convolution"
  bottom: "inception_4d/3x3_reduce"
  top: "inception_4d/3x3"
  param {
    lr_mult: 1.0
    decay_mult: 1.0
  }
  convolution_param {
    num_output: 192
    bias_term: false
    pad: 1
    kernel_size: 3
    stride: 1
    weight_filler {
      type: "gaussian"
      std: 0.00999999977648
    }
  }
}
layer {
  name: "inception_4d/3x3/bn"
  type: "BatchNorm"
  bottom: "inception_4d/3x3"
  top: "inception_4d/3x3"
}
layer {
  name: "inception_4d/3x3/bn/scale"
  type: "Scale"
  bottom: "inception_4d/3x3"
  top: "inception_4d/3x3"
  scale_param {
    bias_term: true
  }
}
layer {
  name: "inception_4d/relu_3x3"
  type: "ReLU"
  bottom: "inception_4d/3x3"
  top: "inception_4d/3x3"
}
layer {
  name: "inception_4d/double3x3_reduce"
  type: "Convolution"
  bottom: "inception_4c_scale"
  top: "inception_4d/double3x3_reduce"
  param {
    lr_mult: 1.0
    decay_mult: 1.0
  }
  convolution_param {
    num_output: 160
    bias_term: false
    pad: 0
    kernel_size: 1
    stride: 1
    weight_filler {
      type: "gaussian"
      std: 0.00999999977648
    }
  }
}
layer {
  name: "inception_4d/double3x3_reduce/bn"
  type: "BatchNorm"
  bottom: "inception_4d/double3x3_reduce"
  top: "inception_4d/double3x3_reduce"
}
layer {
  name: "inception_4d/double3x3_reduce/bn/scale"
  type: "Scale"
  bottom: "inception_4d/double3x3_reduce"
  top: "inception_4d/double3x3_reduce"
  scale_param {
    bias_term: true
  }
}
layer {
  name: "inception_4d/relu_double3x3_reduce"
  type: "ReLU"
  bottom: "inception_4d/double3x3_reduce"
  top: "inception_4d/double3x3_reduce"
}
layer {
  name: "inception_4d/double3x3a"
  type: "Convolution"
  bottom: "inception_4d/double3x3_reduce"
  top: "inception_4d/double3x3a"
  param {
    lr_mult: 1.0
    decay_mult: 1.0
  }
  convolution_param {
    num_output: 192
    bias_term: false
    pad: 1
    kernel_size: 3
    stride: 1
    weight_filler {
      type: "gaussian"
      std: 0.00999999977648
    }
  }
}
layer {
  name: "inception_4d/double3x3a/bn"
  type: "BatchNorm"
  bottom: "inception_4d/double3x3a"
  top: "inception_4d/double3x3a"
}
layer {
  name: "inception_4d/double3x3a/bn/scale"
  type: "Scale"
  bottom: "inception_4d/double3x3a"
  top: "inception_4d/double3x3a"
  scale_param {
    bias_term: true
  }
}
layer {
  name: "inception_4d/relu_double3x3a"
  type: "ReLU"
  bottom: "inception_4d/double3x3a"
  top: "inception_4d/double3x3a"
}
layer {
  name: "inception_4d/double3x3b"
  type: "Convolution"
  bottom: "inception_4d/double3x3a"
  top: "inception_4d/double3x3b"
  param {
    lr_mult: 1.0
    decay_mult: 1.0
  }
  convolution_param {
    num_output: 192
    bias_term: false
    pad: 1
    kernel_size: 3
    stride: 1
    weight_filler {
      type: "gaussian"
      std: 0.00999999977648
    }
  }
}
layer {
  name: "inception_4d/double3x3b/bn"
  type: "BatchNorm"
  bottom: "inception_4d/double3x3b"
  top: "inception_4d/double3x3b"
}
layer {
  name: "inception_4d/double3x3b/bn/scale"
  type: "Scale"
  bottom: "inception_4d/double3x3b"
  top: "inception_4d/double3x3b"
  scale_param {
    bias_term: true
  }
}
layer {
  name: "inception_4d/relu_double3x3b"
  type: "ReLU"
  bottom: "inception_4d/double3x3b"
  top: "inception_4d/double3x3b"
}
layer {
  name: "inception_4d/pool"
  type: "Pooling"
  bottom: "inception_4c_scale"
  top: "inception_4d/pool"
  pooling_param {
    pool: AVE
    kernel_size: 3
    stride: 1
    pad: 1
  }
}
layer {
  name: "inception_4d/pool_proj"
  type: "Convolution"
  bottom: "inception_4d/pool"
  top: "inception_4d/pool_proj"
  param {
    lr_mult: 1.0
    decay_mult: 1.0
  }
  convolution_param {
    num_output: 128
    bias_term: false
    pad: 0
    kernel_size: 1
    stride: 1
    weight_filler {
      type: "gaussian"
      std: 0.00999999977648
    }
  }
}
layer {
  name: "inception_4d/pool_proj/bn"
  type: "BatchNorm"
  bottom: "inception_4d/pool_proj"
  top: "inception_4d/pool_proj"
}
layer {
  name: "inception_4d/pool_proj/bn/scale"
  type: "Scale"
  bottom: "inception_4d/pool_proj"
  top: "inception_4d/pool_proj"
  scale_param {
    bias_term: true
  }
}
layer {
  name: "inception_4d/relu_pool_proj"
  type: "ReLU"
  bottom: "inception_4d/pool_proj"
  top: "inception_4d/pool_proj"
}
layer {
  name: "inception_4d/concat"
  type: "Concat"
  bottom: "inception_4d/1x1"
  bottom: "inception_4d/3x3"
  bottom: "inception_4d/double3x3b"
  bottom: "inception_4d/pool_proj"
  top: "inception_4d/concat"
}
layer {
  name: "inception_4d_global_pool"
  type: "Pooling"
  bottom: "inception_4d/concat"
  top: "inception_4d_global_pool"
  pooling_param {
    pool: AVE
    engine: CAFFE
    global_pooling: true
  }
}
layer {
  name: "inception_4d_1x1_down"
  type: "Convolution"
  bottom: "inception_4d_global_pool"
  top: "inception_4d_1x1_down"
  param {
    lr_mult: 1.0
    decay_mult: 1.0
  }
  convolution_param {
    num_output: 38
    kernel_size: 1
    stride: 1
    weight_filler {
      type: "gaussian"
      std: 0.00999999977648
    }
  }
}
layer {
  name: "inception_4d_1x1_down/relu"
  type: "ReLU"
  bottom: "inception_4d_1x1_down"
  top: "inception_4d_1x1_down"
}
layer {
  name: "inception_4d_1x1_up"
  type: "Convolution"
  bottom: "inception_4d_1x1_down"
  top: "inception_4d_1x1_up"
  param {
    lr_mult: 1.0
    decay_mult: 1.0
  }
  convolution_param {
    num_output: 608
    kernel_size: 1
    stride: 1
    weight_filler {
      type: "gaussian"
      std: 0.00999999977648
    }
  }
}
layer {
  name: "inception_4d_prob"
  type: "Sigmoid"
  bottom: "inception_4d_1x1_up"
  top: "inception_4d_1x1_up"
}
layer {
  name: "inception_4d_prob_reshape"
  type: "Reshape"
  bottom: "inception_4d_1x1_up"
  top: "inception_4d_prob_reshape"
  reshape_param {
    shape {
      dim: 0
      dim: 0
    }
  }
}
layer {
  name: "inception_4d_scale"
  type: "Scale"
  bottom: "inception_4d/concat"
  bottom: "inception_4d_prob_reshape"
  top: "inception_4d_scale"
  scale_param {
    axis: 0
    bias_term: false
  }
}
layer {
  name: "inception_4e/3x3_reduce"
  type: "Convolution"
  bottom: "inception_4d_scale"
  top: "inception_4e/3x3_reduce"
  param {
    lr_mult: 1.0
    decay_mult: 1.0
  }
  convolution_param {
    num_output: 128
    bias_term: false
    pad: 0
    kernel_size: 1
    stride: 1
    weight_filler {
      type: "gaussian"
      std: 0.00999999977648
    }
  }
}
layer {
  name: "inception_4e/3x3_reduce/bn"
  type: "BatchNorm"
  bottom: "inception_4e/3x3_reduce"
  top: "inception_4e/3x3_reduce"
}
layer {
  name: "inception_4e/3x3_reduce/bn/scale"
  type: "Scale"
  bottom: "inception_4e/3x3_reduce"
  top: "inception_4e/3x3_reduce"
  scale_param {
    bias_term: true
  }
}
layer {
  name: "inception_4e/relu_3x3_reduce"
  type: "ReLU"
  bottom: "inception_4e/3x3_reduce"
  top: "inception_4e/3x3_reduce"
}
layer {
  name: "inception_4e/3x3"
  type: "Convolution"
  bottom: "inception_4e/3x3_reduce"
  top: "inception_4e/3x3"
  param {
    lr_mult: 1.0
    decay_mult: 1.0
  }
  convolution_param {
    num_output: 192
    bias_term: false
    pad: 1
    kernel_size: 3
    stride: 2
    weight_filler {
      type: "gaussian"
      std: 0.00999999977648
    }
  }
}
layer {
  name: "inception_4e/3x3/bn"
  type: "BatchNorm"
  bottom: "inception_4e/3x3"
  top: "inception_4e/3x3"
}
layer {
  name: "inception_4e/3x3/bn/scale"
  type: "Scale"
  bottom: "inception_4e/3x3"
  top: "inception_4e/3x3"
  scale_param {
    bias_term: true
  }
}
layer {
  name: "inception_4e/relu_3x3"
  type: "ReLU"
  bottom: "inception_4e/3x3"
  top: "inception_4e/3x3"
}
layer {
  name: "inception_4e/double3x3_reduce"
  type: "Convolution"
  bottom: "inception_4d_scale"
  top: "inception_4e/double3x3_reduce"
  param {
    lr_mult: 1.0
    decay_mult: 1.0
  }
  convolution_param {
    num_output: 192
    bias_term: false
    pad: 0
    kernel_size: 1
    stride: 1
    weight_filler {
      type: "gaussian"
      std: 0.00999999977648
    }
  }
}
layer {
  name: "inception_4e/double3x3_reduce/bn"
  type: "BatchNorm"
  bottom: "inception_4e/double3x3_reduce"
  top: "inception_4e/double3x3_reduce"
}
layer {
  name: "inception_4e/double3x3_reduce/bn/scale"
  type: "Scale"
  bottom: "inception_4e/double3x3_reduce"
  top: "inception_4e/double3x3_reduce"
  scale_param {
    bias_term: true
  }
}
layer {
  name: "inception_4e/relu_double3x3_reduce"
  type: "ReLU"
  bottom: "inception_4e/double3x3_reduce"
  top: "inception_4e/double3x3_reduce"
}
layer {
  name: "inception_4e/double3x3a"
  type: "Convolution"
  bottom: "inception_4e/double3x3_reduce"
  top: "inception_4e/double3x3a"
  param {
    lr_mult: 1.0
    decay_mult: 1.0
  }
  convolution_param {
    num_output: 256
    bias_term: false
    pad: 1
    kernel_size: 3
    stride: 1
    weight_filler {
      type: "gaussian"
      std: 0.00999999977648
    }
  }
}
layer {
  name: "inception_4e/double3x3a/bn"
  type: "BatchNorm"
  bottom: "inception_4e/double3x3a"
  top: "inception_4e/double3x3a"
}
layer {
  name: "inception_4e/double3x3a/bn/scale"
  type: "Scale"
  bottom: "inception_4e/double3x3a"
  top: "inception_4e/double3x3a"
  scale_param {
    bias_term: true
  }
}
layer {
  name: "inception_4e/relu_double3x3a"
  type: "ReLU"
  bottom: "inception_4e/double3x3a"
  top: "inception_4e/double3x3a"
}
layer {
  name: "inception_4e/double3x3b"
  type: "Convolution"
  bottom: "inception_4e/double3x3a"
  top: "inception_4e/double3x3b"
  param {
    lr_mult: 1.0
    decay_mult: 1.0
  }
  convolution_param {
    num_output: 256
    bias_term: false
    pad: 1
    kernel_size: 3
    stride: 2
    weight_filler {
      type: "gaussian"
      std: 0.00999999977648
    }
  }
}
layer {
  name: "inception_4e/double3x3b/bn"
  type: "BatchNorm"
  bottom: "inception_4e/double3x3b"
  top: "inception_4e/double3x3b"
}
layer {
  name: "inception_4e/double3x3b/bn/scale"
  type: "Scale"
  bottom: "inception_4e/double3x3b"
  top: "inception_4e/double3x3b"
  scale_param {
    bias_term: true
  }
}
layer {
  name: "inception_4e/relu_double3x3b"
  type: "ReLU"
  bottom: "inception_4e/double3x3b"
  top: "inception_4e/double3x3b"
}
layer {
  name: "inception_4e/pool/3x3_s2"
  type: "Pooling"
  bottom: "inception_4d_scale"
  top: "inception_4e/pool/3x3_s2"
  pooling_param {
    pool: AVE
    kernel_size: 3
    stride: 2
  }
}
layer {
  name: "inception_4e/concat"
  type: "Concat"
  bottom: "inception_4e/3x3"
  bottom: "inception_4e/double3x3b"
  bottom: "inception_4e/pool/3x3_s2"
  top: "inception_4e/concat"
}
layer {
  name: "inception_4e_global_pool"
  type: "Pooling"
  bottom: "inception_4e/concat"
  top: "inception_4e_global_pool"
  pooling_param {
    pool: AVE
    engine: CAFFE
    global_pooling: true
  }
}
layer {
  name: "inception_4e_1x1_down"
  type: "Convolution"
  bottom: "inception_4e_global_pool"
  top: "inception_4e_1x1_down"
  param {
    lr_mult: 1.0
    decay_mult: 1.0
  }
  convolution_param {
    num_output: 66
    kernel_size: 1
    stride: 1
    weight_filler {
      type: "gaussian"
      std: 0.00999999977648
    }
  }
}
layer {
  name: "inception_4e_1x1_down/relu"
  type: "ReLU"
  bottom: "inception_4e_1x1_down"
  top: "inception_4e_1x1_down"
}
layer {
  name: "inception_4e_1x1_up"
  type: "Convolution"
  bottom: "inception_4e_1x1_down"
  top: "inception_4e_1x1_up"
  param {
    lr_mult: 1.0
    decay_mult: 1.0
  }
  convolution_param {
    num_output: 1056
    kernel_size: 1
    stride: 1
    weight_filler {
      type: "gaussian"
      std: 0.00999999977648
    }
  }
}
layer {
  name: "inception_4e_prob"
  type: "Sigmoid"
  bottom: "inception_4e_1x1_up"
  top: "inception_4e_1x1_up"
}
layer {
  name: "inception_4e_prob_reshape"
  type: "Reshape"
  bottom: "inception_4e_1x1_up"
  top: "inception_4e_prob_reshape"
  reshape_param {
    shape {
      dim: 0
      dim: 0
    }
  }
}
layer {
  name: "inception_4e_scale"
  type: "Scale"
  bottom: "inception_4e/concat"
  bottom: "inception_4e_prob_reshape"
  top: "inception_4e_scale"
  scale_param {
    axis: 0
    bias_term: false
  }
}
layer {
  name: "inception_5a/1x1"
  type: "Convolution"
  bottom: "inception_4e_scale"
  top: "inception_5a/1x1"
  param {
    lr_mult: 1.0
    decay_mult: 1.0
  }
  convolution_param {
    num_output: 352
    bias_term: false
    pad: 0
    kernel_size: 1
    stride: 1
    weight_filler {
      type: "gaussian"
      std: 0.00999999977648
    }
  }
}
layer {
  name: "inception_5a/1x1/bn"
  type: "BatchNorm"
  bottom: "inception_5a/1x1"
  top: "inception_5a/1x1"
}
layer {
  name: "inception_5a/1x1/bn/scale"
  type: "Scale"
  bottom: "inception_5a/1x1"
  top: "inception_5a/1x1"
  scale_param {
    bias_term: true
  }
}
layer {
  name: "inception_5a/relu_1x1"
  type: "ReLU"
  bottom: "inception_5a/1x1"
  top: "inception_5a/1x1"
}
layer {
  name: "inception_5a/3x3_reduce"
  type: "Convolution"
  bottom: "inception_4e_scale"
  top: "inception_5a/3x3_reduce"
  param {
    lr_mult: 1.0
    decay_mult: 1.0
  }
  convolution_param {
    num_output: 192
    bias_term: false
    pad: 0
    kernel_size: 1
    stride: 1
    weight_filler {
      type: "gaussian"
      std: 0.00999999977648
    }
  }
}
layer {
  name: "inception_5a/3x3_reduce/bn"
  type: "BatchNorm"
  bottom: "inception_5a/3x3_reduce"
  top: "inception_5a/3x3_reduce"
}
layer {
  name: "inception_5a/3x3_reduce/bn/scale"
  type: "Scale"
  bottom: "inception_5a/3x3_reduce"
  top: "inception_5a/3x3_reduce"
  scale_param {
    bias_term: true
  }
}
layer {
  name: "inception_5a/relu_3x3_reduce"
  type: "ReLU"
  bottom: "inception_5a/3x3_reduce"
  top: "inception_5a/3x3_reduce"
}
layer {
  name: "inception_5a/3x3"
  type: "Convolution"
  bottom: "inception_5a/3x3_reduce"
  top: "inception_5a/3x3"
  param {
    lr_mult: 1.0
    decay_mult: 1.0
  }
  convolution_param {
    num_output: 320
    bias_term: false
    pad: 1
    kernel_size: 3
    stride: 1
    weight_filler {
      type: "gaussian"
      std: 0.00999999977648
    }
  }
}
layer {
  name: "inception_5a/3x3/bn"
  type: "BatchNorm"
  bottom: "inception_5a/3x3"
  top: "inception_5a/3x3"
}
layer {
  name: "inception_5a/3x3/bn/scale"
  type: "Scale"
  bottom: "inception_5a/3x3"
  top: "inception_5a/3x3"
  scale_param {
    bias_term: true
  }
}
layer {
  name: "inception_5a/relu_3x3"
  type: "ReLU"
  bottom: "inception_5a/3x3"
  top: "inception_5a/3x3"
}
layer {
  name: "inception_5a/double3x3_reduce"
  type: "Convolution"
  bottom: "inception_4e_scale"
  top: "inception_5a/double3x3_reduce"
  param {
    lr_mult: 1.0
    decay_mult: 1.0
  }
  convolution_param {
    num_output: 160
    bias_term: false
    pad: 0
    kernel_size: 1
    stride: 1
    weight_filler {
      type: "gaussian"
      std: 0.00999999977648
    }
  }
}
layer {
  name: "inception_5a/double3x3_reduce/bn"
  type: "BatchNorm"
  bottom: "inception_5a/double3x3_reduce"
  top: "inception_5a/double3x3_reduce"
}
layer {
  name: "inception_5a/double3x3_reduce/bn/scale"
  type: "Scale"
  bottom: "inception_5a/double3x3_reduce"
  top: "inception_5a/double3x3_reduce"
  scale_param {
    bias_term: true
  }
}
layer {
  name: "inception_5a/relu_double3x3_reduce"
  type: "ReLU"
  bottom: "inception_5a/double3x3_reduce"
  top: "inception_5a/double3x3_reduce"
}
layer {
  name: "inception_5a/double3x3a"
  type: "Convolution"
  bottom: "inception_5a/double3x3_reduce"
  top: "inception_5a/double3x3a"
  param {
    lr_mult: 1.0
    decay_mult: 1.0
  }
  convolution_param {
    num_output: 224
    bias_term: false
    pad: 1
    kernel_size: 3
    stride: 1
    weight_filler {
      type: "gaussian"
      std: 0.00999999977648
    }
  }
}
layer {
  name: "inception_5a/double3x3a/bn"
  type: "BatchNorm"
  bottom: "inception_5a/double3x3a"
  top: "inception_5a/double3x3a"
}
layer {
  name: "inception_5a/double3x3a/bn/scale"
  type: "Scale"
  bottom: "inception_5a/double3x3a"
  top: "inception_5a/double3x3a"
  scale_param {
    bias_term: true
  }
}
layer {
  name: "inception_5a/relu_double3x3a"
  type: "ReLU"
  bottom: "inception_5a/double3x3a"
  top: "inception_5a/double3x3a"
}
layer {
  name: "inception_5a/double3x3b"
  type: "Convolution"
  bottom: "inception_5a/double3x3a"
  top: "inception_5a/double3x3b"
  param {
    lr_mult: 1.0
    decay_mult: 1.0
  }
  convolution_param {
    num_output: 224
    bias_term: false
    pad: 1
    kernel_size: 3
    stride: 1
    weight_filler {
      type: "gaussian"
      std: 0.00999999977648
    }
  }
}
layer {
  name: "inception_5a/double3x3b/bn"
  type: "BatchNorm"
  bottom: "inception_5a/double3x3b"
  top: "inception_5a/double3x3b"
}
layer {
  name: "inception_5a/double3x3b/bn/scale"
  type: "Scale"
  bottom: "inception_5a/double3x3b"
  top: "inception_5a/double3x3b"
  scale_param {
    bias_term: true
  }
}
layer {
  name: "inception_5a/relu_double3x3b"
  type: "ReLU"
  bottom: "inception_5a/double3x3b"
  top: "inception_5a/double3x3b"
}
layer {
  name: "inception_5a/pool"
  type: "Pooling"
  bottom: "inception_4e_scale"
  top: "inception_5a/pool"
  pooling_param {
    pool: AVE
    kernel_size: 3
    stride: 1
    pad: 1
  }
}
layer {
  name: "inception_5a/pool_proj"
  type: "Convolution"
  bottom: "inception_5a/pool"
  top: "inception_5a/pool_proj"
  param {
    lr_mult: 1.0
    decay_mult: 1.0
  }
  convolution_param {
    num_output: 128
    bias_term: false
    pad: 0
    kernel_size: 1
    stride: 1
    weight_filler {
      type: "gaussian"
      std: 0.00999999977648
    }
  }
}
layer {
  name: "inception_5a/pool_proj/bn"
  type: "BatchNorm"
  bottom: "inception_5a/pool_proj"
  top: "inception_5a/pool_proj"
}
layer {
  name: "inception_5a/pool_proj/bn/scale"
  type: "Scale"
  bottom: "inception_5a/pool_proj"
  top: "inception_5a/pool_proj"
  scale_param {
    bias_term: true
  }
}
layer {
  name: "inception_5a/relu_pool_proj"
  type: "ReLU"
  bottom: "inception_5a/pool_proj"
  top: "inception_5a/pool_proj"
}
layer {
  name: "inception_5a/concat"
  type: "Concat"
  bottom: "inception_5a/1x1"
  bottom: "inception_5a/3x3"
  bottom: "inception_5a/double3x3b"
  bottom: "inception_5a/pool_proj"
  top: "inception_5a/concat"
}
layer {
  name: "inception_5a_global_pool"
  type: "Pooling"
  bottom: "inception_5a/concat"
  top: "inception_5a_global_pool"
  pooling_param {
    pool: AVE
    engine: CAFFE
    global_pooling: true
  }
}
layer {
  name: "inception_5a_1x1_down"
  type: "Convolution"
  bottom: "inception_5a_global_pool"
  top: "inception_5a_1x1_down"
  param {
    lr_mult: 1.0
    decay_mult: 1.0
  }
  convolution_param {
    num_output: 64
    kernel_size: 1
    stride: 1
    weight_filler {
      type: "gaussian"
      std: 0.00999999977648
    }
  }
}
layer {
  name: "inception_5a_1x1_down/relu"
  type: "ReLU"
  bottom: "inception_5a_1x1_down"
  top: "inception_5a_1x1_down"
}
layer {
  name: "inception_5a_1x1_up"
  type: "Convolution"
  bottom: "inception_5a_1x1_down"
  top: "inception_5a_1x1_up"
  param {
    lr_mult: 1.0
    decay_mult: 1.0
  }
  convolution_param {
    num_output: 1024
    kernel_size: 1
    stride: 1
    weight_filler {
      type: "gaussian"
      std: 0.00999999977648
    }
  }
}
layer {
  name: "inception_5a_prob"
  type: "Sigmoid"
  bottom: "inception_5a_1x1_up"
  top: "inception_5a_1x1_up"
}
layer {
  name: "inception_5a_prob_reshape"
  type: "Reshape"
  bottom: "inception_5a_1x1_up"
  top: "inception_5a_prob_reshape"
  reshape_param {
    shape {
      dim: 0
      dim: 0
    }
  }
}
layer {
  name: "inception_5a_scale"
  type: "Scale"
  bottom: "inception_5a/concat"
  bottom: "inception_5a_prob_reshape"
  top: "inception_5a_scale"
  scale_param {
    axis: 0
    bias_term: false
  }
}
layer {
  name: "inception_5b/1x1"
  type: "Convolution"
  bottom: "inception_5a_scale"
  top: "inception_5b/1x1"
  param {
    lr_mult: 1.0
    decay_mult: 1.0
  }
  convolution_param {
    num_output: 352
    bias_term: false
    pad: 0
    kernel_size: 1
    stride: 1
    weight_filler {
      type: "gaussian"
      std: 0.00999999977648
    }
  }
}
layer {
  name: "inception_5b/1x1/bn"
  type: "BatchNorm"
  bottom: "inception_5b/1x1"
  top: "inception_5b/1x1"
}
layer {
  name: "inception_5b/1x1/bn/scale"
  type: "Scale"
  bottom: "inception_5b/1x1"
  top: "inception_5b/1x1"
  scale_param {
    bias_term: true
  }
}
layer {
  name: "inception_5b/relu_1x1"
  type: "ReLU"
  bottom: "inception_5b/1x1"
  top: "inception_5b/1x1"
}
layer {
  name: "inception_5b/3x3_reduce"
  type: "Convolution"
  bottom: "inception_5a_scale"
  top: "inception_5b/3x3_reduce"
  param {
    lr_mult: 1.0
    decay_mult: 1.0
  }
  convolution_param {
    num_output: 192
    bias_term: false
    pad: 0
    kernel_size: 1
    stride: 1
    weight_filler {
      type: "gaussian"
      std: 0.00999999977648
    }
  }
}
layer {
  name: "inception_5b/3x3_reduce/bn"
  type: "BatchNorm"
  bottom: "inception_5b/3x3_reduce"
  top: "inception_5b/3x3_reduce"
}
layer {
  name: "inception_5b/3x3_reduce/bn/scale"
  type: "Scale"
  bottom: "inception_5b/3x3_reduce"
  top: "inception_5b/3x3_reduce"
  scale_param {
    bias_term: true
  }
}
layer {
  name: "inception_5b/relu_3x3_reduce"
  type: "ReLU"
  bottom: "inception_5b/3x3_reduce"
  top: "inception_5b/3x3_reduce"
}
layer {
  name: "inception_5b/3x3"
  type: "Convolution"
  bottom: "inception_5b/3x3_reduce"
  top: "inception_5b/3x3"
  param {
    lr_mult: 1.0
    decay_mult: 1.0
  }
  convolution_param {
    num_output: 320
    bias_term: false
    pad: 1
    kernel_size: 3
    stride: 1
    weight_filler {
      type: "gaussian"
      std: 0.00999999977648
    }
  }
}
layer {
  name: "inception_5b/3x3/bn"
  type: "BatchNorm"
  bottom: "inception_5b/3x3"
  top: "inception_5b/3x3"
}
layer {
  name: "inception_5b/3x3/bn/scale"
  type: "Scale"
  bottom: "inception_5b/3x3"
  top: "inception_5b/3x3"
  scale_param {
    bias_term: true
  }
}
layer {
  name: "inception_5b/relu_3x3"
  type: "ReLU"
  bottom: "inception_5b/3x3"
  top: "inception_5b/3x3"
}
layer {
  name: "inception_5b/double3x3_reduce"
  type: "Convolution"
  bottom: "inception_5a_scale"
  top: "inception_5b/double3x3_reduce"
  param {
    lr_mult: 1.0
    decay_mult: 1.0
  }
  convolution_param {
    num_output: 192
    bias_term: false
    pad: 0
    kernel_size: 1
    stride: 1
    weight_filler {
      type: "gaussian"
      std: 0.00999999977648
    }
  }
}
layer {
  name: "inception_5b/double3x3_reduce/bn"
  type: "BatchNorm"
  bottom: "inception_5b/double3x3_reduce"
  top: "inception_5b/double3x3_reduce"
}
layer {
  name: "inception_5b/double3x3_reduce/bn/scale"
  type: "Scale"
  bottom: "inception_5b/double3x3_reduce"
  top: "inception_5b/double3x3_reduce"
  scale_param {
    bias_term: true
  }
}
layer {
  name: "inception_5b/relu_double3x3_reduce"
  type: "ReLU"
  bottom: "inception_5b/double3x3_reduce"
  top: "inception_5b/double3x3_reduce"
}
layer {
  name: "inception_5b/double3x3a"
  type: "Convolution"
  bottom: "inception_5b/double3x3_reduce"
  top: "inception_5b/double3x3a"
  param {
    lr_mult: 1.0
    decay_mult: 1.0
  }
  convolution_param {
    num_output: 224
    bias_term: false
    pad: 1
    kernel_size: 3
    stride: 1
    weight_filler {
      type: "gaussian"
      std: 0.00999999977648
    }
  }
}
layer {
  name: "inception_5b/double3x3a/bn"
  type: "BatchNorm"
  bottom: "inception_5b/double3x3a"
  top: "inception_5b/double3x3a"
}
layer {
  name: "inception_5b/double3x3a/bn/scale"
  type: "Scale"
  bottom: "inception_5b/double3x3a"
  top: "inception_5b/double3x3a"
  scale_param {
    bias_term: true
  }
}
layer {
  name: "inception_5b/relu_double3x3a"
  type: "ReLU"
  bottom: "inception_5b/double3x3a"
  top: "inception_5b/double3x3a"
}
layer {
  name: "inception_5b/double3x3b"
  type: "Convolution"
  bottom: "inception_5b/double3x3a"
  top: "inception_5b/double3x3b"
  param {
    lr_mult: 1.0
    decay_mult: 1.0
  }
  convolution_param {
    num_output: 224
    bias_term: false
    pad: 1
    kernel_size: 3
    stride: 1
    weight_filler {
      type: "gaussian"
      std: 0.00999999977648
    }
  }
}
layer {
  name: "inception_5b/double3x3b/bn"
  type: "BatchNorm"
  bottom: "inception_5b/double3x3b"
  top: "inception_5b/double3x3b"
}
layer {
  name: "inception_5b/double3x3b/bn/scale"
  type: "Scale"
  bottom: "inception_5b/double3x3b"
  top: "inception_5b/double3x3b"
  scale_param {
    bias_term: true
  }
}
layer {
  name: "inception_5b/relu_double3x3b"
  type: "ReLU"
  bottom: "inception_5b/double3x3b"
  top: "inception_5b/double3x3b"
}
layer {
  name: "inception_5b/pool"
  type: "Pooling"
  bottom: "inception_5a_scale"
  top: "inception_5b/pool"
  pooling_param {
    pool: AVE
    kernel_size: 3
    stride: 1
    pad: 1
  }
}
layer {
  name: "inception_5b/pool_proj"
  type: "Convolution"
  bottom: "inception_5b/pool"
  top: "inception_5b/pool_proj"
  param {
    lr_mult: 1.0
    decay_mult: 1.0
  }
  convolution_param {
    num_output: 128
    bias_term: false
    pad: 0
    kernel_size: 1
    stride: 1
    weight_filler {
      type: "gaussian"
      std: 0.00999999977648
    }
  }
}
layer {
  name: "inception_5b/pool_proj/bn"
  type: "BatchNorm"
  bottom: "inception_5b/pool_proj"
  top: "inception_5b/pool_proj"
}
layer {
  name: "inception_5b/pool_proj/bn/scale"
  type: "Scale"
  bottom: "inception_5b/pool_proj"
  top: "inception_5b/pool_proj"
  scale_param {
    bias_term: true
  }
}
layer {
  name: "inception_5b/relu_pool_proj"
  type: "ReLU"
  bottom: "inception_5b/pool_proj"
  top: "inception_5b/pool_proj"
}
layer {
  name: "inception_5b/concat"
  type: "Concat"
  bottom: "inception_5b/1x1"
  bottom: "inception_5b/3x3"
  bottom: "inception_5b/double3x3b"
  bottom: "inception_5b/pool_proj"
  top: "inception_5b/concat"
}
layer {
  name: "inception_5b_global_pool"
  type: "Pooling"
  bottom: "inception_5b/concat"
  top: "inception_5b_global_pool"
  pooling_param {
    pool: AVE
    engine: CAFFE
    global_pooling: true
  }
}
layer {
  name: "inception_5b_1x1_down"
  type: "Convolution"
  bottom: "inception_5b_global_pool"
  top: "inception_5b_1x1_down"
  param {
    lr_mult: 1.0
    decay_mult: 1.0
  }
  convolution_param {
    num_output: 64
    kernel_size: 1
    stride: 1
    weight_filler {
      type: "gaussian"
      std: 0.00999999977648
    }
  }
}
layer {
  name: "inception_5b_1x1_down/relu"
  type: "ReLU"
  bottom: "inception_5b_1x1_down"
  top: "inception_5b_1x1_down"
}
layer {
  name: "inception_5b_1x1_up"
  type: "Convolution"
  bottom: "inception_5b_1x1_down"
  top: "inception_5b_1x1_up"
  param {
    lr_mult: 1.0
    decay_mult: 1.0
  }
  convolution_param {
    num_output: 1024
    kernel_size: 1
    stride: 1
    weight_filler {
      type: "gaussian"
      std: 0.00999999977648
    }
  }
}
layer {
  name: "inception_5b_prob"
  type: "Sigmoid"
  bottom: "inception_5b_1x1_up"
  top: "inception_5b_1x1_up"
}
layer {
  name: "inception_5b_prob_reshape"
  type: "Reshape"
  bottom: "inception_5b_1x1_up"
  top: "inception_5b_prob_reshape"
  reshape_param {
    shape {
      dim: 0
      dim: 0
    }
  }
}
layer {
  name: "inception_5b_scale"
  type: "Scale"
  bottom: "inception_5b/concat"
  bottom: "inception_5b_prob_reshape"
  top: "inception_5b_scale"
  scale_param {
    axis: 0
    bias_term: false
  }
}
layer {
  name: "inception_6/1x1"
  type: "Convolution"
  bottom: "inception_5b_scale"
  top: "inception_6/1x1"
  param {
    lr_mult: 1.0
    decay_mult: 1.0
  }
  convolution_param {
    num_output: 64
    bias_term: false
    pad: 0
    kernel_size: 1
    stride: 2
    weight_filler {
      type: "gaussian"
      std: 0.00999999977648
    }
  }
}
layer {
  name: "inception_6/1x1/bn"
  type: "BatchNorm"
  bottom: "inception_6/1x1"
  top: "inception_6/1x1"
}
layer {
  name: "inception_6/1x1/bn/scale"
  type: "Scale"
  bottom: "inception_6/1x1"
  top: "inception_6/1x1"
  scale_param {
    bias_term: true
  }
}
layer {
  name: "inception_6/relu_1x1"
  type: "ReLU"
  bottom: "inception_6/1x1"
  top: "inception_6/1x1"
}
layer {
  name: "inception_6/3x3_reduce"
  type: "Convolution"
  bottom: "inception_5b_scale"
  top: "inception_6/3x3_reduce"
  param {
    lr_mult: 1.0
    decay_mult: 1.0
  }
  convolution_param {
    num_output: 64
    bias_term: false
    pad: 0
    kernel_size: 1
    stride: 1
    weight_filler {
      type: "gaussian"
      std: 0.00999999977648
    }
  }
}
layer {
  name: "inception_6/3x3_reduce/bn"
  type: "BatchNorm"
  bottom: "inception_6/3x3_reduce"
  top: "inception_6/3x3_reduce"
}
layer {
  name: "inception_6/3x3_reduce/bn/scale"
  type: "Scale"
  bottom: "inception_6/3x3_reduce"
  top: "inception_6/3x3_reduce"
  scale_param {
    bias_term: true
  }
}
layer {
  name: "inception_6/relu_3x3_reduce"
  type: "ReLU"
  bottom: "inception_6/3x3_reduce"
  top: "inception_6/3x3_reduce"
}
layer {
  name: "inception_6/3x3"
  type: "Convolution"
  bottom: "inception_6/3x3_reduce"
  top: "inception_6/3x3"
  param {
    lr_mult: 1.0
    decay_mult: 1.0
  }
  convolution_param {
    num_output: 64
    bias_term: false
    pad: 1
    kernel_size: 3
    stride: 2
    weight_filler {
      type: "gaussian"
      std: 0.00999999977648
    }
  }
}
layer {
  name: "inception_6/3x3/bn"
  type: "BatchNorm"
  bottom: "inception_6/3x3"
  top: "inception_6/3x3"
}
layer {
  name: "inception_6/3x3/bn/scale"
  type: "Scale"
  bottom: "inception_6/3x3"
  top: "inception_6/3x3"
  scale_param {
    bias_term: true
  }
}
layer {
  name: "inception_6/relu_3x3"
  type: "ReLU"
  bottom: "inception_6/3x3"
  top: "inception_6/3x3"
}
layer {
  name: "inception_6/double3x3_reduce"
  type: "Convolution"
  bottom: "inception_5b_scale"
  top: "inception_6/double3x3_reduce"
  param {
    lr_mult: 1.0
    decay_mult: 1.0
  }
  convolution_param {
    num_output: 64
    bias_term: false
    pad: 0
    kernel_size: 1
    stride: 1
    weight_filler {
      type: "gaussian"
      std: 0.00999999977648
    }
  }
}
layer {
  name: "inception_6/double3x3_reduce/bn"
  type: "BatchNorm"
  bottom: "inception_6/double3x3_reduce"
  top: "inception_6/double3x3_reduce"
}
layer {
  name: "inception_6/double3x3_reduce/bn/scale"
  type: "Scale"
  bottom: "inception_6/double3x3_reduce"
  top: "inception_6/double3x3_reduce"
  scale_param {
    bias_term: true
  }
}
layer {
  name: "inception_6/relu_double3x3_reduce"
  type: "ReLU"
  bottom: "inception_6/double3x3_reduce"
  top: "inception_6/double3x3_reduce"
}
layer {
  name: "inception_6/double3x3a"
  type: "Convolution"
  bottom: "inception_6/double3x3_reduce"
  top: "inception_6/double3x3a"
  param {
    lr_mult: 1.0
    decay_mult: 1.0
  }
  convolution_param {
    num_output: 96
    bias_term: false
    pad: 1
    kernel_size: 3
    stride: 1
    weight_filler {
      type: "gaussian"
      std: 0.00999999977648
    }
  }
}
layer {
  name: "inception_6/double3x3a/bn"
  type: "BatchNorm"
  bottom: "inception_6/double3x3a"
  top: "inception_6/double3x3a"
}
layer {
  name: "inception_6/double3x3a/bn/scale"
  type: "Scale"
  bottom: "inception_6/double3x3a"
  top: "inception_6/double3x3a"
  scale_param {
    bias_term: true
  }
}
layer {
  name: "inception_6/relu_double3x3a"
  type: "ReLU"
  bottom: "inception_6/double3x3a"
  top: "inception_6/double3x3a"
}
layer {
  name: "inception_6/double3x3b"
  type: "Convolution"
  bottom: "inception_6/double3x3a"
  top: "inception_6/double3x3b"
  param {
    lr_mult: 1.0
    decay_mult: 1.0
  }
  convolution_param {
    num_output: 96
    bias_term: false
    pad: 1
    kernel_size: 3
    stride: 2
    weight_filler {
      type: "gaussian"
      std: 0.00999999977648
    }
  }
}
layer {
  name: "inception_6/double3x3b/bn"
  type: "BatchNorm"
  bottom: "inception_6/double3x3b"
  top: "inception_6/double3x3b"
}
layer {
  name: "inception_6/double3x3b/bn/scale"
  type: "Scale"
  bottom: "inception_6/double3x3b"
  top: "inception_6/double3x3b"
  scale_param {
    bias_term: true
  }
}
layer {
  name: "inception_6/relu_double3x3b"
  type: "ReLU"
  bottom: "inception_6/double3x3b"
  top: "inception_6/double3x3b"
}
layer {
  name: "inception_6/pool"
  type: "Pooling"
  bottom: "inception_5b_scale"
  top: "inception_6/pool"
  pooling_param {
    pool: AVE
    kernel_size: 3
    stride: 1
    pad: 1
  }
}
layer {
  name: "inception_6/pool_proj"
  type: "Convolution"
  bottom: "inception_6/pool"
  top: "inception_6/pool_proj"
  param {
    lr_mult: 1.0
    decay_mult: 1.0
  }
  convolution_param {
    num_output: 32
    bias_term: false
    pad: 0
    kernel_size: 1
    stride: 2
    weight_filler {
      type: "gaussian"
      std: 0.00999999977648
    }
  }
}
layer {
  name: "inception_6/pool_proj/bn"
  type: "BatchNorm"
  bottom: "inception_6/pool_proj"
  top: "inception_6/pool_proj"
}
layer {
  name: "inception_6/pool_proj/bn/scale"
  type: "Scale"
  bottom: "inception_6/pool_proj"
  top: "inception_6/pool_proj"
  scale_param {
    bias_term: true
  }
}
layer {
  name: "inception_6/relu_pool_proj"
  type: "ReLU"
  bottom: "inception_6/pool_proj"
  top: "inception_6/pool_proj"
}
layer {
  name: "inception_6/concat"
  type: "Concat"
  bottom: "inception_6/1x1"
  bottom: "inception_6/3x3"
  bottom: "inception_6/double3x3b"
  bottom: "inception_6/pool_proj"
  top: "inception_6/concat"
}
layer {
  name: "inception_6_global_pool"
  type: "Pooling"
  bottom: "inception_6/concat"
  top: "inception_6_global_pool"
  pooling_param {
    pool: AVE
    engine: CAFFE
    global_pooling: true
  }
}
layer {
  name: "inception_6_1x1_down"
  type: "Convolution"
  bottom: "inception_6_global_pool"
  top: "inception_6_1x1_down"
  param {
    lr_mult: 1.0
    decay_mult: 1.0
  }
  convolution_param {
    num_output: 16
    kernel_size: 1
    stride: 1
    weight_filler {
      type: "gaussian"
      std: 0.00999999977648
    }
  }
}
layer {
  name: "inception_6_1x1_down/relu"
  type: "ReLU"
  bottom: "inception_6_1x1_down"
  top: "inception_6_1x1_down"
}
layer {
  name: "inception_6_1x1_up"
  type: "Convolution"
  bottom: "inception_6_1x1_down"
  top: "inception_6_1x1_up"
  param {
    lr_mult: 1.0
    decay_mult: 1.0
  }
  convolution_param {
    num_output: 256
    kernel_size: 1
    stride: 1
    weight_filler {
      type: "gaussian"
      std: 0.00999999977648
    }
  }
}
layer {
  name: "inception_6_prob"
  type: "Sigmoid"
  bottom: "inception_6_1x1_up"
  top: "inception_6_1x1_up"
}
layer {
  name: "inception_6_prob_reshape"
  type: "Reshape"
  bottom: "inception_6_1x1_up"
  top: "inception_6_prob_reshape"
  reshape_param {
    shape {
      dim: 0
      dim: 0
    }
  }
}
layer {
  name: "inception_6_scale"
  type: "Scale"
  bottom: "inception_6/concat"
  bottom: "inception_6_prob_reshape"
  top: "inception_6_scale"
  scale_param {
    axis: 0
    bias_term: false
  }
}
layer {
  name: "TL6_1"
  type: "Convolution"
  bottom: "inception_6_scale"
  top: "TL6_1"
  param {
    lr_mult: 1.0
    decay_mult: 1.0
  }
  convolution_param {
    num_output: 256
    bias_term: false
    pad: 1
    kernel_size: 3
    stride: 1
    weight_filler {
      type: "gaussian"
      std: 0.00999999977648
    }
  }
}
layer {
  name: "TL6_1_bn"
  type: "BatchNorm"
  bottom: "TL6_1"
  top: "TL6_1"
}
layer {
  name: "TL6_1_scale"
  type: "Scale"
  bottom: "TL6_1"
  top: "TL6_1"
  scale_param {
    bias_term: true
  }
}
layer {
  name: "TL6_1_relu"
  type: "ReLU"
  bottom: "TL6_1"
  top: "TL6_1"
}
layer {
  name: "TL6_2"
  type: "Convolution"
  bottom: "TL6_1"
  top: "TL6_2"
  param {
    lr_mult: 1.0
    decay_mult: 1.0
  }
  convolution_param {
    num_output: 256
    bias_term: false
    pad: 1
    kernel_size: 3
    stride: 1
    weight_filler {
      type: "gaussian"
      std: 0.00999999977648
    }
  }
}
layer {
  name: "TL6_2_bn"
  type: "BatchNorm"
  bottom: "TL6_2"
  top: "TL6_2"
}
layer {
  name: "TL6_2_scale"
  type: "Scale"
  bottom: "TL6_2"
  top: "TL6_2"
  scale_param {
    bias_term: true
  }
}
layer {
  name: "TL6_2_relu"
  type: "ReLU"
  bottom: "TL6_2"
  top: "TL6_2"
}
layer {
  name: "P6"
  type: "Convolution"
  bottom: "TL6_2"
  top: "P6"
  param {
    lr_mult: 1.0
    decay_mult: 1.0
  }
  convolution_param {
    num_output: 256
    bias_term: false
    pad: 1
    kernel_size: 3
    stride: 1
    weight_filler {
      type: "gaussian"
      std: 0.00999999977648
    }
  }
}
layer {
  name: "P6_bn"
  type: "BatchNorm"
  bottom: "P6"
  top: "P6"
}
layer {
  name: "P6_scale"
  type: "Scale"
  bottom: "P6"
  top: "P6"
  scale_param {
    bias_term: true
  }
}
layer {
  name: "P6_relu"
  type: "ReLU"
  bottom: "P6"
  top: "P6"
}
layer {
  name: "TL5_1"
  type: "Convolution"
  bottom: "inception_5b_scale"
  top: "TL5_1"
  param {
    lr_mult: 1.0
    decay_mult: 1.0
  }
  convolution_param {
    num_output: 256
    bias_term: false
    pad: 1
    kernel_size: 3
    stride: 1
    weight_filler {
      type: "gaussian"
      std: 0.00999999977648
    }
  }
}
layer {
  name: "TL5_1_bn"
  type: "BatchNorm"
  bottom: "TL5_1"
  top: "TL5_1"
}
layer {
  name: "TL5_1_scale"
  type: "Scale"
  bottom: "TL5_1"
  top: "TL5_1"
  scale_param {
    bias_term: true
  }
}
layer {
  name: "TL5_1_relu"
  type: "ReLU"
  bottom: "TL5_1"
  top: "TL5_1"
}
layer {
  name: "TL5_2"
  type: "Convolution"
  bottom: "TL5_1"
  top: "TL5_2"
  param {
    lr_mult: 1.0
    decay_mult: 1.0
  }
  convolution_param {
    num_output: 256
    bias_term: false
    pad: 1
    kernel_size: 3
    stride: 1
    weight_filler {
      type: "gaussian"
      std: 0.00999999977648
    }
  }
}
layer {
  name: "TL5_2_bn"
  type: "BatchNorm"
  bottom: "TL5_2"
  top: "TL5_2"
}
layer {
  name: "TL5_2_scale"
  type: "Scale"
  bottom: "TL5_2"
  top: "TL5_2"
  scale_param {
    bias_term: true
  }
}
layer {
  name: "P6-up"
  type: "Deconvolution"
  bottom: "P6"
  top: "P6-up"
  param {
    lr_mult: 1.0
    decay_mult: 1.0
  }
  convolution_param {
    num_output: 256
    bias_term: false
    pad: 0
    kernel_size: 2
    stride: 2
    weight_filler {
      type: "gaussian"
      std: 0.00999999977648
    }
  }
}
layer {
  name: "P6-up_bn"
  type: "BatchNorm"
  bottom: "P6-up"
  top: "P6-up"
}
layer {
  name: "P6-up_scale"
  type: "Scale"
  bottom: "P6-up"
  top: "P6-up"
  scale_param {
    bias_term: true
  }
}
layer {
  name: "Elt5"
  type: "Eltwise"
  bottom: "TL5_2"
  bottom: "P6-up"
  top: "Elt5"
}
layer {
  name: "Elt5_relu"
  type: "ReLU"
  bottom: "Elt5"
  top: "Elt5"
}
layer {
  name: "P5"
  type: "Convolution"
  bottom: "Elt5"
  top: "P5"
  param {
    lr_mult: 1.0
    decay_mult: 1.0
  }
  convolution_param {
    num_output: 256
    bias_term: false
    pad: 1
    kernel_size: 3
    stride: 1
    weight_filler {
      type: "gaussian"
      std: 0.00999999977648
    }
  }
}
layer {
  name: "P5_bn"
  type: "BatchNorm"
  bottom: "P5"
  top: "P5"
}
layer {
  name: "P5_scale"
  type: "Scale"
  bottom: "P5"
  top: "P5"
  scale_param {
    bias_term: true
  }
}
layer {
  name: "P5_relu"
  type: "ReLU"
  bottom: "P5"
  top: "P5"
}
layer {
  name: "TL4_1"
  type: "Convolution"
  bottom: "inception_4d_scale"
  top: "TL4_1"
  param {
    lr_mult: 1.0
    decay_mult: 1.0
  }
  convolution_param {
    num_output: 256
    bias_term: false
    pad: 1
    kernel_size: 3
    stride: 1
    weight_filler {
      type: "gaussian"
      std: 0.00999999977648
    }
  }
}
layer {
  name: "TL4_1_bn"
  type: "BatchNorm"
  bottom: "TL4_1"
  top: "TL4_1"
}
layer {
  name: "TL4_1_scale"
  type: "Scale"
  bottom: "TL4_1"
  top: "TL4_1"
  scale_param {
    bias_term: true
  }
}
layer {
  name: "TL4_1_relu"
  type: "ReLU"
  bottom: "TL4_1"
  top: "TL4_1"
}
layer {
  name: "TL4_2"
  type: "Convolution"
  bottom: "TL4_1"
  top: "TL4_2"
  param {
    lr_mult: 1.0
    decay_mult: 1.0
  }
  convolution_param {
    num_output: 256
    bias_term: false
    pad: 1
    kernel_size: 3
    stride: 1
    weight_filler {
      type: "gaussian"
      std: 0.00999999977648
    }
  }
}
layer {
  name: "TL4_2_bn"
  type: "BatchNorm"
  bottom: "TL4_2"
  top: "TL4_2"
}
layer {
  name: "TL4_2_scale"
  type: "Scale"
  bottom: "TL4_2"
  top: "TL4_2"
  scale_param {
    bias_term: true
  }
}
layer {
  name: "P5-up"
  type: "Deconvolution"
  bottom: "P5"
  top: "P5-up"
  param {
    lr_mult: 1.0
    decay_mult: 1.0
  }
  convolution_param {
    num_output: 256
    bias_term: false
    pad: 0
    kernel_size: 2
    stride: 2
    weight_filler {
      type: "gaussian"
      std: 0.00999999977648
    }
  }
}
layer {
  name: "P5-up_bn"
  type: "BatchNorm"
  bottom: "P5-up"
  top: "P5-up"
}
layer {
  name: "P5-up_scale"
  type: "Scale"
  bottom: "P5-up"
  top: "P5-up"
  scale_param {
    bias_term: true
  }
}
layer {
  name: "Elt4"
  type: "Eltwise"
  bottom: "TL4_2"
  bottom: "P5-up"
  top: "Elt4"
}
layer {
  name: "Elt4_relu"
  type: "ReLU"
  bottom: "Elt4"
  top: "Elt4"
}
layer {
  name: "P4"
  type: "Convolution"
  bottom: "Elt4"
  top: "P4"
  param {
    lr_mult: 1.0
    decay_mult: 1.0
  }
  convolution_param {
    num_output: 256
    bias_term: false
    pad: 1
    kernel_size: 3
    stride: 1
    weight_filler {
      type: "gaussian"
      std: 0.00999999977648
    }
  }
}
layer {
  name: "P4_bn"
  type: "BatchNorm"
  bottom: "P4"
  top: "P4"
}
layer {
  name: "P4_scale"
  type: "Scale"
  bottom: "P4"
  top: "P4"
  scale_param {
    bias_term: true
  }
}
layer {
  name: "P4_relu"
  type: "ReLU"
  bottom: "P4"
  top: "P4"
}
layer {
  name: "TL3_1"
  type: "Convolution"
  bottom: "inception_3b_scale"
  top: "TL3_1"
  param {
    lr_mult: 1.0
    decay_mult: 1.0
  }
  convolution_param {
    num_output: 256
    bias_term: false
    pad: 1
    kernel_size: 3
    stride: 1
    weight_filler {
      type: "gaussian"
      std: 0.00999999977648
    }
  }
}
layer {
  name: "TL3_1_bn"
  type: "BatchNorm"
  bottom: "TL3_1"
  top: "TL3_1"
}
layer {
  name: "TL3_1_scale"
  type: "Scale"
  bottom: "TL3_1"
  top: "TL3_1"
  scale_param {
    bias_term: true
  }
}
layer {
  name: "TL3_1_relu"
  type: "ReLU"
  bottom: "TL3_1"
  top: "TL3_1"
}
layer {
  name: "TL3_2"
  type: "Convolution"
  bottom: "TL3_1"
  top: "TL3_2"
  param {
    lr_mult: 1.0
    decay_mult: 1.0
  }
  convolution_param {
    num_output: 256
    bias_term: false
    pad: 1
    kernel_size: 3
    stride: 1
    weight_filler {
      type: "gaussian"
      std: 0.00999999977648
    }
  }
}
layer {
  name: "TL3_2_bn"
  type: "BatchNorm"
  bottom: "TL3_2"
  top: "TL3_2"
}
layer {
  name: "TL3_2_scale"
  type: "Scale"
  bottom: "TL3_2"
  top: "TL3_2"
  scale_param {
    bias_term: true
  }
}
layer {
  name: "P4-up"
  type: "Deconvolution"
  bottom: "P4"
  top: "P4-up"
  param {
    lr_mult: 1.0
    decay_mult: 1.0
  }
  convolution_param {
    num_output: 256
    bias_term: false
    pad: 0
    kernel_size: 2
    stride: 2
    weight_filler {
      type: "gaussian"
      std: 0.00999999977648
    }
  }
}
layer {
  name: "P4-up_bn"
  type: "BatchNorm"
  bottom: "P4-up"
  top: "P4-up"
}
layer {
  name: "P4-up_scale"
  type: "Scale"
  bottom: "P4-up"
  top: "P4-up"
  scale_param {
    bias_term: true
  }
}
layer {
  name: "Elt3"
  type: "Eltwise"
  bottom: "TL3_2"
  bottom: "P4-up"
  top: "Elt3"
}
layer {
  name: "Elt3_relu"
  type: "ReLU"
  bottom: "Elt3"
  top: "Elt3"
}
layer {
  name: "P3"
  type: "Convolution"
  bottom: "Elt3"
  top: "P3"
  param {
    lr_mult: 1.0
    decay_mult: 1.0
  }
  convolution_param {
    num_output: 256
    bias_term: false
    pad: 1
    kernel_size: 3
    stride: 1
    weight_filler {
      type: "gaussian"
      std: 0.00999999977648
    }
  }
}
layer {
  name: "P3_bn"
  type: "BatchNorm"
  bottom: "P3"
  top: "P3"
}
layer {
  name: "P3_scale"
  type: "Scale"
  bottom: "P3"
  top: "P3"
  scale_param {
    bias_term: true
  }
}
layer {
  name: "P3_relu"
  type: "ReLU"
  bottom: "P3"
  top: "P3"
}
layer {
  name: "inception_3b_scale_inter_1x1"
  type: "Convolution"
  bottom: "inception_3b_scale"
  top: "inception_3b_scale_inter_1x1"
  param {
    lr_mult: 1.0
    decay_mult: 1.0
  }
  convolution_param {
    num_output: 32
    bias_term: false
    pad: 0
    kernel_size: 1
    stride: 1
    weight_filler {
      type: "gaussian"
      std: 0.00999999977648
    }
  }
}
layer {
  name: "bninception_3b_scale_inter_1x1"
  type: "BatchNorm"
  bottom: "inception_3b_scale_inter_1x1"
  top: "inception_3b_scale_inter_1x1"
}
layer {
  name: "scaleinception_3b_scale_inter_1x1"
  type: "Scale"
  bottom: "inception_3b_scale_inter_1x1"
  top: "inception_3b_scale_inter_1x1"
  scale_param {
    bias_term: true
  }
}
layer {
  name: "inception_3b_scale_inter/relu_1x1"
  type: "ReLU"
  bottom: "inception_3b_scale_inter_1x1"
  top: "inception_3b_scale_inter_1x1"
}
layer {
  name: "inception_3b_scale_inter_3x3_reduce"
  type: "Convolution"
  bottom: "inception_3b_scale"
  top: "inception_3b_scale_inter_3x3_reduce"
  param {
    lr_mult: 1.0
    decay_mult: 1.0
  }
  convolution_param {
    num_output: 32
    bias_term: false
    pad: 0
    kernel_size: 1
    stride: 1
    weight_filler {
      type: "gaussian"
      std: 0.00999999977648
    }
  }
}
layer {
  name: "bninception_3b_scale_inter_3x3_reduce"
  type: "BatchNorm"
  bottom: "inception_3b_scale_inter_3x3_reduce"
  top: "inception_3b_scale_inter_3x3_reduce"
}
layer {
  name: "scaleinception_3b_scale_inter_3x3_reduce"
  type: "Scale"
  bottom: "inception_3b_scale_inter_3x3_reduce"
  top: "inception_3b_scale_inter_3x3_reduce"
  scale_param {
    bias_term: true
  }
}
layer {
  name: "inception_3b_scale_inter/relu_3x3_reduce"
  type: "ReLU"
  bottom: "inception_3b_scale_inter_3x3_reduce"
  top: "inception_3b_scale_inter_3x3_reduce"
}
layer {
  name: "inception_3b_scale_inter_3x3"
  type: "Convolution"
  bottom: "inception_3b_scale_inter_3x3_reduce"
  top: "inception_3b_scale_inter_3x3"
  param {
    lr_mult: 1.0
    decay_mult: 1.0
  }
  convolution_param {
    num_output: 32
    bias_term: false
    pad: 1
    kernel_size: 3
    stride: 1
    weight_filler {
      type: "gaussian"
      std: 0.00999999977648
    }
  }
}
layer {
  name: "bninception_3b_scale_inter_3x3"
  type: "BatchNorm"
  bottom: "inception_3b_scale_inter_3x3"
  top: "inception_3b_scale_inter_3x3"
}
layer {
  name: "scaleinception_3b_scale_inter_3x3"
  type: "Scale"
  bottom: "inception_3b_scale_inter_3x3"
  top: "inception_3b_scale_inter_3x3"
  scale_param {
    bias_term: true
  }
}
layer {
  name: "inception_3b_scale_inter/relu_3x3"
  type: "ReLU"
  bottom: "inception_3b_scale_inter_3x3"
  top: "inception_3b_scale_inter_3x3"
}
layer {
  name: "inception_3b_scale_inter_double3_3_reduce"
  type: "Convolution"
  bottom: "inception_3b_scale"
  top: "inception_3b_scale_inter_double3_3_reduce"
  param {
    lr_mult: 1.0
    decay_mult: 1.0
  }
  convolution_param {
    num_output: 32
    bias_term: false
    pad: 0
    kernel_size: 1
    stride: 1
    weight_filler {
      type: "gaussian"
      std: 0.00999999977648
    }
  }
}
layer {
  name: "bninception_3b_scale_inter_double3_3_reduce"
  type: "BatchNorm"
  bottom: "inception_3b_scale_inter_double3_3_reduce"
  top: "inception_3b_scale_inter_double3_3_reduce"
}
layer {
  name: "scaleinception_3b_scale_inter_double3_3_reduce"
  type: "Scale"
  bottom: "inception_3b_scale_inter_double3_3_reduce"
  top: "inception_3b_scale_inter_double3_3_reduce"
  scale_param {
    bias_term: true
  }
}
layer {
  name: "inception_3b_scale_inter/relu_double3x3_reduce"
  type: "ReLU"
  bottom: "inception_3b_scale_inter_double3_3_reduce"
  top: "inception_3b_scale_inter_double3_3_reduce"
}
layer {
  name: "inception_3b_scale_inter_double3_3a"
  type: "Convolution"
  bottom: "inception_3b_scale_inter_double3_3_reduce"
  top: "inception_3b_scale_inter_double3_3a"
  param {
    lr_mult: 1.0
    decay_mult: 1.0
  }
  convolution_param {
    num_output: 48
    bias_term: false
    pad: 1
    kernel_size: 3
    stride: 1
    weight_filler {
      type: "gaussian"
      std: 0.00999999977648
    }
  }
}
layer {
  name: "bninception_3b_scale_inter_double3_3a"
  type: "BatchNorm"
  bottom: "inception_3b_scale_inter_double3_3a"
  top: "inception_3b_scale_inter_double3_3a"
}
layer {
  name: "scaleinception_3b_scale_inter_double3_3a"
  type: "Scale"
  bottom: "inception_3b_scale_inter_double3_3a"
  top: "inception_3b_scale_inter_double3_3a"
  scale_param {
    bias_term: true
  }
}
layer {
  name: "inception_3b_scale_inter/relu_double3x3a"
  type: "ReLU"
  bottom: "inception_3b_scale_inter_double3_3a"
  top: "inception_3b_scale_inter_double3_3a"
}
layer {
  name: "inception_3b_scale_inter_double3_3b"
  type: "Convolution"
  bottom: "inception_3b_scale_inter_double3_3a"
  top: "inception_3b_scale_inter_double3_3b"
  param {
    lr_mult: 1.0
    decay_mult: 1.0
  }
  convolution_param {
    num_output: 48
    bias_term: false
    pad: 1
    kernel_size: 3
    stride: 1
    weight_filler {
      type: "gaussian"
      std: 0.00999999977648
    }
  }
}
layer {
  name: "bninception_3b_scale_inter_double3_3b"
  type: "BatchNorm"
  bottom: "inception_3b_scale_inter_double3_3b"
  top: "inception_3b_scale_inter_double3_3b"
}
layer {
  name: "scaleinception_3b_scale_inter_double3_3b"
  type: "Scale"
  bottom: "inception_3b_scale_inter_double3_3b"
  top: "inception_3b_scale_inter_double3_3b"
  scale_param {
    bias_term: true
  }
}
layer {
  name: "inception_3b_scale_inter/relu_double3x3b"
  type: "ReLU"
  bottom: "inception_3b_scale_inter_double3_3b"
  top: "inception_3b_scale_inter_double3_3b"
}
layer {
  name: "inception_3b_scale_inter_pool"
  type: "Pooling"
  bottom: "inception_3b_scale"
  top: "inception_3b_scale_inter_pool"
  pooling_param {
    pool: AVE
    kernel_size: 3
    stride: 1
    pad: 1
  }
}
layer {
  name: "inception_3b_scale_inter_pool_proj"
  type: "Convolution"
  bottom: "inception_3b_scale_inter_pool"
  top: "inception_3b_scale_inter_pool_proj"
  param {
    lr_mult: 1.0
    decay_mult: 1.0
  }
  convolution_param {
    num_output: 16
    bias_term: false
    pad: 0
    kernel_size: 1
    stride: 1
    weight_filler {
      type: "gaussian"
      std: 0.00999999977648
    }
  }
}
layer {
  name: "bninception_3b_scale_inter_pool_proj"
  type: "BatchNorm"
  bottom: "inception_3b_scale_inter_pool_proj"
  top: "inception_3b_scale_inter_pool_proj"
}
layer {
  name: "scaleinception_3b_scale_inter_pool_proj"
  type: "Scale"
  bottom: "inception_3b_scale_inter_pool_proj"
  top: "inception_3b_scale_inter_pool_proj"
  scale_param {
    bias_term: true
  }
}
layer {
  name: "inception_3b_scale_inter/relu_pool_proj"
  type: "ReLU"
  bottom: "inception_3b_scale_inter_pool_proj"
  top: "inception_3b_scale_inter_pool_proj"
}
layer {
  name: "inception_3b_scale_inter_concat"
  type: "Concat"
  bottom: "inception_3b_scale_inter_1x1"
  bottom: "inception_3b_scale_inter_3x3"
  bottom: "inception_3b_scale_inter_double3_3b"
  bottom: "inception_3b_scale_inter_pool_proj"
  top: "inception_3b_scale_inter_concat"
}
layer {
  name: "inception_3b_scale_inter_global_pool"
  type: "Pooling"
  bottom: "inception_3b_scale_inter_concat"
  top: "inception_3b_scale_inter_global_pool"
  pooling_param {
    pool: AVE
    engine: CAFFE
    global_pooling: true
  }
}
layer {
  name: "inception_3b_scale_inter_1x1_down"
  type: "Convolution"
  bottom: "inception_3b_scale_inter_global_pool"
  top: "inception_3b_scale_inter_1x1_down"
  param {
    lr_mult: 1.0
    decay_mult: 1.0
  }
  convolution_param {
    num_output: 8
    kernel_size: 1
    stride: 1
    weight_filler {
      type: "gaussian"
      std: 0.00999999977648
    }
  }
}
layer {
  name: "inception_3b_scale_inter_1x1_down_relu"
  type: "ReLU"
  bottom: "inception_3b_scale_inter_1x1_down"
  top: "inception_3b_scale_inter_1x1_down"
}
layer {
  name: "inception_3b_scale_inter_1x1_up"
  type: "Convolution"
  bottom: "inception_3b_scale_inter_1x1_down"
  top: "inception_3b_scale_inter_1x1_up"
  param {
    lr_mult: 1.0
    decay_mult: 1.0
  }
  convolution_param {
    num_output: 128
    kernel_size: 1
    stride: 1
    weight_filler {
      type: "gaussian"
      std: 0.00999999977648
    }
  }
}
layer {
  name: "inception_3b_scale_inter_prob"
  type: "Sigmoid"
  bottom: "inception_3b_scale_inter_1x1_up"
  top: "inception_3b_scale_inter_1x1_up"
}
layer {
  name: "inception_3b_scale_inter_prob_reshape"
  type: "Reshape"
  bottom: "inception_3b_scale_inter_1x1_up"
  top: "inception_3b_scale_inter_prob_reshape"
  reshape_param {
    shape {
      dim: 0
      dim: 0
    }
  }
}
layer {
  name: "inception_3b_scale_inter_scale"
  type: "Scale"
  bottom: "inception_3b_scale_inter_concat"
  bottom: "inception_3b_scale_inter_prob_reshape"
  top: "inception_3b_scale_inter_scale"
  scale_param {
    axis: 0
    bias_term: false
  }
}
layer {
  name: "inception_3b_scale_inter_scale_mbox_loc"
  type: "Convolution"
  bottom: "inception_3b_scale_inter_scale"
  top: "inception_3b_scale_inter_scale_mbox_loc"
  param {
    lr_mult: 1.0
    decay_mult: 1.0
  }
  param {
    lr_mult: 2.0
    decay_mult: 0.0
  }
  convolution_param {
    num_output: 12
    pad: 1
    kernel_size: 3
    stride: 1
    weight_filler {
      type: "xavier"
    }
    bias_filler {
      type: "constant"
      value: 0.0
    }
  }
}
layer {
  name: "inception_3b_scale_inter_scale_mbox_loc_perm"
  type: "Permute"
  bottom: "inception_3b_scale_inter_scale_mbox_loc"
  top: "inception_3b_scale_inter_scale_mbox_loc_perm"
  permute_param {
    order: 0
    order: 2
    order: 3
    order: 1
  }
}
layer {
  name: "inception_3b_scale_inter_scale_mbox_loc_flat"
  type: "Flatten"
  bottom: "inception_3b_scale_inter_scale_mbox_loc_perm"
  top: "inception_3b_scale_inter_scale_mbox_loc_flat"
  flatten_param {
    axis: 1
  }
}
layer {
  name: "inception_3b_scale_inter_scale_mbox_conf"
  type: "Convolution"
  bottom: "inception_3b_scale_inter_scale"
  top: "inception_3b_scale_inter_scale_mbox_conf"
  param {
    lr_mult: 1.0
    decay_mult: 1.0
  }
  param {
    lr_mult: 2.0
    decay_mult: 0.0
  }
  convolution_param {
    num_output: 6
    pad: 1
    kernel_size: 3
    stride: 1
    weight_filler {
      type: "xavier"
    }
    bias_filler {
      type: "constant"
      value: 0.0
    }
  }
}
layer {
  name: "inception_3b_scale_inter_scale_mbox_conf_perm"
  type: "Permute"
  bottom: "inception_3b_scale_inter_scale_mbox_conf"
  top: "inception_3b_scale_inter_scale_mbox_conf_perm"
  permute_param {
    order: 0
    order: 2
    order: 3
    order: 1
  }
}
layer {
  name: "inception_3b_scale_inter_scale_mbox_conf_flat"
  type: "Flatten"
  bottom: "inception_3b_scale_inter_scale_mbox_conf_perm"
  top: "inception_3b_scale_inter_scale_mbox_conf_flat"
  flatten_param {
    axis: 1
  }
}
layer {
  name: "inception_3b_scale_inter_scale_mbox_priorbox"
  type: "PriorBox"
  bottom: "inception_3b_scale_inter_scale"
  bottom: "data"
  top: "inception_3b_scale_inter_scale_mbox_priorbox"
  prior_box_param {
    min_size: 32.0
    aspect_ratio: 2.0
    flip: true
    clip: false
    variance: 0.10000000149
    variance: 0.10000000149
    variance: 0.20000000298
    variance: 0.20000000298
    step: 8.0
    offset: 0.5
  }
}
layer {
  name: "inception_4d_scale_inter_1x1"
  type: "Convolution"
  bottom: "inception_4d_scale"
  top: "inception_4d_scale_inter_1x1"
  param {
    lr_mult: 1.0
    decay_mult: 1.0
  }
  convolution_param {
    num_output: 32
    bias_term: false
    pad: 0
    kernel_size: 1
    stride: 1
    weight_filler {
      type: "gaussian"
      std: 0.00999999977648
    }
  }
}
layer {
  name: "bninception_4d_scale_inter_1x1"
  type: "BatchNorm"
  bottom: "inception_4d_scale_inter_1x1"
  top: "inception_4d_scale_inter_1x1"
}
layer {
  name: "scaleinception_4d_scale_inter_1x1"
  type: "Scale"
  bottom: "inception_4d_scale_inter_1x1"
  top: "inception_4d_scale_inter_1x1"
  scale_param {
    bias_term: true
  }
}
layer {
  name: "inception_4d_scale_inter/relu_1x1"
  type: "ReLU"
  bottom: "inception_4d_scale_inter_1x1"
  top: "inception_4d_scale_inter_1x1"
}
layer {
  name: "inception_4d_scale_inter_3x3_reduce"
  type: "Convolution"
  bottom: "inception_4d_scale"
  top: "inception_4d_scale_inter_3x3_reduce"
  param {
    lr_mult: 1.0
    decay_mult: 1.0
  }
  convolution_param {
    num_output: 32
    bias_term: false
    pad: 0
    kernel_size: 1
    stride: 1
    weight_filler {
      type: "gaussian"
      std: 0.00999999977648
    }
  }
}
layer {
  name: "bninception_4d_scale_inter_3x3_reduce"
  type: "BatchNorm"
  bottom: "inception_4d_scale_inter_3x3_reduce"
  top: "inception_4d_scale_inter_3x3_reduce"
}
layer {
  name: "scaleinception_4d_scale_inter_3x3_reduce"
  type: "Scale"
  bottom: "inception_4d_scale_inter_3x3_reduce"
  top: "inception_4d_scale_inter_3x3_reduce"
  scale_param {
    bias_term: true
  }
}
layer {
  name: "inception_4d_scale_inter/relu_3x3_reduce"
  type: "ReLU"
  bottom: "inception_4d_scale_inter_3x3_reduce"
  top: "inception_4d_scale_inter_3x3_reduce"
}
layer {
  name: "inception_4d_scale_inter_3x3"
  type: "Convolution"
  bottom: "inception_4d_scale_inter_3x3_reduce"
  top: "inception_4d_scale_inter_3x3"
  param {
    lr_mult: 1.0
    decay_mult: 1.0
  }
  convolution_param {
    num_output: 32
    bias_term: false
    pad: 1
    kernel_size: 3
    stride: 1
    weight_filler {
      type: "gaussian"
      std: 0.00999999977648
    }
  }
}
layer {
  name: "bninception_4d_scale_inter_3x3"
  type: "BatchNorm"
  bottom: "inception_4d_scale_inter_3x3"
  top: "inception_4d_scale_inter_3x3"
}
layer {
  name: "scaleinception_4d_scale_inter_3x3"
  type: "Scale"
  bottom: "inception_4d_scale_inter_3x3"
  top: "inception_4d_scale_inter_3x3"
  scale_param {
    bias_term: true
  }
}
layer {
  name: "inception_4d_scale_inter/relu_3x3"
  type: "ReLU"
  bottom: "inception_4d_scale_inter_3x3"
  top: "inception_4d_scale_inter_3x3"
}
layer {
  name: "inception_4d_scale_inter_double3_3_reduce"
  type: "Convolution"
  bottom: "inception_4d_scale"
  top: "inception_4d_scale_inter_double3_3_reduce"
  param {
    lr_mult: 1.0
    decay_mult: 1.0
  }
  convolution_param {
    num_output: 32
    bias_term: false
    pad: 0
    kernel_size: 1
    stride: 1
    weight_filler {
      type: "gaussian"
      std: 0.00999999977648
    }
  }
}
layer {
  name: "bninception_4d_scale_inter_double3_3_reduce"
  type: "BatchNorm"
  bottom: "inception_4d_scale_inter_double3_3_reduce"
  top: "inception_4d_scale_inter_double3_3_reduce"
}
layer {
  name: "scaleinception_4d_scale_inter_double3_3_reduce"
  type: "Scale"
  bottom: "inception_4d_scale_inter_double3_3_reduce"
  top: "inception_4d_scale_inter_double3_3_reduce"
  scale_param {
    bias_term: true
  }
}
layer {
  name: "inception_4d_scale_inter/relu_double3x3_reduce"
  type: "ReLU"
  bottom: "inception_4d_scale_inter_double3_3_reduce"
  top: "inception_4d_scale_inter_double3_3_reduce"
}
layer {
  name: "inception_4d_scale_inter_double3_3a"
  type: "Convolution"
  bottom: "inception_4d_scale_inter_double3_3_reduce"
  top: "inception_4d_scale_inter_double3_3a"
  param {
    lr_mult: 1.0
    decay_mult: 1.0
  }
  convolution_param {
    num_output: 48
    bias_term: false
    pad: 1
    kernel_size: 3
    stride: 1
    weight_filler {
      type: "gaussian"
      std: 0.00999999977648
    }
  }
}
layer {
  name: "bninception_4d_scale_inter_double3_3a"
  type: "BatchNorm"
  bottom: "inception_4d_scale_inter_double3_3a"
  top: "inception_4d_scale_inter_double3_3a"
}
layer {
  name: "scaleinception_4d_scale_inter_double3_3a"
  type: "Scale"
  bottom: "inception_4d_scale_inter_double3_3a"
  top: "inception_4d_scale_inter_double3_3a"
  scale_param {
    bias_term: true
  }
}
layer {
  name: "inception_4d_scale_inter/relu_double3x3a"
  type: "ReLU"
  bottom: "inception_4d_scale_inter_double3_3a"
  top: "inception_4d_scale_inter_double3_3a"
}
layer {
  name: "inception_4d_scale_inter_double3_3b"
  type: "Convolution"
  bottom: "inception_4d_scale_inter_double3_3a"
  top: "inception_4d_scale_inter_double3_3b"
  param {
    lr_mult: 1.0
    decay_mult: 1.0
  }
  convolution_param {
    num_output: 48
    bias_term: false
    pad: 1
    kernel_size: 3
    stride: 1
    weight_filler {
      type: "gaussian"
      std: 0.00999999977648
    }
  }
}
layer {
  name: "bninception_4d_scale_inter_double3_3b"
  type: "BatchNorm"
  bottom: "inception_4d_scale_inter_double3_3b"
  top: "inception_4d_scale_inter_double3_3b"
}
layer {
  name: "scaleinception_4d_scale_inter_double3_3b"
  type: "Scale"
  bottom: "inception_4d_scale_inter_double3_3b"
  top: "inception_4d_scale_inter_double3_3b"
  scale_param {
    bias_term: true
  }
}
layer {
  name: "inception_4d_scale_inter/relu_double3x3b"
  type: "ReLU"
  bottom: "inception_4d_scale_inter_double3_3b"
  top: "inception_4d_scale_inter_double3_3b"
}
layer {
  name: "inception_4d_scale_inter_pool"
  type: "Pooling"
  bottom: "inception_4d_scale"
  top: "inception_4d_scale_inter_pool"
  pooling_param {
    pool: AVE
    kernel_size: 3
    stride: 1
    pad: 1
  }
}
layer {
  name: "inception_4d_scale_inter_pool_proj"
  type: "Convolution"
  bottom: "inception_4d_scale_inter_pool"
  top: "inception_4d_scale_inter_pool_proj"
  param {
    lr_mult: 1.0
    decay_mult: 1.0
  }
  convolution_param {
    num_output: 16
    bias_term: false
    pad: 0
    kernel_size: 1
    stride: 1
    weight_filler {
      type: "gaussian"
      std: 0.00999999977648
    }
  }
}
layer {
  name: "bninception_4d_scale_inter_pool_proj"
  type: "BatchNorm"
  bottom: "inception_4d_scale_inter_pool_proj"
  top: "inception_4d_scale_inter_pool_proj"
}
layer {
  name: "scaleinception_4d_scale_inter_pool_proj"
  type: "Scale"
  bottom: "inception_4d_scale_inter_pool_proj"
  top: "inception_4d_scale_inter_pool_proj"
  scale_param {
    bias_term: true
  }
}
layer {
  name: "inception_4d_scale_inter/relu_pool_proj"
  type: "ReLU"
  bottom: "inception_4d_scale_inter_pool_proj"
  top: "inception_4d_scale_inter_pool_proj"
}
layer {
  name: "inception_4d_scale_inter_concat"
  type: "Concat"
  bottom: "inception_4d_scale_inter_1x1"
  bottom: "inception_4d_scale_inter_3x3"
  bottom: "inception_4d_scale_inter_double3_3b"
  bottom: "inception_4d_scale_inter_pool_proj"
  top: "inception_4d_scale_inter_concat"
}
layer {
  name: "inception_4d_scale_inter_global_pool"
  type: "Pooling"
  bottom: "inception_4d_scale_inter_concat"
  top: "inception_4d_scale_inter_global_pool"
  pooling_param {
    pool: AVE
    engine: CAFFE
    global_pooling: true
  }
}
layer {
  name: "inception_4d_scale_inter_1x1_down"
  type: "Convolution"
  bottom: "inception_4d_scale_inter_global_pool"
  top: "inception_4d_scale_inter_1x1_down"
  param {
    lr_mult: 1.0
    decay_mult: 1.0
  }
  convolution_param {
    num_output: 8
    kernel_size: 1
    stride: 1
    weight_filler {
      type: "gaussian"
      std: 0.00999999977648
    }
  }
}
layer {
  name: "inception_4d_scale_inter_1x1_down_relu"
  type: "ReLU"
  bottom: "inception_4d_scale_inter_1x1_down"
  top: "inception_4d_scale_inter_1x1_down"
}
layer {
  name: "inception_4d_scale_inter_1x1_up"
  type: "Convolution"
  bottom: "inception_4d_scale_inter_1x1_down"
  top: "inception_4d_scale_inter_1x1_up"
  param {
    lr_mult: 1.0
    decay_mult: 1.0
  }
  convolution_param {
    num_output: 128
    kernel_size: 1
    stride: 1
    weight_filler {
      type: "gaussian"
      std: 0.00999999977648
    }
  }
}
layer {
  name: "inception_4d_scale_inter_prob"
  type: "Sigmoid"
  bottom: "inception_4d_scale_inter_1x1_up"
  top: "inception_4d_scale_inter_1x1_up"
}
layer {
  name: "inception_4d_scale_inter_prob_reshape"
  type: "Reshape"
  bottom: "inception_4d_scale_inter_1x1_up"
  top: "inception_4d_scale_inter_prob_reshape"
  reshape_param {
    shape {
      dim: 0
      dim: 0
    }
  }
}
layer {
  name: "inception_4d_scale_inter_scale"
  type: "Scale"
  bottom: "inception_4d_scale_inter_concat"
  bottom: "inception_4d_scale_inter_prob_reshape"
  top: "inception_4d_scale_inter_scale"
  scale_param {
    axis: 0
    bias_term: false
  }
}
layer {
  name: "inception_4d_scale_inter_scale_mbox_loc"
  type: "Convolution"
  bottom: "inception_4d_scale_inter_scale"
  top: "inception_4d_scale_inter_scale_mbox_loc"
  param {
    lr_mult: 1.0
    decay_mult: 1.0
  }
  param {
    lr_mult: 2.0
    decay_mult: 0.0
  }
  convolution_param {
    num_output: 12
    pad: 1
    kernel_size: 3
    stride: 1
    weight_filler {
      type: "xavier"
    }
    bias_filler {
      type: "constant"
      value: 0.0
    }
  }
}
layer {
  name: "inception_4d_scale_inter_scale_mbox_loc_perm"
  type: "Permute"
  bottom: "inception_4d_scale_inter_scale_mbox_loc"
  top: "inception_4d_scale_inter_scale_mbox_loc_perm"
  permute_param {
    order: 0
    order: 2
    order: 3
    order: 1
  }
}
layer {
  name: "inception_4d_scale_inter_scale_mbox_loc_flat"
  type: "Flatten"
  bottom: "inception_4d_scale_inter_scale_mbox_loc_perm"
  top: "inception_4d_scale_inter_scale_mbox_loc_flat"
  flatten_param {
    axis: 1
  }
}
layer {
  name: "inception_4d_scale_inter_scale_mbox_conf"
  type: "Convolution"
  bottom: "inception_4d_scale_inter_scale"
  top: "inception_4d_scale_inter_scale_mbox_conf"
  param {
    lr_mult: 1.0
    decay_mult: 1.0
  }
  param {
    lr_mult: 2.0
    decay_mult: 0.0
  }
  convolution_param {
    num_output: 6
    pad: 1
    kernel_size: 3
    stride: 1
    weight_filler {
      type: "xavier"
    }
    bias_filler {
      type: "constant"
      value: 0.0
    }
  }
}
layer {
  name: "inception_4d_scale_inter_scale_mbox_conf_perm"
  type: "Permute"
  bottom: "inception_4d_scale_inter_scale_mbox_conf"
  top: "inception_4d_scale_inter_scale_mbox_conf_perm"
  permute_param {
    order: 0
    order: 2
    order: 3
    order: 1
  }
}
layer {
  name: "inception_4d_scale_inter_scale_mbox_conf_flat"
  type: "Flatten"
  bottom: "inception_4d_scale_inter_scale_mbox_conf_perm"
  top: "inception_4d_scale_inter_scale_mbox_conf_flat"
  flatten_param {
    axis: 1
  }
}
layer {
  name: "inception_4d_scale_inter_scale_mbox_priorbox"
  type: "PriorBox"
  bottom: "inception_4d_scale_inter_scale"
  bottom: "data"
  top: "inception_4d_scale_inter_scale_mbox_priorbox"
  prior_box_param {
    min_size: 64.0
    aspect_ratio: 2.0
    flip: true
    clip: false
    variance: 0.10000000149
    variance: 0.10000000149
    variance: 0.20000000298
    variance: 0.20000000298
    step: 16.0
    offset: 0.5
  }
}
layer {
  name: "inception_5b_scale_inter_1x1"
  type: "Convolution"
  bottom: "inception_5b_scale"
  top: "inception_5b_scale_inter_1x1"
  param {
    lr_mult: 1.0
    decay_mult: 1.0
  }
  convolution_param {
    num_output: 32
    bias_term: false
    pad: 0
    kernel_size: 1
    stride: 1
    weight_filler {
      type: "gaussian"
      std: 0.00999999977648
    }
  }
}
layer {
  name: "bninception_5b_scale_inter_1x1"
  type: "BatchNorm"
  bottom: "inception_5b_scale_inter_1x1"
  top: "inception_5b_scale_inter_1x1"
}
layer {
  name: "scaleinception_5b_scale_inter_1x1"
  type: "Scale"
  bottom: "inception_5b_scale_inter_1x1"
  top: "inception_5b_scale_inter_1x1"
  scale_param {
    bias_term: true
  }
}
layer {
  name: "inception_5b_scale_inter/relu_1x1"
  type: "ReLU"
  bottom: "inception_5b_scale_inter_1x1"
  top: "inception_5b_scale_inter_1x1"
}
layer {
  name: "inception_5b_scale_inter_3x3_reduce"
  type: "Convolution"
  bottom: "inception_5b_scale"
  top: "inception_5b_scale_inter_3x3_reduce"
  param {
    lr_mult: 1.0
    decay_mult: 1.0
  }
  convolution_param {
    num_output: 32
    bias_term: false
    pad: 0
    kernel_size: 1
    stride: 1
    weight_filler {
      type: "gaussian"
      std: 0.00999999977648
    }
  }
}
layer {
  name: "bninception_5b_scale_inter_3x3_reduce"
  type: "BatchNorm"
  bottom: "inception_5b_scale_inter_3x3_reduce"
  top: "inception_5b_scale_inter_3x3_reduce"
}
layer {
  name: "scaleinception_5b_scale_inter_3x3_reduce"
  type: "Scale"
  bottom: "inception_5b_scale_inter_3x3_reduce"
  top: "inception_5b_scale_inter_3x3_reduce"
  scale_param {
    bias_term: true
  }
}
layer {
  name: "inception_5b_scale_inter/relu_3x3_reduce"
  type: "ReLU"
  bottom: "inception_5b_scale_inter_3x3_reduce"
  top: "inception_5b_scale_inter_3x3_reduce"
}
layer {
  name: "inception_5b_scale_inter_3x3"
  type: "Convolution"
  bottom: "inception_5b_scale_inter_3x3_reduce"
  top: "inception_5b_scale_inter_3x3"
  param {
    lr_mult: 1.0
    decay_mult: 1.0
  }
  convolution_param {
    num_output: 32
    bias_term: false
    pad: 1
    kernel_size: 3
    stride: 1
    weight_filler {
      type: "gaussian"
      std: 0.00999999977648
    }
  }
}
layer {
  name: "bninception_5b_scale_inter_3x3"
  type: "BatchNorm"
  bottom: "inception_5b_scale_inter_3x3"
  top: "inception_5b_scale_inter_3x3"
}
layer {
  name: "scaleinception_5b_scale_inter_3x3"
  type: "Scale"
  bottom: "inception_5b_scale_inter_3x3"
  top: "inception_5b_scale_inter_3x3"
  scale_param {
    bias_term: true
  }
}
layer {
  name: "inception_5b_scale_inter/relu_3x3"
  type: "ReLU"
  bottom: "inception_5b_scale_inter_3x3"
  top: "inception_5b_scale_inter_3x3"
}
layer {
  name: "inception_5b_scale_inter_double3_3_reduce"
  type: "Convolution"
  bottom: "inception_5b_scale"
  top: "inception_5b_scale_inter_double3_3_reduce"
  param {
    lr_mult: 1.0
    decay_mult: 1.0
  }
  convolution_param {
    num_output: 32
    bias_term: false
    pad: 0
    kernel_size: 1
    stride: 1
    weight_filler {
      type: "gaussian"
      std: 0.00999999977648
    }
  }
}
layer {
  name: "bninception_5b_scale_inter_double3_3_reduce"
  type: "BatchNorm"
  bottom: "inception_5b_scale_inter_double3_3_reduce"
  top: "inception_5b_scale_inter_double3_3_reduce"
}
layer {
  name: "scaleinception_5b_scale_inter_double3_3_reduce"
  type: "Scale"
  bottom: "inception_5b_scale_inter_double3_3_reduce"
  top: "inception_5b_scale_inter_double3_3_reduce"
  scale_param {
    bias_term: true
  }
}
layer {
  name: "inception_5b_scale_inter/relu_double3x3_reduce"
  type: "ReLU"
  bottom: "inception_5b_scale_inter_double3_3_reduce"
  top: "inception_5b_scale_inter_double3_3_reduce"
}
layer {
  name: "inception_5b_scale_inter_double3_3a"
  type: "Convolution"
  bottom: "inception_5b_scale_inter_double3_3_reduce"
  top: "inception_5b_scale_inter_double3_3a"
  param {
    lr_mult: 1.0
    decay_mult: 1.0
  }
  convolution_param {
    num_output: 48
    bias_term: false
    pad: 1
    kernel_size: 3
    stride: 1
    weight_filler {
      type: "gaussian"
      std: 0.00999999977648
    }
  }
}
layer {
  name: "bninception_5b_scale_inter_double3_3a"
  type: "BatchNorm"
  bottom: "inception_5b_scale_inter_double3_3a"
  top: "inception_5b_scale_inter_double3_3a"
}
layer {
  name: "scaleinception_5b_scale_inter_double3_3a"
  type: "Scale"
  bottom: "inception_5b_scale_inter_double3_3a"
  top: "inception_5b_scale_inter_double3_3a"
  scale_param {
    bias_term: true
  }
}
layer {
  name: "inception_5b_scale_inter/relu_double3x3a"
  type: "ReLU"
  bottom: "inception_5b_scale_inter_double3_3a"
  top: "inception_5b_scale_inter_double3_3a"
}
layer {
  name: "inception_5b_scale_inter_double3_3b"
  type: "Convolution"
  bottom: "inception_5b_scale_inter_double3_3a"
  top: "inception_5b_scale_inter_double3_3b"
  param {
    lr_mult: 1.0
    decay_mult: 1.0
  }
  convolution_param {
    num_output: 48
    bias_term: false
    pad: 1
    kernel_size: 3
    stride: 1
    weight_filler {
      type: "gaussian"
      std: 0.00999999977648
    }
  }
}
layer {
  name: "bninception_5b_scale_inter_double3_3b"
  type: "BatchNorm"
  bottom: "inception_5b_scale_inter_double3_3b"
  top: "inception_5b_scale_inter_double3_3b"
}
layer {
  name: "scaleinception_5b_scale_inter_double3_3b"
  type: "Scale"
  bottom: "inception_5b_scale_inter_double3_3b"
  top: "inception_5b_scale_inter_double3_3b"
  scale_param {
    bias_term: true
  }
}
layer {
  name: "inception_5b_scale_inter/relu_double3x3b"
  type: "ReLU"
  bottom: "inception_5b_scale_inter_double3_3b"
  top: "inception_5b_scale_inter_double3_3b"
}
layer {
  name: "inception_5b_scale_inter_pool"
  type: "Pooling"
  bottom: "inception_5b_scale"
  top: "inception_5b_scale_inter_pool"
  pooling_param {
    pool: AVE
    kernel_size: 3
    stride: 1
    pad: 1
  }
}
layer {
  name: "inception_5b_scale_inter_pool_proj"
  type: "Convolution"
  bottom: "inception_5b_scale_inter_pool"
  top: "inception_5b_scale_inter_pool_proj"
  param {
    lr_mult: 1.0
    decay_mult: 1.0
  }
  convolution_param {
    num_output: 16
    bias_term: false
    pad: 0
    kernel_size: 1
    stride: 1
    weight_filler {
      type: "gaussian"
      std: 0.00999999977648
    }
  }
}
layer {
  name: "bninception_5b_scale_inter_pool_proj"
  type: "BatchNorm"
  bottom: "inception_5b_scale_inter_pool_proj"
  top: "inception_5b_scale_inter_pool_proj"
}
layer {
  name: "scaleinception_5b_scale_inter_pool_proj"
  type: "Scale"
  bottom: "inception_5b_scale_inter_pool_proj"
  top: "inception_5b_scale_inter_pool_proj"
  scale_param {
    bias_term: true
  }
}
layer {
  name: "inception_5b_scale_inter/relu_pool_proj"
  type: "ReLU"
  bottom: "inception_5b_scale_inter_pool_proj"
  top: "inception_5b_scale_inter_pool_proj"
}
layer {
  name: "inception_5b_scale_inter_concat"
  type: "Concat"
  bottom: "inception_5b_scale_inter_1x1"
  bottom: "inception_5b_scale_inter_3x3"
  bottom: "inception_5b_scale_inter_double3_3b"
  bottom: "inception_5b_scale_inter_pool_proj"
  top: "inception_5b_scale_inter_concat"
}
layer {
  name: "inception_5b_scale_inter_global_pool"
  type: "Pooling"
  bottom: "inception_5b_scale_inter_concat"
  top: "inception_5b_scale_inter_global_pool"
  pooling_param {
    pool: AVE
    engine: CAFFE
    global_pooling: true
  }
}
layer {
  name: "inception_5b_scale_inter_1x1_down"
  type: "Convolution"
  bottom: "inception_5b_scale_inter_global_pool"
  top: "inception_5b_scale_inter_1x1_down"
  param {
    lr_mult: 1.0
    decay_mult: 1.0
  }
  convolution_param {
    num_output: 8
    kernel_size: 1
    stride: 1
    weight_filler {
      type: "gaussian"
      std: 0.00999999977648
    }
  }
}
layer {
  name: "inception_5b_scale_inter_1x1_down_relu"
  type: "ReLU"
  bottom: "inception_5b_scale_inter_1x1_down"
  top: "inception_5b_scale_inter_1x1_down"
}
layer {
  name: "inception_5b_scale_inter_1x1_up"
  type: "Convolution"
  bottom: "inception_5b_scale_inter_1x1_down"
  top: "inception_5b_scale_inter_1x1_up"
  param {
    lr_mult: 1.0
    decay_mult: 1.0
  }
  convolution_param {
    num_output: 128
    kernel_size: 1
    stride: 1
    weight_filler {
      type: "gaussian"
      std: 0.00999999977648
    }
  }
}
layer {
  name: "inception_5b_scale_inter_prob"
  type: "Sigmoid"
  bottom: "inception_5b_scale_inter_1x1_up"
  top: "inception_5b_scale_inter_1x1_up"
}
layer {
  name: "inception_5b_scale_inter_prob_reshape"
  type: "Reshape"
  bottom: "inception_5b_scale_inter_1x1_up"
  top: "inception_5b_scale_inter_prob_reshape"
  reshape_param {
    shape {
      dim: 0
      dim: 0
    }
  }
}
layer {
  name: "inception_5b_scale_inter_scale"
  type: "Scale"
  bottom: "inception_5b_scale_inter_concat"
  bottom: "inception_5b_scale_inter_prob_reshape"
  top: "inception_5b_scale_inter_scale"
  scale_param {
    axis: 0
    bias_term: false
  }
}
layer {
  name: "inception_5b_scale_inter_scale_mbox_loc"
  type: "Convolution"
  bottom: "inception_5b_scale_inter_scale"
  top: "inception_5b_scale_inter_scale_mbox_loc"
  param {
    lr_mult: 1.0
    decay_mult: 1.0
  }
  param {
    lr_mult: 2.0
    decay_mult: 0.0
  }
  convolution_param {
    num_output: 12
    pad: 1
    kernel_size: 3
    stride: 1
    weight_filler {
      type: "xavier"
    }
    bias_filler {
      type: "constant"
      value: 0.0
    }
  }
}
layer {
  name: "inception_5b_scale_inter_scale_mbox_loc_perm"
  type: "Permute"
  bottom: "inception_5b_scale_inter_scale_mbox_loc"
  top: "inception_5b_scale_inter_scale_mbox_loc_perm"
  permute_param {
    order: 0
    order: 2
    order: 3
    order: 1
  }
}
layer {
  name: "inception_5b_scale_inter_scale_mbox_loc_flat"
  type: "Flatten"
  bottom: "inception_5b_scale_inter_scale_mbox_loc_perm"
  top: "inception_5b_scale_inter_scale_mbox_loc_flat"
  flatten_param {
    axis: 1
  }
}
layer {
  name: "inception_5b_scale_inter_scale_mbox_conf"
  type: "Convolution"
  bottom: "inception_5b_scale_inter_scale"
  top: "inception_5b_scale_inter_scale_mbox_conf"
  param {
    lr_mult: 1.0
    decay_mult: 1.0
  }
  param {
    lr_mult: 2.0
    decay_mult: 0.0
  }
  convolution_param {
    num_output: 6
    pad: 1
    kernel_size: 3
    stride: 1
    weight_filler {
      type: "xavier"
    }
    bias_filler {
      type: "constant"
      value: 0.0
    }
  }
}
layer {
  name: "inception_5b_scale_inter_scale_mbox_conf_perm"
  type: "Permute"
  bottom: "inception_5b_scale_inter_scale_mbox_conf"
  top: "inception_5b_scale_inter_scale_mbox_conf_perm"
  permute_param {
    order: 0
    order: 2
    order: 3
    order: 1
  }
}
layer {
  name: "inception_5b_scale_inter_scale_mbox_conf_flat"
  type: "Flatten"
  bottom: "inception_5b_scale_inter_scale_mbox_conf_perm"
  top: "inception_5b_scale_inter_scale_mbox_conf_flat"
  flatten_param {
    axis: 1
  }
}
layer {
  name: "inception_5b_scale_inter_scale_mbox_priorbox"
  type: "PriorBox"
  bottom: "inception_5b_scale_inter_scale"
  bottom: "data"
  top: "inception_5b_scale_inter_scale_mbox_priorbox"
  prior_box_param {
    min_size: 128.0
    aspect_ratio: 2.0
    flip: true
    clip: false
    variance: 0.10000000149
    variance: 0.10000000149
    variance: 0.20000000298
    variance: 0.20000000298
    step: 32.0
    offset: 0.5
  }
}
layer {
  name: "inception_6_scale_inter_1x1"
  type: "Convolution"
  bottom: "P6"
  top: "inception_6_scale_inter_1x1"
  param {
    lr_mult: 1.0
    decay_mult: 1.0
  }
  convolution_param {
    num_output: 32
    bias_term: false
    pad: 0
    kernel_size: 1
    stride: 1
    weight_filler {
      type: "gaussian"
      std: 0.00999999977648
    }
  }
}
layer {
  name: "bninception_6_scale_inter_1x1"
  type: "BatchNorm"
  bottom: "inception_6_scale_inter_1x1"
  top: "inception_6_scale_inter_1x1"
}
layer {
  name: "scaleinception_6_scale_inter_1x1"
  type: "Scale"
  bottom: "inception_6_scale_inter_1x1"
  top: "inception_6_scale_inter_1x1"
  scale_param {
    bias_term: true
  }
}
layer {
  name: "inception_6_scale_inter/relu_1x1"
  type: "ReLU"
  bottom: "inception_6_scale_inter_1x1"
  top: "inception_6_scale_inter_1x1"
}
layer {
  name: "inception_6_scale_inter_3x3_reduce"
  type: "Convolution"
  bottom: "P6"
  top: "inception_6_scale_inter_3x3_reduce"
  param {
    lr_mult: 1.0
    decay_mult: 1.0
  }
  convolution_param {
    num_output: 32
    bias_term: false
    pad: 0
    kernel_size: 1
    stride: 1
    weight_filler {
      type: "gaussian"
      std: 0.00999999977648
    }
  }
}
layer {
  name: "bninception_6_scale_inter_3x3_reduce"
  type: "BatchNorm"
  bottom: "inception_6_scale_inter_3x3_reduce"
  top: "inception_6_scale_inter_3x3_reduce"
}
layer {
  name: "scaleinception_6_scale_inter_3x3_reduce"
  type: "Scale"
  bottom: "inception_6_scale_inter_3x3_reduce"
  top: "inception_6_scale_inter_3x3_reduce"
  scale_param {
    bias_term: true
  }
}
layer {
  name: "inception_6_scale_inter/relu_3x3_reduce"
  type: "ReLU"
  bottom: "inception_6_scale_inter_3x3_reduce"
  top: "inception_6_scale_inter_3x3_reduce"
}
layer {
  name: "inception_6_scale_inter_3x3"
  type: "Convolution"
  bottom: "inception_6_scale_inter_3x3_reduce"
  top: "inception_6_scale_inter_3x3"
  param {
    lr_mult: 1.0
    decay_mult: 1.0
  }
  convolution_param {
    num_output: 32
    bias_term: false
    pad: 1
    kernel_size: 3
    stride: 1
    weight_filler {
      type: "gaussian"
      std: 0.00999999977648
    }
  }
}
layer {
  name: "bninception_6_scale_inter_3x3"
  type: "BatchNorm"
  bottom: "inception_6_scale_inter_3x3"
  top: "inception_6_scale_inter_3x3"
}
layer {
  name: "scaleinception_6_scale_inter_3x3"
  type: "Scale"
  bottom: "inception_6_scale_inter_3x3"
  top: "inception_6_scale_inter_3x3"
  scale_param {
    bias_term: true
  }
}
layer {
  name: "inception_6_scale_inter/relu_3x3"
  type: "ReLU"
  bottom: "inception_6_scale_inter_3x3"
  top: "inception_6_scale_inter_3x3"
}
layer {
  name: "inception_6_scale_inter_double3_3_reduce"
  type: "Convolution"
  bottom: "P6"
  top: "inception_6_scale_inter_double3_3_reduce"
  param {
    lr_mult: 1.0
    decay_mult: 1.0
  }
  convolution_param {
    num_output: 32
    bias_term: false
    pad: 0
    kernel_size: 1
    stride: 1
    weight_filler {
      type: "gaussian"
      std: 0.00999999977648
    }
  }
}
layer {
  name: "bninception_6_scale_inter_double3_3_reduce"
  type: "BatchNorm"
  bottom: "inception_6_scale_inter_double3_3_reduce"
  top: "inception_6_scale_inter_double3_3_reduce"
}
layer {
  name: "scaleinception_6_scale_inter_double3_3_reduce"
  type: "Scale"
  bottom: "inception_6_scale_inter_double3_3_reduce"
  top: "inception_6_scale_inter_double3_3_reduce"
  scale_param {
    bias_term: true
  }
}
layer {
  name: "inception_6_scale_inter/relu_double3x3_reduce"
  type: "ReLU"
  bottom: "inception_6_scale_inter_double3_3_reduce"
  top: "inception_6_scale_inter_double3_3_reduce"
}
layer {
  name: "inception_6_scale_inter_double3_3a"
  type: "Convolution"
  bottom: "inception_6_scale_inter_double3_3_reduce"
  top: "inception_6_scale_inter_double3_3a"
  param {
    lr_mult: 1.0
    decay_mult: 1.0
  }
  convolution_param {
    num_output: 48
    bias_term: false
    pad: 1
    kernel_size: 3
    stride: 1
    weight_filler {
      type: "gaussian"
      std: 0.00999999977648
    }
  }
}
layer {
  name: "bninception_6_scale_inter_double3_3a"
  type: "BatchNorm"
  bottom: "inception_6_scale_inter_double3_3a"
  top: "inception_6_scale_inter_double3_3a"
}
layer {
  name: "scaleinception_6_scale_inter_double3_3a"
  type: "Scale"
  bottom: "inception_6_scale_inter_double3_3a"
  top: "inception_6_scale_inter_double3_3a"
  scale_param {
    bias_term: true
  }
}
layer {
  name: "inception_6_scale_inter/relu_double3x3a"
  type: "ReLU"
  bottom: "inception_6_scale_inter_double3_3a"
  top: "inception_6_scale_inter_double3_3a"
}
layer {
  name: "inception_6_scale_inter_double3_3b"
  type: "Convolution"
  bottom: "inception_6_scale_inter_double3_3a"
  top: "inception_6_scale_inter_double3_3b"
  param {
    lr_mult: 1.0
    decay_mult: 1.0
  }
  convolution_param {
    num_output: 48
    bias_term: false
    pad: 1
    kernel_size: 3
    stride: 1
    weight_filler {
      type: "gaussian"
      std: 0.00999999977648
    }
  }
}
layer {
  name: "bninception_6_scale_inter_double3_3b"
  type: "BatchNorm"
  bottom: "inception_6_scale_inter_double3_3b"
  top: "inception_6_scale_inter_double3_3b"
}
layer {
  name: "scaleinception_6_scale_inter_double3_3b"
  type: "Scale"
  bottom: "inception_6_scale_inter_double3_3b"
  top: "inception_6_scale_inter_double3_3b"
  scale_param {
    bias_term: true
  }
}
layer {
  name: "inception_6_scale_inter/relu_double3x3b"
  type: "ReLU"
  bottom: "inception_6_scale_inter_double3_3b"
  top: "inception_6_scale_inter_double3_3b"
}
layer {
  name: "inception_6_scale_inter_pool"
  type: "Pooling"
  bottom: "P6"
  top: "inception_6_scale_inter_pool"
  pooling_param {
    pool: AVE
    kernel_size: 3
    stride: 1
    pad: 1
  }
}
layer {
  name: "inception_6_scale_inter_pool_proj"
  type: "Convolution"
  bottom: "inception_6_scale_inter_pool"
  top: "inception_6_scale_inter_pool_proj"
  param {
    lr_mult: 1.0
    decay_mult: 1.0
  }
  convolution_param {
    num_output: 16
    bias_term: false
    pad: 0
    kernel_size: 1
    stride: 1
    weight_filler {
      type: "gaussian"
      std: 0.00999999977648
    }
  }
}
layer {
  name: "bninception_6_scale_inter_pool_proj"
  type: "BatchNorm"
  bottom: "inception_6_scale_inter_pool_proj"
  top: "inception_6_scale_inter_pool_proj"
}
layer {
  name: "scaleinception_6_scale_inter_pool_proj"
  type: "Scale"
  bottom: "inception_6_scale_inter_pool_proj"
  top: "inception_6_scale_inter_pool_proj"
  scale_param {
    bias_term: true
  }
}
layer {
  name: "inception_6_scale_inter/relu_pool_proj"
  type: "ReLU"
  bottom: "inception_6_scale_inter_pool_proj"
  top: "inception_6_scale_inter_pool_proj"
}
layer {
  name: "inception_6_scale_inter_concat"
  type: "Concat"
  bottom: "inception_6_scale_inter_1x1"
  bottom: "inception_6_scale_inter_3x3"
  bottom: "inception_6_scale_inter_double3_3b"
  bottom: "inception_6_scale_inter_pool_proj"
  top: "inception_6_scale_inter_concat"
}
layer {
  name: "inception_6_scale_inter_global_pool"
  type: "Pooling"
  bottom: "inception_6_scale_inter_concat"
  top: "inception_6_scale_inter_global_pool"
  pooling_param {
    pool: AVE
    engine: CAFFE
    global_pooling: true
  }
}
layer {
  name: "inception_6_scale_inter_1x1_down"
  type: "Convolution"
  bottom: "inception_6_scale_inter_global_pool"
  top: "inception_6_scale_inter_1x1_down"
  param {
    lr_mult: 1.0
    decay_mult: 1.0
  }
  convolution_param {
    num_output: 8
    kernel_size: 1
    stride: 1
    weight_filler {
      type: "gaussian"
      std: 0.00999999977648
    }
  }
}
layer {
  name: "inception_6_scale_inter_1x1_down_relu"
  type: "ReLU"
  bottom: "inception_6_scale_inter_1x1_down"
  top: "inception_6_scale_inter_1x1_down"
}
layer {
  name: "inception_6_scale_inter_1x1_up"
  type: "Convolution"
  bottom: "inception_6_scale_inter_1x1_down"
  top: "inception_6_scale_inter_1x1_up"
  param {
    lr_mult: 1.0
    decay_mult: 1.0
  }
  convolution_param {
    num_output: 128
    kernel_size: 1
    stride: 1
    weight_filler {
      type: "gaussian"
      std: 0.00999999977648
    }
  }
}
layer {
  name: "inception_6_scale_inter_prob"
  type: "Sigmoid"
  bottom: "inception_6_scale_inter_1x1_up"
  top: "inception_6_scale_inter_1x1_up"
}
layer {
  name: "inception_6_scale_inter_prob_reshape"
  type: "Reshape"
  bottom: "inception_6_scale_inter_1x1_up"
  top: "inception_6_scale_inter_prob_reshape"
  reshape_param {
    shape {
      dim: 0
      dim: 0
    }
  }
}
layer {
  name: "inception_6_scale_inter_scale"
  type: "Scale"
  bottom: "inception_6_scale_inter_concat"
  bottom: "inception_6_scale_inter_prob_reshape"
  top: "inception_6_scale_inter_scale"
  scale_param {
    axis: 0
    bias_term: false
  }
}
layer {
  name: "inception_6_scale_inter_scale_mbox_loc"
  type: "Convolution"
  bottom: "inception_6_scale_inter_scale"
  top: "inception_6_scale_inter_scale_mbox_loc"
  param {
    lr_mult: 1.0
    decay_mult: 1.0
  }
  param {
    lr_mult: 2.0
    decay_mult: 0.0
  }
  convolution_param {
    num_output: 12
    pad: 1
    kernel_size: 3
    stride: 1
    weight_filler {
      type: "xavier"
    }
    bias_filler {
      type: "constant"
      value: 0.0
    }
  }
}
layer {
  name: "inception_6_scale_inter_scale_mbox_loc_perm"
  type: "Permute"
  bottom: "inception_6_scale_inter_scale_mbox_loc"
  top: "inception_6_scale_inter_scale_mbox_loc_perm"
  permute_param {
    order: 0
    order: 2
    order: 3
    order: 1
  }
}
layer {
  name: "inception_6_scale_inter_scale_mbox_loc_flat"
  type: "Flatten"
  bottom: "inception_6_scale_inter_scale_mbox_loc_perm"
  top: "inception_6_scale_inter_scale_mbox_loc_flat"
  flatten_param {
    axis: 1
  }
}
layer {
  name: "inception_6_scale_inter_scale_mbox_conf"
  type: "Convolution"
  bottom: "inception_6_scale_inter_scale"
  top: "inception_6_scale_inter_scale_mbox_conf"
  param {
    lr_mult: 1.0
    decay_mult: 1.0
  }
  param {
    lr_mult: 2.0
    decay_mult: 0.0
  }
  convolution_param {
    num_output: 243
    pad: 1
    kernel_size: 3
    stride: 1
    weight_filler {
      type: "xavier"
    }
    bias_filler {
      type: "constant"
      value: 0.0
    }
  }
}
layer {
  name: "inception_6_scale_inter_scale_mbox_conf_perm"
  type: "Permute"
  bottom: "inception_6_scale_inter_scale_mbox_conf"
  top: "inception_6_scale_inter_scale_mbox_conf_perm"
  permute_param {
    order: 0
    order: 2
    order: 3
    order: 1
  }
}
layer {
  name: "inception_6_scale_inter_scale_mbox_conf_flat"
  type: "Flatten"
  bottom: "inception_6_scale_inter_scale_mbox_conf_perm"
  top: "inception_6_scale_inter_scale_mbox_conf_flat"
  flatten_param {
    axis: 1
  }
}
layer {
  name: "Convolution1"
  type: "Convolution"
  bottom: "inception_6_scale"
  top: "Convolution1"
  param {
    lr_mult: 1.0
    decay_mult: 1.0
  }
  convolution_param {
    num_output: 32
    bias_term: false
    pad: 0
    kernel_size: 1
    stride: 1
    weight_filler {
      type: "gaussian"
      std: 0.00999999977648
    }
  }
}
layer {
  name: "Convolution2"
  type: "Convolution"
  bottom: "inception_6_scale"
  top: "Convolution2"
  param {
    lr_mult: 1.0
    decay_mult: 1.0
  }
  convolution_param {
    num_output: 32
    bias_term: false
    pad: 0
    kernel_size: 1
    stride: 1
    weight_filler {
      type: "gaussian"
      std: 0.00999999977648
    }
  }
}
layer {
  name: "Convolution3"
  type: "Convolution"
  bottom: "Convolution2"
  top: "Convolution3"
  param {
    lr_mult: 1.0
    decay_mult: 1.0
  }
  convolution_param {
    num_output: 32
    bias_term: false
    pad: 1
    kernel_size: 3
    stride: 1
    weight_filler {
      type: "gaussian"
      std: 0.00999999977648
    }
  }
}
layer {
  name: "Convolution4"
  type: "Convolution"
  bottom: "inception_6_scale"
  top: "Convolution4"
  param {
    lr_mult: 1.0
    decay_mult: 1.0
  }
  convolution_param {
    num_output: 32
    bias_term: false
    pad: 0
    kernel_size: 1
    stride: 1
    weight_filler {
      type: "gaussian"
      std: 0.00999999977648
    }
  }
}
layer {
  name: "Convolution5"
  type: "Convolution"
  bottom: "Convolution4"
  top: "Convolution5"
  param {
    lr_mult: 1.0
    decay_mult: 1.0
  }
  convolution_param {
    num_output: 48
    bias_term: false
    pad: 1
    kernel_size: 3
    stride: 1
    weight_filler {
      type: "gaussian"
      std: 0.00999999977648
    }
  }
}
layer {
  name: "Convolution6"
  type: "Convolution"
  bottom: "Convolution5"
  top: "Convolution6"
  param {
    lr_mult: 1.0
    decay_mult: 1.0
  }
  convolution_param {
    num_output: 48
    bias_term: false
    pad: 1
    kernel_size: 3
    stride: 1
    weight_filler {
      type: "gaussian"
      std: 0.00999999977648
    }
  }
}
layer {
  name: "Pooling1"
  type: "Pooling"
  bottom: "inception_6_scale"
  top: "Pooling1"
  pooling_param {
    pool: AVE
    kernel_size: 3
    stride: 1
    pad: 1
  }
}
layer {
  name: "Convolution7"
  type: "Convolution"
  bottom: "Pooling1"
  top: "Convolution7"
  param {
    lr_mult: 1.0
    decay_mult: 1.0
  }
  convolution_param {
    num_output: 16
    bias_term: false
    pad: 0
    kernel_size: 1
    stride: 1
    weight_filler {
      type: "gaussian"
      std: 0.00999999977648
    }
  }
}
layer {
  name: "Concat1"
  type: "Concat"
  bottom: "Convolution1"
  bottom: "Convolution3"
  bottom: "Convolution6"
  bottom: "Convolution7"
  top: "Concat1"
}
layer {
  name: "Pooling2"
  type: "Pooling"
  bottom: "Concat1"
  top: "Pooling2"
  pooling_param {
    pool: AVE
    engine: CAFFE
    global_pooling: true
  }
}
layer {
  name: "Convolution8"
  type: "Convolution"
  bottom: "Pooling2"
  top: "Convolution8"
  param {
    lr_mult: 1.0
    decay_mult: 1.0
  }
  convolution_param {
    num_output: 8
    kernel_size: 1
    stride: 1
    weight_filler {
      type: "gaussian"
      std: 0.00999999977648
    }
  }
}
layer {
  name: "Convolution9"
  type: "Convolution"
  bottom: "Convolution8"
  top: "Convolution9"
  param {
    lr_mult: 1.0
    decay_mult: 1.0
  }
  convolution_param {
    num_output: 128
    kernel_size: 1
    stride: 1
    weight_filler {
      type: "gaussian"
      std: 0.00999999977648
    }
  }
}
layer {
  name: "Reshape1"
  type: "Reshape"
  bottom: "Convolution9"
  top: "Reshape1"
  reshape_param {
    shape {
      dim: 0
      dim: 0
    }
  }
}
layer {
  name: "Scale1"
  type: "Scale"
  bottom: "Concat1"
  bottom: "Reshape1"
  top: "Scale1"
  scale_param {
    axis: 0
    bias_term: false
  }
}
layer {
  name: "inception_6_scale_inter_scale_mbox_priorbox"
  type: "PriorBox"
  bottom: "Scale1"
  bottom: "data"
  top: "inception_6_scale_inter_scale_mbox_priorbox"
  prior_box_param {
    min_size: 256.0
    aspect_ratio: 2.0
    flip: true
    clip: false
    variance: 0.10000000149
    variance: 0.10000000149
    variance: 0.20000000298
    variance: 0.20000000298
    step: 64.0
    offset: 0.5
  }
}
layer {
  name: "Convolution10"
  type: "Convolution"
  bottom: "Scale1"
  top: "Convolution10"
  param {
    lr_mult: 1.0
    decay_mult: 1.0
  }
  param {
    lr_mult: 2.0
    decay_mult: 0.0
  }
  convolution_param {
    num_output: 12
    pad: 1
    kernel_size: 3
    stride: 1
    weight_filler {
      type: "xavier"
    }
    bias_filler {
      type: "constant"
      value: 0.0
    }
  }
}
layer {
  name: "Permute1"
  type: "Permute"
  bottom: "Convolution10"
  top: "Permute1"
  permute_param {
    order: 0
    order: 2
    order: 3
    order: 1
  }
}
layer {
  name: "Flatten1"
  type: "Flatten"
  bottom: "Permute1"
  top: "Flatten1"
  flatten_param {
    axis: 1
  }
}
layer {
  name: "arm_loc"
  type: "Concat"
  bottom: "inception_3b_scale_inter_scale_mbox_loc_flat"
  bottom: "inception_4d_scale_inter_scale_mbox_loc_flat"
  bottom: "inception_5b_scale_inter_scale_mbox_loc_flat"
  bottom: "Flatten1"
  top: "arm_loc"
  concat_param {
    axis: 1
  }
}
layer {
  name: "Convolution11"
  type: "Convolution"
  bottom: "Scale1"
  top: "Convolution11"
  param {
    lr_mult: 1.0
    decay_mult: 1.0
  }
  param {
    lr_mult: 2.0
    decay_mult: 0.0
  }
  convolution_param {
    num_output: 6
    pad: 1
    kernel_size: 3
    stride: 1
    weight_filler {
      type: "xavier"
    }
    bias_filler {
      type: "constant"
      value: 0.0
    }
  }
}
layer {
  name: "Permute2"
  type: "Permute"
  bottom: "Convolution11"
  top: "Permute2"
  permute_param {
    order: 0
    order: 2
    order: 3
    order: 1
  }
}
layer {
  name: "Flatten2"
  type: "Flatten"
  bottom: "Permute2"
  top: "Flatten2"
  flatten_param {
    axis: 1
  }
}
layer {
  name: "arm_conf"
  type: "Concat"
  bottom: "inception_3b_scale_inter_scale_mbox_conf_flat"
  bottom: "inception_4d_scale_inter_scale_mbox_conf_flat"
  bottom: "inception_5b_scale_inter_scale_mbox_conf_flat"
  bottom: "Flatten2"
  top: "arm_conf"
  concat_param {
    axis: 1
  }
}
layer {
  name: "arm_priorbox"
  type: "Concat"
  bottom: "inception_3b_scale_inter_scale_mbox_priorbox"
  bottom: "inception_4d_scale_inter_scale_mbox_priorbox"
  bottom: "inception_5b_scale_inter_scale_mbox_priorbox"
  bottom: "inception_6_scale_inter_scale_mbox_priorbox"
  top: "arm_priorbox"
  concat_param {
    axis: 2
  }
}
layer {
  name: "Convolution12"
  type: "Convolution"
  bottom: "P3"
  top: "Convolution12"
  param {
    lr_mult: 1.0
    decay_mult: 1.0
  }
  convolution_param {
    num_output: 32
    bias_term: false
    pad: 0
    kernel_size: 1
    stride: 1
    weight_filler {
      type: "gaussian"
      std: 0.00999999977648
    }
  }
}
layer {
  name: "Convolution13"
  type: "Convolution"
  bottom: "P3"
  top: "Convolution13"
  param {
    lr_mult: 1.0
    decay_mult: 1.0
  }
  convolution_param {
    num_output: 32
    bias_term: false
    pad: 0
    kernel_size: 1
    stride: 1
    weight_filler {
      type: "gaussian"
      std: 0.00999999977648
    }
  }
}
layer {
  name: "Convolution14"
  type: "Convolution"
  bottom: "Convolution13"
  top: "Convolution14"
  param {
    lr_mult: 1.0
    decay_mult: 1.0
  }
  convolution_param {
    num_output: 32
    bias_term: false
    pad: 1
    kernel_size: 3
    stride: 1
    weight_filler {
      type: "gaussian"
      std: 0.00999999977648
    }
  }
}
layer {
  name: "Convolution15"
  type: "Convolution"
  bottom: "P3"
  top: "Convolution15"
  param {
    lr_mult: 1.0
    decay_mult: 1.0
  }
  convolution_param {
    num_output: 32
    bias_term: false
    pad: 0
    kernel_size: 1
    stride: 1
    weight_filler {
      type: "gaussian"
      std: 0.00999999977648
    }
  }
}
layer {
  name: "Convolution16"
  type: "Convolution"
  bottom: "Convolution15"
  top: "Convolution16"
  param {
    lr_mult: 1.0
    decay_mult: 1.0
  }
  convolution_param {
    num_output: 48
    bias_term: false
    pad: 1
    kernel_size: 3
    stride: 1
    weight_filler {
      type: "gaussian"
      std: 0.00999999977648
    }
  }
}
layer {
  name: "Convolution17"
  type: "Convolution"
  bottom: "Convolution16"
  top: "Convolution17"
  param {
    lr_mult: 1.0
    decay_mult: 1.0
  }
  convolution_param {
    num_output: 48
    bias_term: false
    pad: 1
    kernel_size: 3
    stride: 1
    weight_filler {
      type: "gaussian"
      std: 0.00999999977648
    }
  }
}
layer {
  name: "Pooling3"
  type: "Pooling"
  bottom: "P3"
  top: "Pooling3"
  pooling_param {
    pool: AVE
    kernel_size: 3
    stride: 1
    pad: 1
  }
}
layer {
  name: "Convolution18"
  type: "Convolution"
  bottom: "Pooling3"
  top: "Convolution18"
  param {
    lr_mult: 1.0
    decay_mult: 1.0
  }
  convolution_param {
    num_output: 16
    bias_term: false
    pad: 0
    kernel_size: 1
    stride: 1
    weight_filler {
      type: "gaussian"
      std: 0.00999999977648
    }
  }
}
layer {
  name: "Concat2"
  type: "Concat"
  bottom: "Convolution12"
  bottom: "Convolution14"
  bottom: "Convolution17"
  bottom: "Convolution18"
  top: "Concat2"
}
layer {
  name: "Pooling4"
  type: "Pooling"
  bottom: "Concat2"
  top: "Pooling4"
  pooling_param {
    pool: AVE
    engine: CAFFE
    global_pooling: true
  }
}
layer {
  name: "Convolution19"
  type: "Convolution"
  bottom: "Pooling4"
  top: "Convolution19"
  param {
    lr_mult: 1.0
    decay_mult: 1.0
  }
  convolution_param {
    num_output: 8
    kernel_size: 1
    stride: 1
    weight_filler {
      type: "gaussian"
      std: 0.00999999977648
    }
  }
}
layer {
  name: "Convolution20"
  type: "Convolution"
  bottom: "Convolution19"
  top: "Convolution20"
  param {
    lr_mult: 1.0
    decay_mult: 1.0
  }
  convolution_param {
    num_output: 128
    kernel_size: 1
    stride: 1
    weight_filler {
      type: "gaussian"
      std: 0.00999999977648
    }
  }
}
layer {
  name: "Reshape2"
  type: "Reshape"
  bottom: "Convolution20"
  top: "Reshape2"
  reshape_param {
    shape {
      dim: 0
      dim: 0
    }
  }
}
layer {
  name: "Scale2"
  type: "Scale"
  bottom: "Concat2"
  bottom: "Reshape2"
  top: "Scale2"
  scale_param {
    axis: 0
    bias_term: false
  }
}
layer {
  name: "Convolution21"
  type: "Convolution"
  bottom: "Scale2"
  top: "Convolution21"
  param {
    lr_mult: 1.0
    decay_mult: 1.0
  }
  param {
    lr_mult: 2.0
    decay_mult: 0.0
  }
  convolution_param {
    num_output: 12
    pad: 1
    kernel_size: 3
    stride: 1
    weight_filler {
      type: "xavier"
    }
    bias_filler {
      type: "constant"
      value: 0.0
    }
  }
}
layer {
  name: "Permute3"
  type: "Permute"
  bottom: "Convolution21"
  top: "Permute3"
  permute_param {
    order: 0
    order: 2
    order: 3
    order: 1
  }
}
layer {
  name: "Flatten3"
  type: "Flatten"
  bottom: "Permute3"
  top: "Flatten3"
  flatten_param {
    axis: 1
  }
}
layer {
  name: "Convolution22"
  type: "Convolution"
  bottom: "P4"
  top: "Convolution22"
  param {
    lr_mult: 1.0
    decay_mult: 1.0
  }
  convolution_param {
    num_output: 32
    bias_term: false
    pad: 0
    kernel_size: 1
    stride: 1
    weight_filler {
      type: "gaussian"
      std: 0.00999999977648
    }
  }
}
layer {
  name: "Convolution23"
  type: "Convolution"
  bottom: "P4"
  top: "Convolution23"
  param {
    lr_mult: 1.0
    decay_mult: 1.0
  }
  convolution_param {
    num_output: 32
    bias_term: false
    pad: 0
    kernel_size: 1
    stride: 1
    weight_filler {
      type: "gaussian"
      std: 0.00999999977648
    }
  }
}
layer {
  name: "Convolution24"
  type: "Convolution"
  bottom: "Convolution23"
  top: "Convolution24"
  param {
    lr_mult: 1.0
    decay_mult: 1.0
  }
  convolution_param {
    num_output: 32
    bias_term: false
    pad: 1
    kernel_size: 3
    stride: 1
    weight_filler {
      type: "gaussian"
      std: 0.00999999977648
    }
  }
}
layer {
  name: "Convolution25"
  type: "Convolution"
  bottom: "P4"
  top: "Convolution25"
  param {
    lr_mult: 1.0
    decay_mult: 1.0
  }
  convolution_param {
    num_output: 32
    bias_term: false
    pad: 0
    kernel_size: 1
    stride: 1
    weight_filler {
      type: "gaussian"
      std: 0.00999999977648
    }
  }
}
layer {
  name: "Convolution26"
  type: "Convolution"
  bottom: "Convolution25"
  top: "Convolution26"
  param {
    lr_mult: 1.0
    decay_mult: 1.0
  }
  convolution_param {
    num_output: 48
    bias_term: false
    pad: 1
    kernel_size: 3
    stride: 1
    weight_filler {
      type: "gaussian"
      std: 0.00999999977648
    }
  }
}
layer {
  name: "Convolution27"
  type: "Convolution"
  bottom: "Convolution26"
  top: "Convolution27"
  param {
    lr_mult: 1.0
    decay_mult: 1.0
  }
  convolution_param {
    num_output: 48
    bias_term: false
    pad: 1
    kernel_size: 3
    stride: 1
    weight_filler {
      type: "gaussian"
      std: 0.00999999977648
    }
  }
}
layer {
  name: "Pooling5"
  type: "Pooling"
  bottom: "P4"
  top: "Pooling5"
  pooling_param {
    pool: AVE
    kernel_size: 3
    stride: 1
    pad: 1
  }
}
layer {
  name: "Convolution28"
  type: "Convolution"
  bottom: "Pooling5"
  top: "Convolution28"
  param {
    lr_mult: 1.0
    decay_mult: 1.0
  }
  convolution_param {
    num_output: 16
    bias_term: false
    pad: 0
    kernel_size: 1
    stride: 1
    weight_filler {
      type: "gaussian"
      std: 0.00999999977648
    }
  }
}
layer {
  name: "Concat3"
  type: "Concat"
  bottom: "Convolution22"
  bottom: "Convolution24"
  bottom: "Convolution27"
  bottom: "Convolution28"
  top: "Concat3"
}
layer {
  name: "Pooling6"
  type: "Pooling"
  bottom: "Concat3"
  top: "Pooling6"
  pooling_param {
    pool: AVE
    engine: CAFFE
    global_pooling: true
  }
}
layer {
  name: "Convolution29"
  type: "Convolution"
  bottom: "Pooling6"
  top: "Convolution29"
  param {
    lr_mult: 1.0
    decay_mult: 1.0
  }
  convolution_param {
    num_output: 8
    kernel_size: 1
    stride: 1
    weight_filler {
      type: "gaussian"
      std: 0.00999999977648
    }
  }
}
layer {
  name: "Convolution30"
  type: "Convolution"
  bottom: "Convolution29"
  top: "Convolution30"
  param {
    lr_mult: 1.0
    decay_mult: 1.0
  }
  convolution_param {
    num_output: 128
    kernel_size: 1
    stride: 1
    weight_filler {
      type: "gaussian"
      std: 0.00999999977648
    }
  }
}
layer {
  name: "Reshape3"
  type: "Reshape"
  bottom: "Convolution30"
  top: "Reshape3"
  reshape_param {
    shape {
      dim: 0
      dim: 0
    }
  }
}
layer {
  name: "Scale3"
  type: "Scale"
  bottom: "Concat3"
  bottom: "Reshape3"
  top: "Scale3"
  scale_param {
    axis: 0
    bias_term: false
  }
}
layer {
  name: "Convolution31"
  type: "Convolution"
  bottom: "Scale3"
  top: "Convolution31"
  param {
    lr_mult: 1.0
    decay_mult: 1.0
  }
  param {
    lr_mult: 2.0
    decay_mult: 0.0
  }
  convolution_param {
    num_output: 12
    pad: 1
    kernel_size: 3
    stride: 1
    weight_filler {
      type: "xavier"
    }
    bias_filler {
      type: "constant"
      value: 0.0
    }
  }
}
layer {
  name: "Permute4"
  type: "Permute"
  bottom: "Convolution31"
  top: "Permute4"
  permute_param {
    order: 0
    order: 2
    order: 3
    order: 1
  }
}
layer {
  name: "Flatten4"
  type: "Flatten"
  bottom: "Permute4"
  top: "Flatten4"
  flatten_param {
    axis: 1
  }
}
layer {
  name: "Convolution32"
  type: "Convolution"
  bottom: "P5"
  top: "Convolution32"
  param {
    lr_mult: 1.0
    decay_mult: 1.0
  }
  convolution_param {
    num_output: 32
    bias_term: false
    pad: 0
    kernel_size: 1
    stride: 1
    weight_filler {
      type: "gaussian"
      std: 0.00999999977648
    }
  }
}
layer {
  name: "Convolution33"
  type: "Convolution"
  bottom: "P5"
  top: "Convolution33"
  param {
    lr_mult: 1.0
    decay_mult: 1.0
  }
  convolution_param {
    num_output: 32
    bias_term: false
    pad: 0
    kernel_size: 1
    stride: 1
    weight_filler {
      type: "gaussian"
      std: 0.00999999977648
    }
  }
}
layer {
  name: "Convolution34"
  type: "Convolution"
  bottom: "Convolution33"
  top: "Convolution34"
  param {
    lr_mult: 1.0
    decay_mult: 1.0
  }
  convolution_param {
    num_output: 32
    bias_term: false
    pad: 1
    kernel_size: 3
    stride: 1
    weight_filler {
      type: "gaussian"
      std: 0.00999999977648
    }
  }
}
layer {
  name: "Convolution35"
  type: "Convolution"
  bottom: "P5"
  top: "Convolution35"
  param {
    lr_mult: 1.0
    decay_mult: 1.0
  }
  convolution_param {
    num_output: 32
    bias_term: false
    pad: 0
    kernel_size: 1
    stride: 1
    weight_filler {
      type: "gaussian"
      std: 0.00999999977648
    }
  }
}
layer {
  name: "Convolution36"
  type: "Convolution"
  bottom: "Convolution35"
  top: "Convolution36"
  param {
    lr_mult: 1.0
    decay_mult: 1.0
  }
  convolution_param {
    num_output: 48
    bias_term: false
    pad: 1
    kernel_size: 3
    stride: 1
    weight_filler {
      type: "gaussian"
      std: 0.00999999977648
    }
  }
}
layer {
  name: "Convolution37"
  type: "Convolution"
  bottom: "Convolution36"
  top: "Convolution37"
  param {
    lr_mult: 1.0
    decay_mult: 1.0
  }
  convolution_param {
    num_output: 48
    bias_term: false
    pad: 1
    kernel_size: 3
    stride: 1
    weight_filler {
      type: "gaussian"
      std: 0.00999999977648
    }
  }
}
layer {
  name: "Pooling7"
  type: "Pooling"
  bottom: "P5"
  top: "Pooling7"
  pooling_param {
    pool: AVE
    kernel_size: 3
    stride: 1
    pad: 1
  }
}
layer {
  name: "Convolution38"
  type: "Convolution"
  bottom: "Pooling7"
  top: "Convolution38"
  param {
    lr_mult: 1.0
    decay_mult: 1.0
  }
  convolution_param {
    num_output: 16
    bias_term: false
    pad: 0
    kernel_size: 1
    stride: 1
    weight_filler {
      type: "gaussian"
      std: 0.00999999977648
    }
  }
}
layer {
  name: "Concat4"
  type: "Concat"
  bottom: "Convolution32"
  bottom: "Convolution34"
  bottom: "Convolution37"
  bottom: "Convolution38"
  top: "Concat4"
}
layer {
  name: "Pooling8"
  type: "Pooling"
  bottom: "Concat4"
  top: "Pooling8"
  pooling_param {
    pool: AVE
    engine: CAFFE
    global_pooling: true
  }
}
layer {
  name: "Convolution39"
  type: "Convolution"
  bottom: "Pooling8"
  top: "Convolution39"
  param {
    lr_mult: 1.0
    decay_mult: 1.0
  }
  convolution_param {
    num_output: 8
    kernel_size: 1
    stride: 1
    weight_filler {
      type: "gaussian"
      std: 0.00999999977648
    }
  }
}
layer {
  name: "Convolution40"
  type: "Convolution"
  bottom: "Convolution39"
  top: "Convolution40"
  param {
    lr_mult: 1.0
    decay_mult: 1.0
  }
  convolution_param {
    num_output: 128
    kernel_size: 1
    stride: 1
    weight_filler {
      type: "gaussian"
      std: 0.00999999977648
    }
  }
}
layer {
  name: "Reshape4"
  type: "Reshape"
  bottom: "Convolution40"
  top: "Reshape4"
  reshape_param {
    shape {
      dim: 0
      dim: 0
    }
  }
}
layer {
  name: "Scale4"
  type: "Scale"
  bottom: "Concat4"
  bottom: "Reshape4"
  top: "Scale4"
  scale_param {
    axis: 0
    bias_term: false
  }
}
layer {
  name: "Convolution41"
  type: "Convolution"
  bottom: "Scale4"
  top: "Convolution41"
  param {
    lr_mult: 1.0
    decay_mult: 1.0
  }
  param {
    lr_mult: 2.0
    decay_mult: 0.0
  }
  convolution_param {
    num_output: 12
    pad: 1
    kernel_size: 3
    stride: 1
    weight_filler {
      type: "xavier"
    }
    bias_filler {
      type: "constant"
      value: 0.0
    }
  }
}
layer {
  name: "Permute5"
  type: "Permute"
  bottom: "Convolution41"
  top: "Permute5"
  permute_param {
    order: 0
    order: 2
    order: 3
    order: 1
  }
}
layer {
  name: "Flatten5"
  type: "Flatten"
  bottom: "Permute5"
  top: "Flatten5"
  flatten_param {
    axis: 1
  }
}
layer {
  name: "odm_loc"
  type: "Concat"
  bottom: "Flatten3"
  bottom: "Flatten4"
  bottom: "Flatten5"
  bottom: "inception_6_scale_inter_scale_mbox_loc_flat"
  top: "odm_loc"
  concat_param {
    axis: 1
  }
}
layer {
  name: "Convolution42"
  type: "Convolution"
  bottom: "Scale2"
  top: "Convolution42"
  param {
    lr_mult: 1.0
    decay_mult: 1.0
  }
  param {
    lr_mult: 2.0
    decay_mult: 0.0
  }
  convolution_param {
    num_output: 243
    pad: 1
    kernel_size: 3
    stride: 1
    weight_filler {
      type: "xavier"
    }
    bias_filler {
      type: "constant"
      value: 0.0
    }
  }
}
layer {
  name: "Permute6"
  type: "Permute"
  bottom: "Convolution42"
  top: "Permute6"
  permute_param {
    order: 0
    order: 2
    order: 3
    order: 1
  }
}
layer {
  name: "Flatten6"
  type: "Flatten"
  bottom: "Permute6"
  top: "Flatten6"
  flatten_param {
    axis: 1
  }
}
layer {
  name: "Convolution43"
  type: "Convolution"
  bottom: "Scale3"
  top: "Convolution43"
  param {
    lr_mult: 1.0
    decay_mult: 1.0
  }
  param {
    lr_mult: 2.0
    decay_mult: 0.0
  }
  convolution_param {
    num_output: 243
    pad: 1
    kernel_size: 3
    stride: 1
    weight_filler {
      type: "xavier"
    }
    bias_filler {
      type: "constant"
      value: 0.0
    }
  }
}
layer {
  name: "Permute7"
  type: "Permute"
  bottom: "Convolution43"
  top: "Permute7"
  permute_param {
    order: 0
    order: 2
    order: 3
    order: 1
  }
}
layer {
  name: "Flatten7"
  type: "Flatten"
  bottom: "Permute7"
  top: "Flatten7"
  flatten_param {
    axis: 1
  }
}
layer {
  name: "Convolution44"
  type: "Convolution"
  bottom: "Scale4"
  top: "Convolution44"
  param {
    lr_mult: 1.0
    decay_mult: 1.0
  }
  param {
    lr_mult: 2.0
    decay_mult: 0.0
  }
  convolution_param {
    num_output: 243
    pad: 1
    kernel_size: 3
    stride: 1
    weight_filler {
      type: "xavier"
    }
    bias_filler {
      type: "constant"
      value: 0.0
    }
  }
}
layer {
  name: "Permute8"
  type: "Permute"
  bottom: "Convolution44"
  top: "Permute8"
  permute_param {
    order: 0
    order: 2
    order: 3
    order: 1
  }
}
layer {
  name: "Flatten8"
  type: "Flatten"
  bottom: "Permute8"
  top: "Flatten8"
  flatten_param {
    axis: 1
  }
}
layer {
  name: "odm_conf"
  type: "Concat"
  bottom: "Flatten6"
  bottom: "Flatten7"
  bottom: "Flatten8"
  bottom: "inception_6_scale_inter_scale_mbox_conf_flat"
  top: "odm_conf"
  concat_param {
    axis: 1
  }
}
layer {
  name: "arm_conf_reshape"
  type: "Reshape"
  bottom: "arm_conf"
  top: "arm_conf_reshape"
  reshape_param {
    shape {
      dim: 0
      dim: -1
      dim: 2
    }
  }
}
layer {
  name: "arm_conf_softmax"
  type: "Softmax"
  bottom: "arm_conf_reshape"
  top: "arm_conf_softmax"
  softmax_param {
    axis: 2
  }
}
layer {
  name: "arm_conf_flatten"
  type: "Flatten"
  bottom: "arm_conf_softmax"
  top: "arm_conf_flatten"
  flatten_param {
    axis: 1
  }
}
layer {
  name: "odm_conf_reshape"
  type: "Reshape"
  bottom: "odm_conf"
  top: "odm_conf_reshape"
  reshape_param {
    shape {
      dim: 0
      dim: -1
      dim: 81
    }
  }
}
layer {
  name: "odm_conf_softmax"
  type: "Softmax"
  bottom: "odm_conf_reshape"
  top: "odm_conf_softmax"
  softmax_param {
    axis: 2
  }
}
layer {
  name: "odm_conf_flatten"
  type: "Flatten"
  bottom: "odm_conf_softmax"
  top: "odm_conf_flatten"
  flatten_param {
    axis: 1
  }
}
layer {
  name: "detection_out"
  type: "DetectionOutput"
  bottom: "odm_loc"
  bottom: "odm_conf_flatten"
  bottom: "arm_priorbox"
  bottom: "arm_conf_flatten"
  bottom: "arm_loc"
  top: "detection_out"
  include {
    phase: TEST
  }
  detection_output_param {
    num_classes: 81
    share_location: true
    background_label_id: 0
    nms_param {
      nms_threshold: 0.449999988079
      top_k: 400
    }
    code_type: CENTER_SIZE
    keep_top_k: 200
    confidence_threshold: 0.10000000149
    objectness_score: 0.00999999977648
  }
}

